generator_midpoint.pt (torch, 14002 bytes, 13 tensors)

_initial._model.0.weight f4 [16, 5]
0	0xbf86ea96	-1.054034
1	0x3f0d8c34	0.5529206
2	0x3e3707e3	0.17874102
3	0x3f819d9c	1.0126224
4	0x3ee5a22d	0.44850293
5	0x3f15532e	0.5833005
6	0xbe62de8d	-0.22155209
7	0x3f9337cd	1.1501404
8	0x3f1855d5	0.5950597
9	0x3dfeefeb	0.124481045
10	0xbd3a01d8	-0.045411915
11	0x3ecb1a4f	0.3966851
12	0xbf81011f	-1.0078467
13	0xbf5a01a1	-0.85158736
14	0x3fa2f125	1.2729841
15	0xbf35fd6c	-0.71089816
16	0xbe2c97c0	-0.16854763
17	0xbe46992c	-0.19394368
18	0x3f4f408f	0.80957884
19	0x3f0d9665	0.5530761
20	0xbe4d8ff0	-0.20074439
21	0x3f599b58	0.8500266
22	0x3e91a898	0.2844894
23	0xbf88d39e	-1.068958
24	0x3f859d29	1.0438586
25	0xbf258d52	-0.6466876
26	0x3f4f9a84	0.8109515
27	0xbdf1b67c	-0.11802384
28	0x3fa016ee	1.2506998
29	0x3fa4f90d	1.2888504
30	0xbd55ce73	-0.05219884
31	0xbe3d9a63	-0.18515925
32	0xbf9cc09c	-1.224628
33	0xbee8eee8	-0.4549477
34	0x3eee9e51	0.4660516
35	0xbf84ab9d	-1.0364872
36	0xbf0f55ce	-0.559903
37	0xbe16ede0	-0.1473918
38	0xbf151dcb	-0.58248585
39	0xbdb61566	-0.088908
40	0x3f97bc27	1.1854295
41	0xbf9d0dc2	-1.2269824
42	0xbfaa3b2b	-1.3299307
43	0x3fa871c4	1.3159719
44	0x3f65ca4b	0.897618
45	0xbeaa22e3	-0.3322974
46	0x3f895509	1.0729076
47	0x3e5852ea	0.21125379
48	0x3f8a31ff	1.0796508
49	0x3c09fc37	0.008421949
50	0x3c3b7351	0.011441068
51	0x3f995f83	1.1982273
52	0x3ed957bc	0.4244975
53	0x3ed177fa	0.40911847
54	0xbf122702	-0.5709077
55	0x3e49759a	0.19673768
56	0xbf6a6c2b	-0.915713
57	0xbf570c81	-0.84003454
58	0x3fa878ac	1.3161826
59	0xbf08b1bc	-0.533962
60	0x3ec46fb6	0.3836648
61	0x3f184ea5	0.59495
62	0x3e11b93f	0.14230822
63	0xbe3e10b2	-0.18561056
64	0xbe384fae	-0.17999145
65	0x3f8a36fb	1.0798029
66	0x3e62f7b6	0.22164807
67	0x3f920ea4	1.1410718
68	0x3f001e46	0.50046194
69	0xbf696b83	-0.91179675
70	0x3f3c61c7	0.73586696
71	0x3da2db1c	0.07951948
72	0xbcbe1d08	-0.023207203
73	0xbe9ca387	-0.3059351
74	0xbf83206a	-1.0244267
75	0xbe95c425	-0.2925121
76	0x3f3ebc2d	0.74505883
77	0xbeeddc16	-0.46456975
78	0xbe70bf3b	-0.23510449
79	0xbf515b12	-0.8177959

_initial._model.0.bias f4 [16]
0	0x3e9d6806	0.30743426
1	0xbea4fe61	-0.32225326
2	0x3e6f3186	0.23358735
3	0xbf57bd63	-0.84273356
4	0xbf6c8b00	-0.923996
5	0xbed21c38	-0.41037154
6	0xbf40f4f8	-0.7537379
7	0x3f260e9a	0.6486603
8	0x3d35317e	0.044236653
9	0xbe475e06	-0.19469461
10	0x3e459cda	0.19298115
11	0x3f397a97	0.7245268
12	0xbe3a3ec9	-0.18188013
13	0xbf3cebb2	-0.7379714
14	0x3d0b65b2	0.03403253
15	0xbf5dc996	-0.8663572

_initial._model.2.weight f4 [16, 16]
0	0x3f14b578	0.580894
1	0x3eefe0ce	0.468512
2	0x3eafc7db	0.34332165
3	0x3ebaf66a	0.36516124
4	0xbd304fac	-0.04304473
5	0x3ef5c016	0.47998112
6	0xbd004e8e	-0.031324916
7	0x3f28fcea	0.66010916
8	0xbea52b5c	-0.32259643
9	0x3e223302	0.1583977
10	0xbe8790e6	-0.26477736
11	0x3e63be29	0.22240509
12	0xbeb54c4b	-0.3540977
13	0x3f377bd8	0.71673346
14	0xbf3c0a85	-0.7345355
15	0xbf31084e	-0.69153297
16	0xbd926076	-0.07147305
17	0xbecb51c6	-0.39710826
18	0x3e0a9cab	0.13536327
19	0x3eef81a3	0.46778592
20	0xbec5d1e0	-0.38636684
21	0x3f0232dd	0.5085886
22	0xbdcfbdb0	-0.10143602
23	0x3f3cf365	0.7380889
24	0xbea0aa7a	-0.31380063
25	0x3f05efab	0.5231883
26	0xbf3b3ef6	-0.73142946
27	0xbe690759	-0.22756709
28	0xbf3b6526	-0.73201215
29	0x3f1942e3	0.59867686
30	0xbe226e98	-0.158625
31	0x3dbd5e12	0.09246458
32	0xbe456287	-0.19275866
33	0xbeb21cfd	-0.3478774
34	0x3cfbd3fe	0.030740734
35	0x3bb6bdec	0.0055768397
36	0x3eb2e170	0.3493762
37	0x3ea7ef21	0.32799628
38	0xbf0852cb	-0.5325133
39	0xbf291cad	-0.6605938
40	0x3e979939	0.29609087
41	0xbeee3fad	-0.46532956
42	0x3f150d03	0.5822298
43	0xbea6678a	-0.3250087
44	0x3f018505	0.50593597
45	0x3d4a167a	0.04933784
46	0x3f215c81	0.63031775
47	0xbe140a16	-0.14456972
48	0x3f3669ef	0.7125539
49	0xbc01c265	-0.007919882
50	0x3e94bed6	0.29051846
51	0x3e2f6623	0.17128806
52	0xbf086b02	-0.5328828
53	0xbea60547	-0.324259
54	0x3eb75814	0.35809386
55	0xbf3df50f	-0.74202055
56	0xbe9cb8bf	-0.306097
57	0xbf3181a6	-0.6933845
58	0xbf085637	-0.53256553
59	0xbd401049	-0.04689053
60	0x3d9a5f17	0.07537668
61	0xbe6232cc	-0.2208969
62	0xbe654adb	-0.22391836
63	0xbee0b40b	-0.43887362
64	0xbeced889	-0.40399578
65	0xbe8176c9	-0.25285938
66	0x3e5a0c9a	0.2129387
67	0xbd2c1d53	-0.042020153
68	0xbf0ea3b6	-0.55718553
69	0x3f0e1df3	0.5551445
70	0x3f0021df	0.50051683
71	0x3d282182	0.04104758
72	0x3e1c88bd	0.15286537
73	0xbdc10f92	-0.09426798
74	0x3e956550	0.29178858
75	0xbe83b244	-0.25721943
76	0x3dcd890b	0.100359045
77	0x3f21d01d	0.6320818
78	0x3ee623f6	0.4494931
79	0x3e7d269b	0.24721758
80	0x3eca7a3f	0.3954639
81	0xbf157412	-0.58380234
82	0xbf12a7b4	-0.57287145
83	0xbef10c0f	-0.47079512
84	0xbea35e26	-0.31907767
85	0x3e1b1492	0.15144566
86	0xbe13504d	-0.14386101
87	0x3dcbf1f3	0.099582575
88	0xbef40d94	-0.4766661
89	0xbeced2b4	-0.4039513
90	0x3f0b4f14	0.5441754
91	0xbe2be11b	-0.1678509
92	0x3f26582e	0.649783
93	0xbe5b362a	-0.2140738
94	0x3f34e42b	0.70660657
95	0x3eb6c21c	0.3569497
96	0x3e8f90b9	0.28040102
97	0xbee37c8f	-0.44430968
98	0xbf216777	-0.630485
99	0x3e94f19c	0.29090583
100	0xbece0094	-0.40234816
101	0xbe111eec	-0.14171952
102	0xbf1ef406	-0.620911
103	0x3ec3ce12	0.38243157
104	0x3e648c42	0.22319129
105	0xbe8da21a	-0.27662736
106	0xbeadf739	-0.33977678
107	0xbdaa3a95	-0.08311955
108	0x3eaddfdd	0.33959857
109	0x3eac1d14	0.33615935
110	0xbeebdc86	-0.46066684
111	0x3e96dcc9	0.2946532
112	0xbee5ecdf	-0.4490728
113	0xbed043fb	-0.40676865
114	0x3f116068	0.5678773
115	0xbe033a40	-0.1281519
116	0x3e9b6021	0.30346778
117	0xbf37a63c	-0.7173803
118	0x3e2b1268	0.1670624
119	0x3e0668ed	0.13125964
120	0xbe9bc076	-0.30420274
121	0x3e896cd9	0.26840857
122	0x3e9226f0	0.28545332
123	0x3f239438	0.6389804
124	0x3e2f6d18	0.1713146
125	0x3eda75d0	0.4266801
126	0xbf01d899	-0.50721127
127	0xbf1501c5	-0.58205825
128	0x3ea3c634	0.31987154
129	0x3e90236f	0.28152034
130	0xbf056ea6	-0.5212196
131	0xbdb4ed60	-0.08834338
132	0xbefa2949	-0.48859623
133	0x3f158f4b	0.5842177
134	0x3eb87425	0.3602611
135	0xbe188a57	-0.14896522
136	0x3f107cfb	0.56440705
137	0x3f0a2d0f	0.53975004
138	0xbf1d6528	-0.6148248
139	0x3ed13c2b	0.40866217
140	0xbefd25e9	-0.49442986
141	0x3e8e91b5	0.2784554
142	0xbf15e754	-0.58556104
143	0xbf2fe752	-0.6871234
144	0xbf1d7bbd	-0.61516935
145	0x3f0c31c8	0.5476346
146	0xbf2583dc	-0.64654326
147	0x3e50e131	0.20398404
148	0x3ed240ff	0.41065213
149	0x3f3cd957	0.73769134
150	0xbf204a95	-0.62613803
151	0xbf1418c7	-0.5785031
152	0x3de024bf	0.10944509
153	0x3f0b3986	0.5438465
154	0xbf363a47	-0.71182674
155	0x3f305fbb	0.68896073
156	0xbf0a0b16	-0.53923166
157	0x3e4a5fe7	0.19763146
158	0x3ebb97e7	0.3663933
159	0x3f234ce4	0.637892
160	0xbf33f339	-0.70293003
161	0x3f0afd6c	0.5429294
162	0x3e7bf929	0.24606766
163	0x3f303aa1	0.6883946
164	0x3e4d0f84	0.2002545
165	0x3f1c3901	0.6102448
166	0x3c449141	0.011997522
167	0xbeb10873	-0.3457676
168	0x3c2699bd	0.01016849
169	0xbe066e58	-0.1312803
170	0xbc36a0a6	-0.0111467
171	0xbde51a4d	-0.11186657
172	0x3e9bf185	0.30457702
173	0x3d9911e9	0.07474119
174	0x3ef4177f	0.47674176
175	0x3da469fe	0.08028029
176	0x3efc306d	0.49255696
177	0xbf18184c	-0.59412074
178	0x3ef99c7a	0.48752195
179	0xbf00d54c	-0.50325465
180	0xbf222737	-0.6334109
181	0xbf1363e5	-0.575743
182	0xbee4a46a	-0.44656688
183	0xbdfc1d95	-0.1231033
184	0xbf1fd785	-0.6243823
185	0x3e8db656	0.27678174
186	0x3f1d3cee	0.61421096
187	0x3e7b14ee	0.24519703
188	0xbeea7661	-0.4579344
189	0xbe4f4af5	-0.20243438
190	0x3f2d8e49	0.67795235
191	0x3e5b88cf	0.21438907
192	0x3e910994	0.2832762
193	0xbe291f0f	-0.16515754
194	0x3f0578d5	0.521375
195	0x3ea775f6	0.32707185
196	0x3e7132bc	0.2355451
197	0xbb99b014	-0.0046901796
198	0xbf2d52aa	-0.6770426
199	0x3e87f60b	0.26554903
200	0x3ebb75f4	0.3661343
201	0xbdd34f4a	-0.103178576
202	0xbf1c5179	-0.6106182
203	0x3f00765e	0.50180614
204	0x3e8b04f6	0.27152222
205	0x3f0eeb8d	0.5582817
206	0xbe009e43	-0.12560372
207	0xbe462029	-0.19348206
208	0xbf0b68a3	-0.5445654
209	0x3e3ad194	0.1824401
210	0xbed24bc1	-0.4107342
211	0xbf28fa37	-0.660068
212	0x3e35ca88	0.17753041
213	0x3ec5e02c	0.38647592
214	0x3f1608a0	0.5860691
215	0x3e3c08ec	0.18362778
216	0xbf2a832b	-0.66606396
217	0xbf22690e	-0.6344155
218	0xbf3d4271	-0.73929507
219	0xbf201760	-0.6253567
220	0x3e92dc38	0.2868364
221	0x3f2460d8	0.6421027
222	0xbecef995	-0.4042479
223	0xbe2d9034	-0.1694954
224	0xbf0a8278	-0.5410533
225	0x3ea2a083	0.31763086
226	0x3e9f5405	0.3111879
227	0xbeb46ae5	-0.35237804
228	0xbe42e90a	-0.1903421
229	0x3eed6fae	0.46374267
230	0xbf32a990	-0.6978998
231	0x3ee5efa6	0.449094
232	0x3e80835e	0.25100225
233	0xbe39dde1	-0.18151046
234	0x3f1acd67	0.6046967
235	0xbf1c5afa	-0.6107632
236	0x3f0ac736	0.5421022
237	0x3e2da7a2	0.16958478
238	0xbf01cad9	-0.50700146
239	0xbe69efef	-0.22845434
240	0xbc799849	-0.0152340615
241	0xbf2f9211	-0.68582255
242	0xbe5adc6a	-0.21373144
243	0xbeb79209	-0.35853603
244	0xbe820a15	-0.25398317
245	0x3d1a74e1	0.03770912
246	0x3f225776	0.63414705
247	0xbe832440	-0.25613594
248	0xbf29851f	-0.6621875
249	0x3f018860	0.50598717
250	0xbf16973c	-0.58824515
251	0x3ec3ef71	0.38268617
252	0x3eb81cbb	0.3595942
253	0x3ed28873	0.41119727
254	0x3eb4fe68	0.35350347
255	0x3e2c8c59	0.16850413

_initial._model.2.bias f4 [16]
0	0xbf35172f	-0.707385
1	0x3da82379	0.08209891
2	0x3f274a7d	0.65348035
3	0x3db57579	0.08860297
4	0x3eeee4fb	0.46659073
5	0x3ea6cc35	0.32577673
6	0x3d777eb7	0.06042358
7	0x3eb75a6d	0.35811177
8	0xbe575236	-0.21027455
9	0xbf234f41	-0.63792807
10	0xbea863ee	-0.3288874
11	0xbf0c4d88	-0.54805803
12	0xbd624f6c	-0.055251524
13	0x3dd82f64	0.10555914
14	0xbf029cb9	-0.5102039
15	0xbcc6773c	-0.024226777

_func._drift._model.0.weight f4 [16, 17]
0	0x3d888227	0.066654496
1	0xbde26baa	-0.110556915
2	0xbd73d544	-0.059529558
3	0x3dd181df	0.10229849
4	0x3d90b28b	0.07065304
5	0x3c93f639	0.018061744
6	0xbcfeadae	-0.031088676
7	0xbc492b70	-0.012278423
8	0x3df0356d	0.1172894
9	0x3dae4724	0.08509663
10	0xbda278c0	-0.079331875
11	0x3db9dc3a	0.09075208
12	0x3dd168d2	0.10225071
13	0xbd31366c	-0.04326479
14	0xbc88bebd	-0.016692514
15	0xbd2c9f73	-0.04214425
16	0xbd08f705	-0.0334387
17	0xbd95f04d	-0.07321224
18	0x3bdba6e9	0.006703247
19	0xbdda4217	-0.10657137
20	0x3dd19978	0.1023435
21	0x3cc64a51	0.024205359
22	0x3d624320	0.055239797
23	0xbce0ddcc	-0.027449511
24	0xbcbc9b1f	-0.023023186
25	0x3e034dd9	0.12822665
26	0xbda3d3f1	-0.07999409
27	0x3ded45f7	0.1158561
28	0x3d4c16a6	0.049826287
29	0xbd6a5a82	-0.05721522
30	0x3dd9ead6	0.106404945
31	0xbcb5c3cf	-0.022188095
32	0xbdd79565	-0.105265416
33	0xbd49a0c8	-0.0492256
34	0xbdbe5149	-0.09292848
35	0xbbd9231d	-0.0066265003
36	0x3dc4c0f4	0.096071154
37	0xbda7f7d8	-0.08201569
38	0xbd6fbe15	-0.058530886
39	0xbdb0b7a3	-0.08628776
40	0x3cf76bd1	0.030202778
41	0xbdd0f3b0	-0.1020273
42	0x3ce6c727	0.028171135
43	0x3d62ed9b	0.05540238
44	0xbd83073e	-0.06397866
45	0x3da82bcf	0.08211481
46	0xbdcd63de	-0.10028814
47	0xbd6c862f	-0.057745155
48	0xbd65a8fe	-0.056069367
49	0xbd051626	-0.032491826
50	0xbd60cfeb	-0.054885786
51	0x3d33969b	0.0438448
52	0x3df29c12	0.11846174
53	0xbd9dd6b1	-0.07706965
54	0x3dfcd439	0.12345166
55	0x3db77ddf	0.08959555
56	0x3c047487	0.008084423
57	0xbc73ecab	-0.014887969
58	0x3d979379	0.07401175
59	0x3d889c5d	0.06670449
60	0xbd689515	-0.0567828
61	0x3de60431	0.11231268
62	0xbdabd4c5	-0.08390192
63	0x3dbc088c	0.09181318
64	0x3ccad460	0.024759471
65	0x3bb4f754	0.005522648
66	0x3ddf0439	0.10889477
67	0x3d9c2696	0.07624547
68	0x3da8fe45	0.08251623
69	0x3d1d560f	0.03841215
70	0xbd70d087	-0.058792617
71	0xbc839110	-0.016060382
72	0xbdb5fdae	-0.08886276
73	0xbd4b6fa8	-0.04966703
74	0xbd8f422b	-0.069950424
75	0xbcecdea0	-0.02891475
76	0x3d9ffb4f	0.07811605
77	0xba4068b5	-0.00073398213
78	0x3cabb496	0.020960134
79	0xbdec41af	-0.11535966
80	0xbbed1170	-0.0072347447
81	0x3ce36667	0.02775879
82	0xbd7f2b43	-0.062297117
83	0x3dbc3ddb	0.091914855
84	0xbdb8578b	-0.090010725
85	0x3d03f99e	0.032220475
86	0xbd79b757	-0.060965862
87	0xbdb9ed39	-0.0907845
88	0xbdc8039b	-0.09766313
89	0x3dbcb797	0.092147045
90	0x3d287b93	0.041133475
91	0x3d391823	0.045189034
92	0x3d93bd47	0.07213836
93	0x3c0c6a8a	0.008570323
94	0x3d3d14a8	0.046162277
95	0xbcb89f83	-0.022536999
96	0x3da99c1b	0.08281728
97	0xbda7bc77	-0.08190244
98	0xbdbf78be	-0.093492016
99	0xbd0a8b64	-0.03382434
100	0x3d8a19ef	0.06743228
101	0x3d8cf7dc	0.06883213
102	0x3d135989	0.03597406
103	0x3ba3900e	0.004991538
104	0xbcf259f0	-0.029583901
105	0x3da46603	0.0802727
106	0x3d90e14a	0.070742205
107	0xbde228b1	-0.110429175
108	0x3d3b440e	0.0457192
109	0xbc231f96	-0.009956261
110	0xbdb843e3	-0.08997323
111	0x3d4d1e4e	0.05007773
112	0xbd8cf089	-0.06881816
113	0xbcd85901	-0.026409628
114	0xbc9161de	-0.017746862
115	0xbd7746b6	-0.06037017
116	0xbc388f09	-0.011264571
117	0xbd993b84	-0.07482055
118	0x3dcc079a	0.099623874
119	0x3d70d3cb	0.05879573
120	0x3d9b4c54	0.07582918
121	0xbd7e1689	-0.06203321
122	0x3d96b0c6	0.073579356
123	0x3d808bef	0.0627669
124	0xbd27518c	-0.040849254
125	0xbda2fadf	-0.07958006
126	0x3dc3ff70	0.09570205
127	0xbdfae5d9	-0.12250871
128	0x3dd21d91	0.102595456
129	0xbd67b167	-0.05656567
130	0xbcbc4115	-0.022980252
131	0x3dc2fc26	0.0952075
132	0xb9d992e6	-0.00041498913
133	0x3de1f197	0.11032408
134	0x3d2a6e4b	0.04160909
135	0xbd85734a	-0.0651613
136	0xbc26708d	-0.01015867
137	0x3d4b8f9f	0.049697515
138	0xbcd3bac3	-0.02584589
139	0xbdd74bd2	-0.105125085
140	0x3da2010c	0.07910356
141	0x3d073eb7	0.033018794
142	0xbdc0e3e5	-0.094184674
143	0x3dc31963	0.095263265
144	0xbc3ea206	-0.011635309
145	0xbbad1d64	-0.0052830447
146	0x3df420a3	0.119202875
147	0x3d862577	0.065501146
148	0xbda2181c	-0.07914755
149	0x3d6e3d40	0.05816388
150	0xbc8ef11d	-0.017448956
151	0x3d8a4086	0.06750588
152	0x3c4052b1	0.011738465
153	0x3d8df0f8	0.06930727
154	0xbcec7bc0	-0.028867602
155	0xbda70d54	-0.08156839
156	0xbd814157	-0.06311291
157	0xbdaae055	-0.08343569
158	0x3d661d7a	0.056180455
159	0x3dd0bdd4	0.10192457
160	0x3c38797d	0.011259434
161	0x3db02759	0.08601255
162	0xbd330045	-0.04370143
163	0x3d1c4917	0.03815564
164	0x3c468c2f	0.012118383
165	0x3d63d1c9	0.05561999
166	0x3db28733	0.087171935
167	0xbdfc6012	-0.123230115
168	0xbd7bd015	-0.06147774
169	0x3dcbb87f	0.09947299
170	0x3ddea8f7	0.10872071
171	0x3d41fcfb	0.0473604
172	0xbb31aead	-0.0027112172
173	0xbc188d05	-0.009310965
174	0xbd90291b	-0.0703909
175	0xbb1fd89f	-0.002439059
176	0x3dc01e0b	0.0938073
177	0x3dcd3dcd	0.10021553
178	0xbd8fe419	-0.07025928
179	0xbd1029ae	-0.035196
180	0xbd20d53e	-0.039265864
181	0xbd65b83b	-0.0560839
182	0xbdca6d98	-0.098841846
183	0xbbeb4422	-0.007179753
184	0xbd80420e	-0.06262599
185	0x3d71f94f	0.05907565
186	0x3cfacbaa	0.030614693
187	0xbd4cebe9	-0.05002967
188	0xbd537828	-0.05162826
189	0xbdc1bdfb	-0.09460064
190	0x3ce726a4	0.028216667
191	0x3db30be9	0.08742506
192	0x3d25be79	0.040464852
193	0xbd88985e	-0.06669687
194	0x3dfa100a	0.122100905
195	0x3c0acbfe	0.008471487
196	0x3d7725e8	0.060338885
197	0x3c12441b	0.00892737
198	0x3dbc78e7	0.09202748
199	0xbd3c1a86	-0.045923732
200	0xbdee51e9	-0.11636717
201	0x3dd5962a	0.10429032
202	0x3d13a390	0.036044657
203	0xbd0f07ee	-0.03491967
204	0xbc86812c	-0.016419016
205	0xbd8dc409	-0.06922156
206	0x3d736e9d	0.05943166
207	0xbd022e41	-0.031782392
208	0xbd9d89cd	-0.07692299
209	0xbdf1e6c3	-0.118115924
210	0xbd37a741	-0.04483724
211	0xbd807a12	-0.06273283
212	0xbdbe68ae	-0.0929731
213	0x3d2e3dad	0.042539287
214	0x3d87bbd2	0.06627621
215	0x3da1343c	0.07871291
216	0xbd8598b8	-0.065232694
217	0xbdcb1a48	-0.09917122
218	0x3df1e6fb	0.11811634
219	0x3d4b1bbe	0.049587004
220	0xbdbc120a	-0.09183128
221	0xbcc06b81	-0.023488762
222	0x3c4deef6	0.01256918
223	0xbde9721c	-0.11398718
224	0x3dbf1ec7	0.09332042
225	0xbd1e77eb	-0.03868858
226	0xbde3b42a	-0.11118348
227	0x3dccfc13	0.10009017
228	0xbc6f81fd	-0.014618394
229	0x3df015fb	0.117229424
230	0xbceb1ab6	-0.02869926
231	0x3d6f6d6b	0.05845396
232	0xbdea43bd	-0.11438701
233	0x3cc15c42	0.023603562
234	0xbcb2aa40	-0.021809697
235	0xbde8f366	-0.113745496
236	0xbc07a20c	-0.008278381
237	0x3d1ba648	0.038000375
238	0xbdd7b435	-0.10532419
239	0x3c7d34cb	0.015454481
240	0xbd49abfe	-0.04923629
241	0xbde81bcf	-0.11333429
242	0xbd686952	-0.056741066
243	0xbd45cf9b	-0.04829369
244	0xbdba82aa	-0.091069534
245	0xbc816262	-0.015793983
246	0xbd9e9931	-0.07744063
247	0x3dd5383e	0.10411118
248	0xbdf8727a	-0.1213121
249	0xbdad569f	-0.08463787
250	0xbd3cb29e	-0.04606878
251	0x3da01546	0.078165576
252	0xbde43702	-0.111433044
253	0xbdcd79ca	-0.10032995
254	0x3c40dfdf	0.011772125
255	0x3d60f58e	0.05492168

_func._drift._model.0.bias f4 [16]
0	0xbd58e6e0	-0.052954555
1	0x3de3023f	0.11084413
2	0x3d762500	0.06009388
3	0x3df51a7e	0.119679436
4	0xbc1c5d99	-0.0095438
5	0x3d542755	0.051795322
6	0xbd5192e0	-0.05116546
7	0xbc675410	-0.014119163
8	0x3b06e16f	0.0020581146
9	0xbd3dc80b	-0.046333354
10	0x3d8e7a85	0.069569625
11	0x3d46b7f2	0.048515268
12	0x3d633424	0.055469647
13	0xbd4ce0ba	-0.050019003
14	0x3e0509fc	0.1299209
15	0x3df216b9	0.1182074

_func._drift._model.2.weight f4 [16, 16]
0	0x3de24c34	0.11049691
1	0x3daf5224	0.08560589
2	0x3dabd0bf	0.083894245
3	0xbdeec4e0	-0.11658645
4	0xbdba0ca0	-0.09084439
5	0x3d821fad	0.06353698
6	0xbd18239b	-0.03714333
7	0xbdace17a	-0.08441444
8	0xbc120536	-0.008912375
9	0x3dd0540c	0.10172281
10	0xbcd35abd	-0.025800103
11	0x3de6d59c	0.112712115
12	0xbd9eb507	-0.07749372
13	0x3d8eb229	0.06967575
14	0xbd851113	-0.06497397
15	0xbd33b2e7	-0.043871786
16	0xbd39b400	-0.045337677
17	0xbd8511e5	-0.06497554
18	0xbd9d3dc3	-0.07677796
19	0xbd8ddb8f	-0.06926643
20	0x3df33ee0	0.11877227
21	0x3b427e81	0.0029677453
22	0xbde19a9f	-0.1101582
23	0xbd95536b	-0.07291301
24	0xbc842399	-0.016130256
25	0xbd09ec69	-0.033672724
26	0xbddb60a2	-0.107117906
27	0x3cb7df71	0.022445412
28	0x3da222d2	0.07916798
29	0x3d4274df	0.04747474
30	0x3b8c4a39	0.004281309
31	0xbd8e76b7	-0.06956237
32	0x3df01833	0.11723366
33	0xbdfa4702	-0.12220575
34	0x3d818133	0.06323471
35	0x3ded4326	0.11585073
36	0x3d873b9d	0.06603167
37	0x3db6e14b	0.0892969
38	0x3d85d5a6	0.06534891
39	0x3dd6fc89	0.10497386
40	0x3be0bcec	0.0068584587
41	0x3dbbe065	0.09173659
42	0xbd26dd14	-0.04073818
43	0xbd91a0d5	-0.071107544
44	0x3df5d172	0.12002839
45	0x3dc5c32d	0.096563675
46	0xbd81aa2d	-0.063312866
47	0xbba070ae	-0.004896245
48	0xbdb2f762	-0.08738591
49	0xbd7965fe	-0.060888283
50	0xbbd95104	-0.0066319723
51	0x3d2decdb	0.04246221
52	0x3d3293d7	0.043598022
53	0xbdd0aec6	-0.101895854
54	0x3db0d410	0.08634198
55	0xbd293b17	-0.041316118
56	0xbdafd3de	-0.08585332
57	0x3d7712ad	0.060320545
58	0xbd513b7e	-0.051082127
59	0x3c9eb883	0.019375091
60	0xbd8eb824	-0.06968716
61	0x3dc3b7c9	0.095565386
62	0xbdff2167	-0.12457543
63	0x3ae630e9	0.0017562184
64	0xbc8663b3	-0.016404962
65	0x3d8cc41a	0.06873341
66	0x3c2bfae2	0.010496827
67	0x3d224617	0.039617624
68	0xbda05190	-0.07828057
69	0xbda5c604	-0.08094409
70	0xbdbb053e	-0.09131859
71	0xbda97735	-0.0827469
72	0xbdea0403	-0.114265464
73	0xbd0e418c	-0.03473048
74	0xbd6f0f70	-0.05836433
75	0xbd1cf0e9	-0.038315687
76	0x3da4eece	0.08053361
77	0xbdceb0ff	-0.10092353
78	0xbd724bbf	-0.05915427
79	0xbe082a68	-0.13297427
80	0x3df82436	0.12116282
81	0xbd894a29	-0.06703598
82	0xbde0fe04	-0.1098595
83	0x3e123e03	0.14281468
84	0x3da2ff36	0.07958834
85	0x3cf31b1f	0.029676018
86	0x3db90220	0.090336084
87	0x3cac362f	0.02102193
88	0xbdeae401	-0.114692695
89	0xbcb6291c	-0.0222364
90	0x3d833564	0.06406668
91	0xbca1d2f0	-0.019753903
92	0xbd6f5d83	-0.05843879
93	0xbcb2723e	-0.02178299
94	0x3e01d470	0.12678695
95	0x3e070706	0.13186273
96	0x3acab672	0.001546575
97	0x3dee9fa9	0.116515465
98	0x3d04a2df	0.03238189
99	0x3dd9db36	0.10637514
100	0xbd05a21e	-0.03262531
101	0xbdc55659	-0.0963561
102	0xbdb3a14f	-0.087710015
103	0xbdd715f5	-0.10502235
104	0x3dd5bdf6	0.10436623
105	0xbcbae83a	-0.022815812
106	0xbcf40631	-0.029788109
107	0xbda19a0e	-0.07890712
108	0xbd13ebdd	-0.03611361
109	0xbd641ac8	-0.055689603
110	0x3de7bc35	0.113151945
111	0xbd6f7fb5	-0.0584714
112	0xbdaff40b	-0.085914694
113	0xbd7f5033	-0.062332343
114	0xbda677ab	-0.081282936
115	0xbd961a3d	-0.07329223
116	0xbc53cf7a	-0.012927884
117	0x3b8f79e8	0.004378546
118	0xbdf59428	-0.11991149
119	0x3d048f2f	0.032363113
120	0xbcc2a5d5	-0.023760715
121	0xbd442238	-0.047884196
122	0xbde62af7	-0.11238664
123	0xbd2815e8	-0.041036516
124	0x3d95a071	0.073059924
125	0x3d0d81cb	0.03454761
126	0x3dd76dc4	0.10518983
127	0xbda4307c	-0.0801706
128	0xbdb4d286	-0.08829217
129	0xbd211cc2	-0.039334066
130	0x3ce8e9b2	0.028431747
131	0x3d420d9f	0.04737627
132	0x3d1735b4	0.03691645
133	0x3d078b27	0.03309169
134	0x3df8db53	0.12151208
135	0xbda0648c	-0.07831678
136	0xbd1eef62	-0.038802512
137	0x3df08a87	0.11745172
138	0x3ddab935	0.10679857
139	0xbd818fd5	-0.06326262
140	0x3d4f5b06	0.050623916
141	0x3df79b5b	0.120901786
142	0x3c23e82a	0.010004083
143	0xbb6a8647	-0.0035785602
144	0xbd9902eb	-0.0747126
145	0xbc92fd02	-0.01794291
146	0x3d5e63c9	0.05429438
147	0xbdfb85a8	-0.12281352
148	0x3d99b6a5	0.0750554
149	0xbe04f111	-0.12982585
150	0x3db3b3e2	0.08774544
151	0xbdd45a81	-0.10368825
152	0xbde88492	-0.11353411
153	0x3dd814b3	0.10550823
154	0xbcb55191	-0.02213362
155	0xbdbb550c	-0.09147081
156	0x3d105697	0.03523883
157	0xbd9a8bcb	-0.07546195
158	0xbdd6207a	-0.10455413
159	0xbcc11959	-0.023571657
160	0xbc687d7f	-0.014190077
161	0x3c37cc74	0.011218179
162	0xba69f22a	-0.000892433
163	0xbde95fbe	-0.113952145
164	0x3d195813	0.03743751
165	0x3d4ace58	0.04951319
166	0xbda5a124	-0.08087376
167	0x3cc552f6	0.02408741
168	0x3d210084	0.039307132
169	0x3dd0ddf7	0.101985864
170	0xbdf96f81	-0.12179471
171	0x3df26dd0	0.11837351
172	0x3d5b4d43	0.05354048
173	0x3d408e34	0.047010615
174	0xbcaf95b1	-0.021433683
175	0xbd42c5d4	-0.047551945
176	0x3d72f8b7	0.059319224
177	0xbc0b8d91	-0.008517639
178	0xbcec8b0e	-0.0288749
179	0xbd09d3fb	-0.033649426
180	0x3cb8b2dd	0.022546226
181	0xbd88434f	-0.06653463
182	0x3c50c74a	0.012742827
183	0xbdfd61e6	-0.12372188
184	0x3dd031f5	0.101657785
185	0x3d028dad	0.031873394
186	0xbcb28e39	-0.021796333
187	0xbcf9760d	-0.030451799
188	0x3da21f27	0.07916098
189	0x3df064d0	0.117379785
190	0xbcec39a9	-0.028836088
191	0xbbbebf7b	-0.005821166
192	0x3cd7cda4	0.026343174
193	0x3d0a2f45	0.033736486
194	0xbdd97d2a	-0.10619576
195	0xbdb82da5	-0.08993081
196	0xbd982118	-0.07428187
197	0xbdd52323	-0.104070924
198	0x3e023bc5	0.12718113
199	0xbc1a291d	-0.009409216
200	0x3d68bdfb	0.056821804
201	0xbc8f4175	-0.017487267
202	0x3d96fc6d	0.07372365
203	0xbe00e455	-0.12587102
204	0x3cdc604c	0.026901387
205	0xbde6ea11	-0.112751134
206	0x3ce9e38a	0.028550882
207	0x3caa65a5	0.020800421
208	0xbdd6bfdf	-0.10485815
209	0x3d926581	0.071482666
210	0xbd5d3414	-0.054004744
211	0xbca49361	-0.020089807
212	0xbdc3abb4	-0.09554234
213	0x3da957b4	0.08268681
214	0x3d8ce26f	0.06879126
215	0x3db2eb74	0.08736315
216	0x3d8288d4	0.06373754
217	0x3cd6f48a	0.026239652
218	0xbdd2af4b	-0.10287341
219	0xbdd75705	-0.105146445
220	0xbd869dfd	-0.065731026
221	0x3da4550c	0.08024034
222	0xbdf86e02	-0.12130357
223	0xbda3b6e2	-0.079938665
224	0xbdbbddc8	-0.09173161
225	0x3d5a2bd2	0.053264447
226	0x3c77d5af	0.01512663
227	0x3d8427ba	0.0645289
228	0x3d4881cd	0.048951913
229	0xbd7b526d	-0.061357904
230	0x3d0f1669	0.03493348
231	0xbdb9d7cc	-0.09074363
232	0xbd8693ca	-0.06571157
233	0x3dbab64c	0.091168016
234	0x3dd75210	0.10513699
235	0xbd16abc5	-0.036784906
236	0xbd7e8e61	-0.0621475
237	0xbd4473d3	-0.04796202
238	0x3d9a5ae2	0.07536866
239	0xbdd64439	-0.10462231
240	0x3d3b1132	0.045670696
241	0xbdb9d178	-0.09073156
242	0xbd94bd9e	-0.07262729
243	0xbd9be8a8	-0.07612735
244	0xbd024ae4	-0.031809703
245	0xbcab6486	-0.020921957
246	0x3dc25a1d	0.09489844
247	0x3c07bb95	0.008284469
248	0x3d6e6e97	0.058210935
249	0xbc5fc40a	-0.013657579
250	0xbcd7d13f	-0.026344894
251	0xbbc0be26	-0.0058820425
252	0xbb421a62	-0.0029617776
253	0x3d85cbd6	0.06533019
254	0x3c065918	0.008199953
255	0x3d3839db	0.04497705

_func._drift._model.2.bias f4 [16]
0	0xbd8cfdec	-0.06884369
1	0xbdb4cedd	-0.088285185
2	0xbc8b0e8b	-0.016974708
3	0x3d53c912	0.051705427
4	0x3d64923c	0.055803522
5	0x3d897964	0.067126065
6	0xbc3c27e2	-0.011484118
7	0x3ddc0377	0.10742848
8	0xbd83482a	-0.064102486
9	0x3d6b7ca0	0.0574919
10	0xbdad3dc7	-0.08459049
11	0xbda85ec1	-0.08221198
12	0xbc806f37	-0.015678031
13	0x3dbd8957	0.09254711
14	0x3e0ccd49	0.13750185
15	0x3ded783b	0.11595198

_func._diffusion._model.0.weight f4 [16, 17]
0	0xbd1e966d	-0.038717676
1	0x3d344930	0.04401511
2	0x3d1515ba	0.036397673
3	0x3be69cd8	0.00703774
4	0x3ce2be25	0.027678559
5	0xbdb99f42	-0.09063579
6	0x3d7554c6	0.0598953
7	0x3d8cd371	0.06876267
8	0xbd4ee384	-0.050509945
9	0xbddfdd05	-0.10930828
10	0x3d941cc5	0.0723205
11	0xbd2a1d95	-0.041532118
12	0xbcbe764e	-0.023249771
13	0x3dca01d3	0.09863629
14	0x3d0eab7a	0.0348315
15	0x3dcb64ce	0.09931336
16	0x3dbb54e2	0.091470495
17	0xbd898046	-0.06713919
18	0xbdcdabdf	-0.100425474
19	0xbd3b1cf1	-0.045681898
20	0x3d75dcb9	0.06002495
21	0x3da6e74d	0.08149586
22	0xbd70dc78	-0.058804005
23	0xbb2f6fb6	-0.0026769466
24	0x3db3471d	0.08753798
25	0xbde4b450	-0.111672044
26	0xbc4459c1	-0.01198429
27	0xbd1c25cd	-0.038121987
28	0x3d01e8c8	0.031716138
29	0xbd467721	-0.048453454
30	0xbdc601e3	-0.096683286
31	0xbc23fb7c	-0.010008689
32	0x3dee23ce	0.11627923
33	0x3d639dc1	0.055570368
34	0x3c51235e	0.01276478
35	0x3d5f89a1	0.054574613
36	0x3d14441d	0.03619777
37	0x3de3cb89	0.111228056
38	0x3d14ebea	0.036357798
39	0x3dec98c6	0.11552577
40	0x3d81633b	0.06317755
41	0x3b387e87	0.0028151588
42	0x3b2ce38e	0.002638075
43	0xbdb3e2b7	-0.08783477
44	0x3d75bf50	0.059996903
45	0xbdaa96cf	-0.08329546
46	0x3db0717a	0.08615394
47	0x3d6a1240	0.05714631
48	0x3de67deb	0.11254486
49	0x3d0c6c10	0.034282744
50	0xbcda746a	-0.026666839
51	0xbcc07537	-0.023493392
52	0x3db982b6	0.09058134
53	0x3d4ae7fb	0.04953764
54	0x3ddd2754	0.10798517
55	0xbcf64b59	-0.030065225
56	0xbd84d865	-0.064865865
57	0xbadbc426	-0.0016766831
58	0x3d84e0e9	0.06488211
59	0xbc4651a3	-0.012104425
60	0xbc9e0a0a	-0.019291896
61	0xbd012a73	-0.031534623
62	0x3dd998fe	0.10624884
63	0xbd3bc465	-0.045841593
64	0xbd86be64	-0.06579283
65	0x3d146f10	0.03623873
66	0xbd635bae	-0.055507354
67	0xbd0d59e0	-0.03450954
68	0x3d74a71e	0.059729688
69	0x3db05175	0.08609287
70	0x3dec28c4	0.11531213
71	0x3ddd061c	0.10792181
72	0xbbadda64	-0.005305575
73	0x3d507eaf	0.050902065
74	0x3db4f7c7	0.08836322
75	0x3dea8051	0.11450256
76	0xbde3e8d9	-0.111283965
77	0x3dfabd16	0.122430965
78	0x3dbe01cf	0.09277689
79	0x3d439b74	0.047755674
80	0x3d098f6e	0.03358405
81	0x3bdfb732	0.0068272585
82	0x3bd59797	0.006518315
83	0x3ccb5caf	0.024824468
84	0x3d135e40	0.035978556
85	0x3baf5434	0.005350614
86	0xbd9883f7	-0.07447045
87	0xbdec2adb	-0.115316115
88	0x3de1b646	0.11021094
89	0xbde41d47	-0.11138397
90	0x3d54989f	0.051903363
91	0xbda0ca40	-0.07851076
92	0xbdac7dfe	-0.084224686
93	0x3c9b9ec6	0.018996608
94	0x3ddab805	0.1067963
95	0x3c69ed80	0.014277816
96	0xbd0211f8	-0.031755418
97	0xbdd63dc4	-0.104609996
98	0xbdc81d6f	-0.09771239
99	0xbd586582	-0.05283118
100	0x3df2ef21	0.118620165
101	0xbd8e999a	-0.06962891
102	0x3dd0e1cf	0.101993196
103	0xbd3f1e96	-0.04666003
104	0x3dd71c75	0.105034746
105	0x3dc0cda4	0.09414223
106	0xbcfbce1a	-0.030737925
107	0x3c36b82f	0.011152311
108	0x3d61ec89	0.055157218
109	0x3de8e810	0.113723874
110	0x3dbc7e16	0.092037365
111	0xbdd1597f	-0.10222148
112	0xbc596de7	-0.013270832
113	0x3d4897bc	0.04897283
114	0x3d9cc1d8	0.0765416
115	0xbd76ea65	-0.06028213
116	0xbd84cd38	-0.06484455
117	0xbd6fb553	-0.058522534
118	0xbd3082f7	-0.043093648
119	0x3d3119e8	0.043237597
120	0xbda196bf	-0.07890081
121	0x3d02130c	0.031756446
122	0x3dde999a	0.10869141
123	0xbbcc2c4f	-0.006230868
124	0xbd885966	-0.066576764
125	0x3da3d208	0.07999045
126	0x3d680621	0.05664647
127	0xbd3675e5	-0.044546027
128	0x3b50e0d8	0.0031872299
129	0xbc42ed9e	-0.011897473
130	0x3ad47666	0.0016209602
131	0x3c5c04f7	0.013428918
132	0x3d03cc27	0.032177117
133	0x3c0d6d51	0.00863202
134	0xbc4c7cb6	-0.012480905
135	0xbd48a8d3	-0.04898913
136	0x3d88e614	0.06684509
137	0x3cd72a7d	0.026265377
138	0x3d8fa04a	0.070129946
139	0x3d818574	0.06324282
140	0xbcc74993	-0.024327075
141	0xbdace60f	-0.08442318
142	0x3da850bd	0.082185246
143	0x3dbb2b5b	0.09139129
144	0xbd417b7b	-0.0472369
145	0xbda347bf	-0.07972669
146	0x3d8a8a7e	0.067646965
147	0x3c5e80dd	0.013580528
148	0x3d82aa3e	0.06380127
149	0xbb822353	-0.003971496
150	0xbddfc6d5	-0.10926596
151	0xbdd4b0d3	-0.10385289
152	0x3d5c95af	0.053853687
153	0xbd438db7	-0.04774257
154	0xbb190377	-0.0023348012
155	0xbd0024be	-0.03128504
156	0xbc7b0de4	-0.015323136
157	0xbc6b7db8	-0.014373235
158	0x3d844fca	0.06460531
159	0x3dc1877d	0.094496705
160	0x399302be	0.00028040068
161	0xbda116fa	-0.078657106
162	0x3d042227	0.032259133
163	0xbd9b635e	-0.07587312
164	0xbdafc274	-0.08582011
165	0xbdbbde9f	-0.09173321
166	0x3de63a61	0.11241604
167	0x3d5ccd19	0.053906534
168	0x3c26488e	0.010149134
169	0x3cc2f948	0.023800507
170	0xbd86ce46	-0.06582312
171	0x3d87ae80	0.0662508
172	0x3d9dc0d1	0.077027924
173	0xbdb2a56d	-0.08722959
174	0xbdcb52a3	-0.09927871
175	0xbbf983d6	-0.007614593
176	0x3dc4612c	0.095888466
177	0x3daf4383	0.08557799
178	0x3cc394e6	0.023874711
179	0x3c77c45a	0.015122497
180	0x3cb60843	0.022220736
181	0x3dda4e57	0.106594734
182	0xbd9642f8	-0.07336992
183	0xbdabd7c3	-0.08390763
184	0xbcd65b15	-0.026166478
185	0xbd9dc83c	-0.07704207
186	0x3ca06cee	0.019583192
187	0x3dc5daa7	0.09660845
188	0x3d0c94bc	0.03432153
189	0x3d8f9a0e	0.070118055
190	0x3d1e33a4	0.038623467
191	0xbdd33669	-0.10313112
192	0x3c1a4596	0.009416005
193	0x3ce602cc	0.028077506
194	0x3d8796b7	0.066205435
195	0xbc1cb140	-0.009563744
196	0xbde62cc5	-0.11239008
197	0x3b10ceb0	0.0022095852
198	0xbd82e45f	-0.063912146
199	0x3cf44e55	0.029822508
200	0x3db9da00	0.09074783
201	0xbd77d9d7	-0.060510483
202	0x3dc1f1c7	0.094699435
203	0xbb879344	-0.0041374285
204	0x3dac773b	0.08421179
205	0xbcd4ed4f	-0.025992064
206	0xbd07a70a	-0.033118285
207	0xbc6b17c6	-0.01434893
208	0xbd44e804	-0.04807283
209	0x3d32f173	0.043687295
210	0xbdd3c9ce	-0.103412256
211	0x3c560749	0.01306326
212	0x3dc7ab0d	0.09749422
213	0x3da55221	0.080723055
214	0x3dd1f33c	0.102514714
215	0x3d2f6159	0.042817447
216	0xbc297860	-0.010343641
217	0x3ddf6eb9	0.109097905
218	0xbb5f921c	-0.0034114188
219	0xbd6a4112	-0.057190962
220	0xbda38ce1	-0.07985855
221	0x3d81a0c4	0.06329492
222	0xbdb11da3	-0.08648231
223	0xbd6b1499	-0.05739269
224	0x3d4265ad	0.047460247
225	0xbdf30bb1	-0.11867464
226	0x3def922b	0.11697801
227	0x3d90c4d2	0.070687905
228	0xbd00577e	-0.03133344
229	0xbd3f28bb	-0.046669703
230	0xbddaf945	-0.10692076
231	0xbce4dfe3	-0.027938789
232	0xbc827140	-0.015923142
233	0x3df3605e	0.11883615
234	0x3d84fe86	0.06493859
235	0x3a3db78d	0.0007237129
236	0xbdca9c6b	-0.098931156
237	0x3d8ec7c8	0.06971699
238	0x3dd75672	0.10514535
239	0x3debd4a1	0.11515165
240	0xbd92ab66	-0.07161598
241	0xbda2eb28	-0.07955009
242	0xbda979dd	-0.08275197
243	0x3d944174	0.07239047
244	0x3dc62dde	0.09676717
245	0xbdd8454a	-0.10560091
246	0x3dc78653	0.09742417
247	0x3df20c09	0.11818702
248	0x3bf657e8	0.0075178035
249	0x3d016e1c	0.03159915
250	0x3d464a61	0.048410777
251	0xbd8e754f	-0.069559686
252	0xbdd38f42	-0.10330059
253	0x3d14cd22	0.036328442
254	0xbdd87fb7	-0.10571235
255	0x3d006ef8	0.031355828

_func._diffusion._model.0.bias f4 [16]
0	0xbdca0d0a	-0.09865768
1	0xbd49c91d	-0.049264062
2	0xbdb6fe65	-0.08935241
3	0xbd15ed9a	-0.036603548
4	0xbce91e5a	-0.028456856
5	0xbd921b09	-0.07134063
6	0xbd690a60	-0.05689466
7	0xbd1400c3	-0.03613354
8	0x3d9c9cab	0.076470695
9	0xbd2b3586	-0.04179909
10	0x3d907939	0.070543714
11	0x3cb3579f	0.021892367
12	0xbc8f324f	-0.017480044
13	0xbde5a0df	-0.11212324
14	0xbdbd253e	-0.09235619
15	0xbb3e76e1	-0.0029062557

_func._diffusion._model.2.weight f4 [48, 16]
0	0x3da95662	0.08268429
1	0x3d916db4	0.07101002
2	0x3dad3527	0.08457404
3	0xbde994cb	-0.11405333
4	0x3bbde494	0.005795071
5	0x3b90a039	0.0044136313
6	0x3d06c6a8	0.032904297
7	0x3def54dd	0.11686108
8	0x3d03e09d	0.03219663
9	0x3d134a6c	0.035959646
10	0x3d1b10a6	0.037857674
11	0x3dc9e6b8	0.09858459
12	0xbd1ac89b	-0.03778897
13	0x3c3ddf8f	0.011588945
14	0x3d8c2551	0.06843055
15	0x3ce0d1e6	0.027443837
16	0x3d61b895	0.05510767
17	0xbd9ddf33	-0.077085875
18	0x3d5d61ca	0.054048337
19	0xbdf61755	-0.12016169
20	0x3d57b465	0.052662272
21	0x3db43901	0.08799935
22	0x3ce15274	0.027505137
23	0x3d84e68a	0.06489284
24	0xbd851a1c	-0.064991206
25	0xbd04aae3	-0.032389533
26	0x3dca7b6b	0.09886821
27	0xbc0eea29	-0.00872282
28	0x3d477839	0.048698638
29	0x3de4e9dc	0.11177418
30	0xbd4d127f	-0.050066467
31	0x3d13e8f6	0.03611084
32	0xbc8e123c	-0.01734268
33	0xbd7b648c	-0.061375186
34	0xbd289b73	-0.041163873
35	0x3db887da	0.09010287
36	0xbc7fd3f4	-0.015614498
37	0xbd8625ba	-0.065501645
38	0x3c14b89f	0.00907722
39	0xbd1fc2d5	-0.039004166
40	0xbdb18bda	-0.08669253
41	0xbdc8a589	-0.09797198
42	0xbc834941	-0.016026141
43	0x3d1422f1	0.036166135
44	0xbd94a231	-0.07257498
45	0x3d5ca706	0.053870223
46	0x3df2cb2b	0.118551575
47	0x3ddaed8b	0.10689839
48	0xbd87aba9	-0.066245385
49	0x3d94debc	0.07269046
50	0x3ce5879c	0.028018765
51	0x3c07f3c8	0.008297868
52	0xbcd18632	-0.025576685
53	0x3ce9242e	0.028459635
54	0x3d7a7b55	0.061152775
55	0x3cad56c9	0.021159546
56	0xbda19fd0	-0.0789181
57	0xbd7ace72	-0.061232038
58	0x3da53245	0.08066229
59	0x3d9f96e2	0.077924505
60	0xbd9f12ef	-0.07767283
61	0x3da198de	0.07890485
62	0x3de2a7b4	0.11067143
63	0xbda151c5	-0.078769244
64	0x3b8b45ce	0.0042502647
65	0x3de74236	0.112919256
66	0xbcd04bce	-0.025426771
67	0x3d87b77f	0.06626796
68	0xbc8d77b9	-0.017269002
69	0x3d1acb20	0.03779137
70	0xbda4157a	-0.08011909
71	0x3df87bd4	0.12132993
72	0xbda62d9f	-0.0811417
73	0xbc55d819	-0.01305201
74	0x3db68f73	0.089140795
75	0xbd95eaa7	-0.07320147
76	0x3dd827f0	0.105544925
77	0x3c18ad59	0.009318673
78	0x3db04a3a	0.086079076
79	0xbd6d0ec2	-0.057875402
80	0xbd4d7534	-0.0501606
81	0x3c4f30d4	0.012645919
82	0xbc140c3c	-0.00903612
83	0x3da049d5	0.07826582
84	0xbda6b7e3	-0.08140542
85	0xbdabca7f	-0.083882324
86	0x3d957004	0.07296756
87	0x3dbb0d53	0.09133401
88	0xbd72a825	-0.059242386
89	0xbc00fc3c	-0.007872637
90	0x3d8e434d	0.0694643
91	0xbbf45130	-0.0074559674
92	0x3c119d69	0.008887627
93	0x3d8a8ffa	0.067657426
94	0xbd72395b	-0.05913673
95	0xbc190e11	-0.009341733
96	0xbdb9ac85	-0.090661086
97	0xbd61220a	-0.054964103
98	0x3d6228a9	0.055214558
99	0xbded55c9	-0.11588628
100	0x3db4282c	0.08796725
101	0x3bfe8071	0.0077667763
102	0xbd5d77b4	-0.054069236
103	0xbd91c45e	-0.07117532
104	0xbdfad37d	-0.122473694
105	0xbd40f511	-0.047108714
106	0xbbb762d3	-0.0055964976
107	0x3dad4857	0.08461063
108	0x3d1bd8de	0.038048618
109	0xbd7df5eb	-0.062002104
110	0x3ab40f32	0.0013737439
111	0x3db512c3	0.08841469
112	0x3df1b093	0.11801257
113	0x3d56402b	0.05230729
114	0xbdee3816	-0.11631791
115	0x3d2ad4e6	0.041706942
116	0xbc4811c2	-0.012211265
117	0x3d8ea632	0.06965293
118	0xbd55ec25	-0.052227158
119	0xbe020894	-0.12698585
120	0x3d6588c3	0.05603863
121	0xbdb4b2fa	-0.088231996
122	0x3da0dc90	0.07854569
123	0xbd379513	-0.044819903
124	0xbdebc98a	-0.1151305
125	0xbdc2e446	-0.09516196
126	0xbde95054	-0.113922745
127	0x3d9da702	0.0769787
128	0xbc9a0a2b	-0.018803677
129	0x3cf5b7e3	0.02999491
130	0xbdd8901d	-0.105743624
131	0xbcb22d85	-0.021750221
132	0x3dd636f5	0.10459701
133	0x3c9a58e5	0.018841216
134	0xba59bb3d	-0.0008305794
135	0x3c4c2bb7	0.012461594
136	0xbdf61e2f	-0.12017476
137	0x3c31b4e9	0.010846355
138	0x3dda234c	0.106512636
139	0xbd0761ae	-0.03305214
140	0x3da9426f	0.08264624
141	0x3dbe7d5e	0.09301256
142	0x3d9f1c74	0.07769099
143	0xbd3e9e74	-0.04653783
144	0x3da2a523	0.079416536
145	0xba1e03d5	-0.00060277927
146	0x3d477aa6	0.04870095
147	0x3bcb7e96	0.0062101586
148	0x3d01a071	0.03164715
149	0x3cdee2e1	0.027207794
150	0xbcbc291f	-0.022968827
151	0x3cb8bb58	0.02255027
152	0x3cfa2bd4	0.030538477
153	0xbc56b451	-0.013104514
154	0x3bc05730	0.0058697686
155	0x3d8f0c5b	0.069847785
156	0x3dd67d89	0.10473163
157	0x3d5a2084	0.053253666
158	0xbcff2b46	-0.031148564
159	0x3d9d76fd	0.07688711
160	0xbdc4efc9	-0.09616048
161	0x3d21a0bb	0.039459925
162	0x3d14d6aa	0.036337532
163	0x3d5edc12	0.054409094
164	0xbdfafa48	-0.122547686
165	0xbcbf9fce	-0.02339163
166	0xbd00a877	-0.03141066
167	0xbba56c81	-0.005048335
168	0xbddf5712	-0.10905279
169	0x3daa75ea	0.083232716
170	0x3da916cc	0.08256301
171	0x3cca511c	0.02469688
172	0x3d7ebf41	0.062194113
173	0x3c6858e0	0.014181346
174	0x3da98066	0.08276443
175	0x3d4e77cb	0.050407212
176	0x3b466a37	0.0030275711
177	0x3db50b3f	0.08840036
178	0x3ceb6d6f	0.028738705
179	0xbc955b23	-0.018231934
180	0xbdb5cc9f	-0.08876919
181	0xbd2925f7	-0.04129597
182	0xbd9eb426	-0.07749204
183	0x3d7d11d5	0.061784584
184	0x3b4d44da	0.0031321556
185	0x3dc49fd5	0.09600798
186	0x3cae210d	0.021255994
187	0xbdb0c523	-0.08631351
188	0x3d1fa911	0.038979594
189	0xbd9fc823	-0.07801845
190	0x3db4d12d	0.088289596
191	0x3defba3c	0.11705443
192	0x3d14ef63	0.03636111
193	0xbd2c2974	-0.04203172
194	0xbdbf3081	-0.09335423
195	0x3da2309d	0.079194285
196	0xbddb2650	-0.10700667
197	0x3d9b3252	0.07577957
198	0x3d1ff99e	0.039056413
199	0xbd958cec	-0.07302269
200	0xbd65e080	-0.056122303
201	0x3df9841d	0.12183402
202	0xbddcd25a	-0.10782309
203	0x3dbf736c	0.09348187
204	0x3ce03218	0.027367637
205	0x3db877ba	0.09007211
206	0xbdb5e1e3	-0.08880975
207	0x3d7e4eb5	0.06208678
208	0xbdef6361	-0.11688877
209	0x3d56b5b3	0.052419376
210	0xbcbb590d	-0.022869611
211	0x3ba38b12	0.0049909437
212	0x3c292893	0.010324615
213	0x3d89d26b	0.06729587
214	0x3c486dd9	0.012233221
215	0x3c9abb80	0.018888235
216	0xbdf4a686	-0.11945824
217	0x3d8027de	0.06257604
218	0xbd201617	-0.039083567
219	0x3dddf78b	0.10838231
220	0x3d8b9b7c	0.06816766
221	0xbdc001dd	-0.093753554
222	0xbc889a12	-0.016675029
223	0x3d22a79a	0.03971062
224	0x3da162da	0.078801826
225	0x3d7172b1	0.05894727
226	0x3d7fa377	0.06241175
227	0x3da3862e	0.07984577
228	0xbd1d27a9	-0.0383679
229	0x3ddff3f8	0.10935205
230	0x3db5453d	0.08851097
231	0xbbca6688	-0.0061767735
232	0x3dc57a81	0.096425064
233	0xbd22a6a4	-0.039709702
234	0x3ca5dd48	0.020247117
235	0x3d1d8fcf	0.038467225
236	0xbc818106	-0.015808593
237	0x3d041fc4	0.032256857
238	0xbd98f560	-0.074686766
239	0x3cc35eb0	0.023848861
240	0x3cad3ed6	0.021148127
241	0x3c9f62e8	0.019456342
242	0x3dda0a4d	0.10646496
243	0x3de9aabb	0.114095174
244	0x3ddfe60a	0.10932548
245	0xbcecba33	-0.02889738
246	0x3d970e8a	0.0737582
247	0x3d179075	0.037003
248	0xbcf648ac	-0.03006395
249	0x3d4babaf	0.049724277
250	0x3ca9ca30	0.020726293
251	0xbd352682	-0.044226177
252	0xbcb2efbf	-0.021842835
253	0xbd585a40	-0.052820444
254	0x3da6f7c8	0.08152729
255	0xbdb298ad	-0.08720527

_func._diffusion._model.2.bias f4 [48]
0	0xbd898b82	-0.06716062
1	0x3d54db63	0.051967036
2	0x3caefdfc	0.021361344
3	0x3d7a40c6	0.06109693
4	0xbd5a27bf	-0.05326056
5	0xbd53a951	-0.051675145
6	0x3c8103ee	0.015748944
7	0xbda252cf	-0.07925951
8	0xbd5d3c5d	-0.054012645
9	0xbd83fda8	-0.064448655
10	0xbcdc0a50	-0.026860386
11	0x3cf6ce40	0.030127645
12	0xbda898fa	-0.08232303
13	0xbd81ed33	-0.0634407
14	0x3cb6a0d1	0.02229348
15	0x3db24656	0.08704822
16	0x3de55595	0.11197964
17	0xbd9fbe89	-0.078000136
18	0x3c5b0813	0.013368624
19	0xbd33ad59	-0.04386649
20	0x3cd5972b	0.026073059
21	0x3ae98d64	0.0017818627
22	0xbd3be035	-0.045868117
23	0xbd186360	-0.037204146
24	0xbd597282	-0.05308772
25	0x3d869ccc	0.065728754
26	0xbddc8fa6	-0.10769586
27	0xbdea8238	-0.114506185
28	0x3d453d59	0.04815421
29	0x3bf101ea	0.0073549645
30	0xbcfd2506	-0.030901443
31	0x3dd631f1	0.10458744
32	0xbbb48d31	-0.0055099954
33	0xbc3972ab	-0.011318843
34	0x3d401a00	0.046899796
35	0x3d77a286	0.06045773
36	0xbdbfbd49	-0.09362275
37	0xbd02dbf2	-0.031948037
38	0xbde1a297	-0.1101734
39	0xbcbec6ef	-0.023288218
40	0x3df066b7	0.11738341
41	0xbcad08b0	-0.021122307
42	0xbdb30743	-0.087416194
43	0xbc86d17a	-0.016457308
44	0x3d3b93f5	0.0457954
45	0xbd814735	-0.0631241
46	0xbce98f4e	-0.028510716
47	0x3d3f523b	0.04670928

_readout.weight f4 [1, 16]
0	0xbe292744	-0.16518885
1	0x3dca4849	0.098770685
2	0xbd5e760f	-0.05431181
3	0xbe4c4f06	-0.1995202
4	0xbe3ab27c	-0.18232149
5	0x3e17e4f6	0.14833435
6	0x3e7ebc36	0.24876484
7	0xbe72817c	-0.23682207
8	0x3e052819	0.13003577
9	0x3e176118	0.14783132
10	0xbd2d0f34	-0.042250827
11	0xbe20be04	-0.15697485
12	0x3e5299c7	0.20566474
13	0x3d8454b5	0.06461469
14	0x3e42fc7c	0.19041628
15	0x3d27fa69	0.041010294
