generator_heun.pt (torch, 13930 bytes, 13 tensors)

_initial._model.0.weight f4 [16, 5]
000000 4b 3a 00 3c 7c 90 7b 3f 81 38 1b bf 60 88 e7 3e
       0.007826398 0.9826734 -0.60633093 0.45221233
000010 ea 9b c2 3e 10 1f 09 3e 7c 2c c5 be 3e 1c 61 be
       0.38009578 0.13390756 -0.385105 -0.2198343
000020 14 fa 0c 3f ea 2b 25 bf 93 d1 97 3e f3 99 ed be
       0.5506909 -0.6452013 0.2965208 -0.46406516
000030 fe 1e 5f be 5a 42 05 3f 5f 43 2c 3f ea 68 96 bf
       -0.21789166 0.5205437 0.672903 -1.1750767
000040 12 57 1e 3f a1 c7 fb be 9e 14 19 bf c2 3a 94 3f
       0.6185161 -0.49175742 -0.59797084 1.1580431
000050 93 9e 80 bf 0a aa 40 3f 1b 19 e3 bd 2a ff 85 3f
       -1.0048393 0.7525946 -0.11088773 1.0468495
000060 d2 68 f0 be ca b7 c7 bd 81 e0 90 bf 9e 73 2a bf
       -0.46954972 -0.09751852 -1.1318513 -0.6658267
000070 ee 48 7c bf df 5b 37 bd 41 ed 2a bf c6 04 04 bf
       -0.9854878 -0.04476535 -0.6676827 -0.51569784
000080 a8 bc 21 bf 45 1d 81 bf c6 8a 52 bf bc 53 53 be
       -0.6317849 -1.0087057 -0.82243 -0.20637411
000090 fd 60 08 bf 8c 97 43 3f 81 ef a3 be 8d 5e 5f bf
       -0.5327299 0.7640312 -0.32018664 -0.8725365
0000a0 84 35 05 bf aa 0a 94 be 47 ba d6 3e 5a 1f 1b 3f
       -0.52034783 -0.28914386 0.41938993 0.60594714
0000b0 00 4f 89 bd 7a 8b 85 bc 0e 00 8a be 51 72 e0 be
       -0.06704521 -0.01630186 -0.26953167 -0.43837216
0000c0 ba 25 51 3e 98 1b 12 3f d6 5c ab be 3e 2d e3 be
       0.20424548 0.57073355 -0.33469266 -0.44370455
0000d0 2f 6b a5 3f bc ec 3a 3f 53 20 08 bf 05 72 a7 bf
       1.2923335 0.7301748 -0.5317432 -1.3081671
0000e0 8f 17 2a 3f 88 2d 3e 3f e6 d1 8b 3f 6d b4 02 3e
       0.664422 0.74288225 1.0923431 0.1276414
0000f0 5a f0 65 3e 0d f2 4f bf 61 e2 93 bf 9e 19 fc be
       0.22454968 -0.81228715 -1.155346 -0.49238294
000100 eb fd b1 3e f4 db e6 3e 35 be 32 3f 55 71 98 3e
       0.34764037 0.45089686 0.6982148 0.29773965
000110 99 dd 5f 3f 6b 6e 49 bf 52 80 c9 3e 5e 0f 11 3f
       0.87447506 -0.7868411 0.39355713 0.56664073
000120 7e 66 10 bf 63 79 8e 3e 6a 5e 4e 3f 65 e6 8f be
       -0.5640639 0.27826986 0.80612814 -0.28105465
000130 7a ca 6c 3f 64 71 9c 3e f1 0f 41 bf c1 0d 7f bd
       0.92496455 0.3055526 -0.7541495 -0.062268976

_initial._model.0.bias f4 [16]
000000 85 1a 94 bf 68 6b 81 bf dd 8c 3b bf aa 55 19 bf
       -1.1570593 -1.0110903 -0.73261815 -0.5989634
000010 72 71 5c bf a6 81 34 3f 0d bc 9a bf f9 32 b0 be
       -0.86110604 0.7051033 -1.2088639 -0.3441389
000020 9e c9 b4 3e 03 06 7c be d8 91 fb bd 67 0d 83 3d
       0.35310072 -0.24611668 -0.12283677 0.06399041
000030 00 69 72 3f 4d 0e 3c bf 66 04 80 bf 89 ee 73 bf
       0.9469147 -0.7345932 -1.0001342 -0.9528585

_initial._model.2.weight f4 [16, 16]
000000 6f e3 88 be 94 3c 05 bf f3 5d 92 be 52 66 18 bf
       -0.26736018 -0.5204556 -0.28587303 -0.5953113
000010 2c 46 f8 bd 28 b2 6e 3e 74 08 4f 3e c4 80 e7 be
       -0.12122759 0.23310149 0.20218068 -0.45215428
000020 d2 35 ab 3e 53 9b 4c 3d a8 37 2e bf 2e 72 df 3e
       0.334395 0.049952816 -0.68053675 0.436418
000030 ed d3 3a bf 3e 57 13 bd 6c 3d 96 3e bf 96 42 3d
       -0.72979623 -0.035971873 0.29343736 0.047507044
000040 f6 db ea 3e bc 6d 16 3f b0 b0 d5 be 3e 60 6b 3e
       0.45870942 0.5876119 -0.41736364 0.22985932
000050 b0 ec 38 bf d7 a3 4e bd 99 ea a4 3e 14 43 37 bf
       -0.72236156 -0.05044922 0.32210234 -0.7158673
000060 98 83 be 3d 8d 20 ca be 94 d6 fa be 0d 1b a8 be
       0.09302443 -0.3947796 -0.48991835 -0.32833138
000070 0e 7d 39 bf 75 e6 89 be b0 df 9a be 67 20 b4 3e
       -0.72456443 -0.26933637 -0.30248785 0.3518097
000080 af de 29 bf 2c 74 8b be c4 78 c9 3e 6d ed c7 be
       -0.66355413 -0.2723707 0.3934995 -0.3904833
000090 7f ae 2d be 29 35 02 3f 0a c9 e5 bd f0 76 84 be
       -0.16961096 0.50862366 -0.11219986 -0.25871992
0000a0 b3 ce 3f bf 54 3f 74 bb 44 2a 07 3f af b9 a6 bd
       -0.7492477 -0.0037269192 0.5279887 -0.08140885
0000b0 b7 52 4d be a8 c0 2c be 29 17 e8 be 8a 64 fb 3d
       -0.20051084 -0.16870368 -0.4533017 0.12275036
0000c0 b7 d8 ad 3e d9 ab df bd c7 af e3 be ee 72 e5 bd
       0.33954403 -0.10921449 -0.44470045 -0.11203562
0000d0 56 1a 5b be 07 32 6b be 6b 7f 20 bf 8d f4 59 be
       -0.21396765 -0.22968303 -0.62694424 -0.21284695
0000e0 33 a4 06 bf e6 af 26 be 94 69 b7 be 71 39 f9 be
       -0.525943 -0.16278037 -0.35822737 -0.48676637
0000f0 f7 51 aa 3e 36 65 98 3e 35 ce 02 be 2c bc 54 3e
       0.3326566 0.29764718 -0.12773974 0.20774907
000100 f1 91 68 3e 05 31 f3 bd 02 83 2e be 07 1b 50 3d
       0.22711922 -0.11874584 -0.17042163 0.050807025
000110 7a 0d d8 3e 95 21 b8 bd 65 b4 60 3e fc 49 16 3f
       0.42197782 -0.0899078 0.21943815 0.5870664
000120 20 8a 91 bd 73 a3 90 3c 65 e9 21 3f 05 b2 15 bf
       -0.071064234 0.017656064 0.63246757 -0.5847476
000130 45 78 35 bf 31 a7 0c be b3 a1 34 bf a6 6c 04 3e
       -0.7088664 -0.13735653 -0.70559233 0.12932071
000140 ae a8 a8 3e 02 b7 07 bf 14 bc 03 3e f7 74 67 3e
       0.32941192 -0.5301362 0.12864715 0.22603212
000150 1e 6e 4b be b3 76 94 3e 33 ad 16 bd 95 2e f8 3e
       -0.19866225 0.2899681 -0.03678627 0.4847304
000160 f5 97 2f 3f 11 c7 3b 3f 83 9a e4 3e 48 2e a6 bd
       0.68591243 0.73350626 0.44649133 -0.08114296
000170 7e 0b a4 3d 30 bc dc be 43 1a f8 3e b0 ea 2a 3f
       0.080100045 -0.43112326 0.48457536 0.66764355
000180 e8 61 12 bf b0 44 af be cf 5e a3 bd d1 4c 9a 3d
       -0.57180643 -0.34232092 -0.07977068 0.07534183
000190 f6 8b a1 3e 43 b0 fa bd fa 84 b5 3c 13 df 2c 3f
       0.31552094 -0.122406505 0.022158135 0.67527884
0001a0 4f 05 04 bf 25 ea d0 be 12 93 8e 3d 83 8b 1c bf
       -0.515706 -0.40803638 0.06961645 -0.6115038
0001b0 1a fa 93 3e 0c 64 25 3f e8 b4 3a 3f 27 b8 1a bf
       0.2890175 0.64605784 0.7293229 -0.60437244
0001c0 39 c7 c9 3d 91 60 95 3e df 8d a0 be 58 ad cd bd
       0.09852452 0.29175237 -0.3135824 -0.10042828
0001d0 3b 81 0f bd 0f 5f 62 3d dc 9a f8 be 7b 8c 9f be
       -0.035035353 0.055266436 -0.48555648 -0.31161866
0001e0 15 6b b6 3e 61 30 1e bf c3 03 e4 be 1f 51 c2 3e
       0.35628572 -0.6179257 -0.4453412 0.37952515
0001f0 6f 02 32 bf 83 84 1a bf 39 29 b3 3e 51 36 f8 3e
       -0.69534963 -0.60358447 0.34992388 0.4847894
000200 91 50 1e 3f 9c 29 12 bf d7 ae 1b bf 9f bd a3 bd
       0.61841685 -0.5709474 -0.6081366 -0.07995152
000210 69 8b e9 3e a3 77 26 be e3 c7 2c bf 2e 0e 9e be
       0.45614174 -0.16256575 -0.674925 -0.30870193
000220 7c c8 dd 3e 9c 28 07 3e be 59 10 3c e0 0b d0 be
       0.4331702 0.13199085 0.008810459 -0.4063406
000230 16 17 05 3f 3f a4 ac 3e 00 4b b4 be c1 21 db 3e
       0.5198835 0.3371906 -0.3521347 0.4279919
000240 8a 2a 23 3e fc 42 33 bf 92 df 62 bd 43 6c fa be
       0.15934196 -0.70024085 -0.055388995 -0.48910722
000250 d6 00 ce 3e 18 e4 9c 3e 8f eb 10 3f 14 5e 8b 3e
       0.40235013 0.30642772 0.56609434 0.27220213
000260 57 99 c5 be 97 b4 a5 3d b2 cd 12 be 53 a8 40 be
       -0.38593552 0.080910854 -0.14336279 -0.1881421
000270 4f f3 a5 3e 37 b6 52 3e 60 46 2a bf c0 f8 8e bd
       0.32412192 0.20577322 -0.66513634 -0.06981039
000280 de 1f e5 3e 26 f6 00 3f cd a3 02 3f 48 12 30 3f
       0.44750875 0.5037559 0.5103119 0.68777895
000290 4b d0 ef 3d 6c 76 3c 3c bb 7d b7 3e f5 61 22 bf
       0.117096506 0.011502843 0.35838112 -0.6343072
0002a0 77 aa 31 3f 4a b3 38 bf a1 f4 12 3f 71 8a 13 bf
       0.69400734 -0.72148573 0.57404524 -0.5763312
0002b0 6f f5 88 be eb 4b 2b bf 73 38 55 3e 2b 2f a2 bd
       -0.2674975 -0.66912717 0.20822315 -0.07919153
0002c0 b0 fd a2 bd 28 10 ff be 9c c8 53 3e b1 c4 4b 3e
       -0.07958543 -0.49817014 0.20681995 0.1989925
0002d0 1e df 24 bd c5 ed 94 3e 3c bf 39 bf c4 df 94 bd
       -0.040251844 0.29087654 -0.72557425 -0.072692424
0002e0 e4 19 50 3e 01 20 dd be 14 3c c2 3e 62 d0 31 3f
       0.20322376 -0.4318848 0.3793646 0.6945859
0002f0 cf e8 d2 3e 32 09 38 3f 97 4c ba be e0 58 7e 3d
       0.41193244 0.7188903 -0.36386558 0.062096477
000300 20 4b fb be 65 52 06 3f 2a 67 32 3f c0 3d d0 be
       -0.49080753 0.52469474 0.69688666 -0.40672112
000310 04 d5 08 3f 0a 41 2f 3e 75 6d 9a 3d 1f 29 74 bd
       0.53450036 0.17114654 0.075404085 -0.05960953
000320 a3 17 b1 3e e0 3b 98 bc f7 7e c2 bd 09 f6 65 3e
       0.34588346 -0.018583238 -0.09496873 0.22457136
000330 05 bf ac be c8 84 28 3f ce c1 12 3f 1d 0e 1f 3f
       -0.33739486 0.6582761 0.5732697 0.6213091
000340 3c c4 11 bd d4 51 f4 3e bd 27 4a 3e 46 3e 14 bf
       -0.035587534 0.4771868 0.19741721 -0.5790752
000350 20 90 44 3d 8a dc f7 be 1b 89 d2 be 9c 50 c1 be
       0.04798901 -0.48410445 -0.41120228 -0.37756813
000360 f2 bd ac 3e b7 66 d9 3e eb 3e d9 3e 80 cf 2b bf
       0.33738667 0.42461178 0.42430815 -0.67113495
000370 0f 43 b9 3d b5 dd c6 be 29 48 3c bf de a2 eb bc
       0.090459935 -0.38841024 -0.7354761 -0.028764185
000380 38 51 21 bf cb 7a 6d bd b6 3f 1c bf be d7 cd be
       -0.63014555 -0.057978433 -0.61034715 -0.4020366
000390 1e 86 33 bf ff 2d aa 3e 8e 10 34 bf 21 68 06 3f
       -0.7012652 0.33238217 -0.7033776 0.5250264
0003a0 aa d5 2d bf b6 fe 3c be cc 49 86 be 94 13 c6 bd
       -0.6790415 -0.1845654 -0.26228178 -0.09671703
0003b0 68 f4 72 3e b2 32 59 3e 8b c2 ab be c0 83 ca be
       0.23726046 0.21210745 -0.33546862 -0.39553642
0003c0 ae 73 66 bd 60 99 c0 be f6 70 b6 be b9 74 bf be
       -0.056262664 -0.37617016 -0.35633057 -0.3739374
0003d0 c1 19 ce 3c b0 ba bb bd 24 7d 11 bf e9 89 85 be
       0.025158765 -0.09166467 -0.56831574 -0.2608178
0003e0 30 7e fa 3e 1b b3 fd bd 4d 9c 36 bf c3 aa 6b bd
       0.48924398 -0.12387677 -0.71332246 -0.057535898
0003f0 3b cf 2d 3e 58 3e 2e 3e 1a ae 8a be b6 0f 17 3f
       0.16973583 0.1701597 -0.27085954 0.5900835

_initial._model.2.bias f4 [16]
000000 16 f0 15 bf 1f 00 25 3e 15 33 22 3f 6e 6e 17 3f
       -0.5856947 0.16113327 0.63359195 0.5915288
000010 12 6b 9e be ab e6 3d 3f da e3 d5 3e e0 6c 09 3e
       -0.30941063 0.74180096 0.417754 0.13420439
000020 b2 55 22 3e 91 41 3d be 27 b4 11 bf 6b 35 07 bf
       0.15853003 -0.18482043 -0.56915516 -0.52815884
000030 65 c4 4a 3e 0d db 02 3f f0 5e 5d 3e b5 b6 98 3e
       0.19801481 0.51115495 0.21618247 0.29826894

_func._drift._model.0.weight f4 [16, 17]
000000 e2 a1 49 3d a3 8b e2 bd 8b 64 23 bc f1 aa 9c 3d
       0.04922665 -0.1106179 -0.009972702 0.07649792
000010 98 b9 a2 3d 89 c5 18 bb 85 3f a3 3d 0b 10 c5 bc
       0.079455554 -0.00233111 0.079711 -0.024055501
000020 92 98 73 3b 34 cc 95 bd 14 06 88 bd 79 bf ac bc
       0.0037169796 -0.07314339 -0.06641784 -0.021087395
000030 16 f2 7b 3c 5c 42 a6 bd 97 cc d2 3d ea cf e1 bd
       0.015377542 -0.08118126 0.10292929 -0.110259846
000040 a7 3f d7 3d c5 4a 1c bd 56 46 e8 3d b5 ce cc 3d
       0.105101876 -0.038157243 0.113415405 0.10000364
000050 c1 09 cc bd a0 7c bd 3c 41 7b 53 3d 4b 4b bd 3d
       -0.09962798 0.023130715 0.051631216 0.092428766
000060 87 f8 8f bd 23 cd dd 3d 75 b2 c3 3c 01 d7 d7 3d
       -0.07029825 0.10830142 0.023888806 0.105390556
000070 a3 55 2f bd 5c a2 e3 bd 18 d2 a4 3d 66 e2 0e 3d
       -0.04280628 -0.11114952 0.08047885 0.03488388
000080 b0 1f 72 bd 0c 45 64 bd 9d 36 ec 3d 81 d0 0c 3d
       -0.05911225 -0.05572991 0.11533854 0.034378532
000090 b5 d1 9b bd b3 1a 9d bd 2d 31 15 bd e2 75 a3 3c
       -0.07608358 -0.07671108 -0.03642385 0.019953672
0000a0 9a 8c 05 3c dc e7 c1 3d cf 92 61 bd 70 39 89 bd
       0.008151198 0.09468052 -0.05507165 -0.067004085
0000b0 ac a7 52 bc e2 90 aa bd ac 93 a8 3d 7e 89 a4 3c
       -0.012857359 -0.083284155 0.08231291 0.020085093
0000c0 45 49 99 3d cf 8b 9a 3d 3b c6 16 3d 4a 81 94 3d
       0.07484678 0.075461976 0.03681014 0.072512224
0000d0 e6 9c 5b 3d c4 05 99 bd 24 c6 fc 3d 69 b2 5d 3d
       0.053616427 -0.07471803 0.1234248 0.054125223
0000e0 0b 20 18 bd 97 9f c6 bd 67 76 84 bd 31 65 ac bc
       -0.037139934 -0.09698408 -0.06467896 -0.021044346
0000f0 36 06 bf 3c 14 fb 93 bd 70 66 12 3d 4e ef 82 bc
       0.023318391 -0.07225624 0.035742223 -0.01598325
000100 9f 9e d5 3d ca f2 f6 bd 90 04 8e bc f4 9f e9 bc
       0.10430645 -0.12058027 -0.01733616 -0.028518654
000110 03 f4 ea 3c 8d 8f 90 3d 7b fb e1 bd 83 61 a5 bc
       0.028680807 0.0705863 -0.11034294 -0.020188099
000120 57 af 0d 3d 22 aa e3 bd 56 5f 40 3d c7 b2 a6 3d
       0.034591045 -0.11116435 0.04696592 0.08139568
000130 91 e7 43 bd e1 d8 8f 3d cf 42 bd bd 17 cc af bd
       -0.04782826 0.07023788 -0.09241258 -0.08583849
000140 28 71 dc bd 24 6b d9 bc 3e 28 91 bd ca a0 cd 3c
       -0.1076377 -0.026540346 -0.07087754 0.025101084
000150 13 6b 70 bd f9 ff 6a bd b8 28 51 bd 89 44 34 bd
       -0.058695864 -0.05737302 -0.051064223 -0.044010673
000160 25 ee 81 3d 4c 51 a7 bd 46 0a 98 3d ed 15 99 bd
       0.063442506 -0.08169803 0.074238345 -0.07474885
000170 8c f3 a1 3c ac 3b 79 3d c9 25 d7 3d fd 56 ba 3d
       0.019769453 0.060847923 0.10505254 0.09098623
000180 9e 04 57 3d 63 cf c0 3c 63 90 e8 3d 9f 21 01 3e
       0.052494638 0.02353639 0.113556646 0.12610482
000190 23 2b 98 bd 35 3c dd 3d 70 78 ba 3d e2 be ac 3d
       -0.07430103 0.10802499 0.09105003 0.084348455
0001a0 b2 7c 90 3b 60 dd 9e 3d ef ec 58 3c b0 f6 b3 bd
       0.004409396 0.07757068 0.013240083 -0.08787286
0001b0 c2 58 c2 bd 88 6c cb 3d d2 c5 e3 bd a2 1f 52 bc
       -0.094895855 0.0993281 -0.111217156 -0.012824925
0001c0 3f 0a 64 3d 3e dc 9b 3c f7 93 21 bc 8b fb 1b 3c
       0.055673834 0.019025918 -0.009861938 0.009520422
0001d0 24 36 52 3d 0b 30 31 bd 68 c7 5f 3d 24 10 12 bc
       0.051321164 -0.043258708 0.054633528 -0.008914981
0001e0 39 ad bc bc f6 f3 2c 3d 4b 81 0e 3d 92 8a 9a bd
       -0.023031818 0.042224847 0.034791272 -0.075459614
0001f0 78 fa 58 bd 45 e5 05 bd a4 6d 4f bd c0 5d 1b 3d
       -0.05297324 -0.03268935 -0.05064167 0.037931204
000200 7c e5 c4 bd 74 24 cb bd ba 5e c9 3d 14 0f 6e 3d
       -0.09614083 -0.09919062 0.09832521 0.05811985
000210 b5 48 3d bd 4b d6 d7 bd a0 f2 b1 bc 0a 81 34 3c
       -0.046211917 -0.1053892 -0.021722138 0.011017093
000220 da fe 1f bd 4f 73 7f 3c df ea dc bb cb 51 fc 3d
       -0.039061405 0.015591457 -0.006741866 0.12320288
000230 2e fd a9 bd 0e 4f ad bd 95 fb ca bc b0 95 ec bd
       -0.08300243 -0.08462344 -0.024778167 -0.11551988
000240 07 c9 95 3d d8 60 13 3d 25 02 57 3d a2 42 5d 3d
       0.073137335 0.03598103 0.05249228 0.054018624
000250 4e 29 93 3d ac f9 57 3c c2 79 d0 bd b2 d1 ab 3d
       0.071856126 0.013182085 -0.101794735 0.083896056
000260 b6 bb 0e bc ec c6 92 bd 7c 96 c0 3d dc 60 5a bd
       -0.008711746 -0.071668476 0.094037026 -0.05331503
000270 35 a4 dd bd 91 00 3e 3d c4 d9 c1 bc b5 1b 05 3e
       -0.10822336 0.04638726 -0.023663409 0.1299885
000280 cb 4c 58 3c 53 27 f3 bc 2c b0 9e 3c e4 da ba 3d
       0.013201903 -0.029681837 0.019371115 0.09123781
000290 77 19 c2 3d 26 9c d7 bd 77 13 c3 bd 3c 3b 7d bc
       0.09477513 -0.1052783 -0.09525197 -0.015456017
0002a0 f1 85 11 bd 63 06 59 3c 3a d4 8a 3c f6 27 ef bd
       -0.035528127 0.013246152 0.0169469 -0.11677544
0002b0 ff da e7 bd 80 4a 57 bd 3c a0 6a 3c 5a a9 15 3d
       -0.11321067 -0.052561283 0.014320429 0.03653846
0002c0 3f 66 bc bd b3 6a bf bd 61 a7 80 3c e1 8c c5 3d
       -0.091991894 -0.09346523 0.015704812 0.09646011
0002d0 8f e4 5b bd ae d8 e8 bd af b4 54 bd 6b 13 57 3d
       -0.053684767 -0.11369453 -0.051930126 0.052508753
0002e0 03 20 a3 bd ee 2f e0 bc d7 23 8a bc ac fd 91 3d
       -0.0796509 -0.027366605 -0.016862793 0.07128462
0002f0 bc 72 04 bd 12 f9 d4 bd 67 62 cb bd 23 f5 a6 bd
       -0.03233598 -0.10399069 -0.09930878 -0.08152225
000300 9d 7e 87 3d cc 30 34 3d 05 15 d7 bd a1 7f b4 3d
       0.066159464 0.04399185 -0.10502056 0.08813406
000310 aa 38 a6 bd aa 45 11 3d 49 eb d0 bd b5 92 28 bc
       -0.081162766 0.035466827 -0.10201127 -0.010288884
000320 d3 28 47 bd 60 6a e8 3c 09 fd 10 bc 11 74 73 bc
       -0.048622917 0.028371036 -0.008849391 -0.014859215
000330 d7 d0 f3 3d 44 2a c7 bd 9c 8d 04 3c e4 d9 a7 3d
       0.119050674 -0.097248584 0.008090403 0.08195856
000340 07 3c d6 bd 6d 42 98 bd 41 f8 0e bc 87 7b c0 bd
       -0.10460668 -0.07434545 -0.0087261805 -0.09398561
000350 ec 03 e9 bd 9c 5c 7e ba af 09 a6 3c 4a 55 ad 3d
       -0.11377701 -0.0009703131 0.02026829 0.08463533
000360 4f ee 8a bd 92 4e da 3d 8a 64 49 3d 9d 36 d0 3c
       -0.06783735 0.10659517 0.049168147 0.025416667
000370 f8 7e d9 3d 78 09 ec bb 5f 58 c8 3d de c5 d0 3d
       0.106199205 -0.007203277 0.097824804 0.1019399
000380 32 62 38 bd cf 24 5e bd fb 94 69 3d c1 d4 ad 3d
       -0.04501552 -0.054234322 0.057026844 0.08487845
000390 67 4b 94 bd a4 09 0b bd d7 6f 85 bd 65 4d bb bd
       -0.07240944 -0.03394474 -0.065154724 -0.09145621
0003a0 69 f1 5c 3d de cc 75 3d b6 78 be bd bf e4 94 3c
       0.053941164 0.06000983 -0.093003675 0.01817548
0003b0 0d d1 d0 bd e7 49 94 3d d5 9f 39 3d c4 b0 fc bd
       -0.10196123 0.07240658 0.045318443 -0.12338403
0003c0 1a aa 6e bd 68 3c 4e bd 92 8a 95 bd 8c 38 28 bd
       -0.05826769 -0.050350577 -0.07301821 -0.041069552
0003d0 08 33 c5 bc 47 bf 76 bd 9d 3f 1a 3d 3a 0d 26 3c
       -0.024072185 -0.06024101 0.037658323 0.010134989
0003e0 1c f9 63 3d 49 0f 8f bc 9b 2b b2 bd fa 55 e2 bb
       0.05565749 -0.017463343 -0.08699723 -0.006907222
0003f0 0c 10 d3 bd 86 f5 72 bd 3b 4c 9b 3d 22 f0 98 3d
       -0.10305795 -0.05931618 0.07582899 0.07467677

_func._drift._model.0.bias f4 [16]
000000 eb 89 81 bd ab 86 bb bc 2f 37 fa 3d 77 bf be 3a
       -0.06325134 -0.022891363 0.12217557 0.001455291
000010 31 4a 8f 3d a0 5b e3 bd 81 a5 58 3c 13 7f 98 bd
       0.06996573 -0.111014605 0.013223053 -0.074461125
000020 f5 24 be bd 67 a1 b5 3d ba c6 ce 3b 04 f4 c0 3d
       -0.09284393 0.08868676 0.006310311 0.09421542
000030 cd 63 0a bd 0b 1a 61 bc 46 01 b3 3d b6 db cb 3d
       -0.033786584 -0.013739119 0.08740477 0.09954016

_func._drift._model.2.weight f4 [16, 16]
000000 6a 29 8d 3d b7 9a 08 bd 92 f5 92 3d 38 bf d1 3d
       0.06892665 -0.033350673 0.07175745 0.1024155
000010 dc 53 33 bd dc 5b e1 bd ee 42 b8 bc 59 7b 04 bd
       -0.043781146 -0.11003849 -0.022492852 -0.032344196
000020 93 ec 83 3c 14 d2 19 bc c3 77 97 3d 92 1c 9c 3d
       0.016104018 -0.009388465 0.073958896 0.07622637
000030 bf e8 60 bd 29 35 63 3d de 23 23 3d b1 67 c4 bd
       -0.054909464 0.05547062 0.039829127 -0.0959009
000040 c2 87 b1 bd 67 8d 6e 3d e9 92 dd 3d b4 34 b8 bd
       -0.08668472 0.05824032 0.108190365 -0.08994427
000050 e9 34 80 bd db 53 79 3d cc 96 c6 bd e4 eb af bd
       -0.06260092 0.060870986 -0.09696731 -0.085899144
000060 71 b2 00 be 89 34 a3 3d 0a a9 15 bd 4e 1e bc bd
       -0.1256807 0.07969005 -0.03653816 -0.09185468
000070 3c c7 2d 3c f1 2b 80 3c 70 de 2f bd e1 35 e5 ba
       0.010606583 0.015645953 -0.042936742 -0.0017487371
000080 16 bf 04 3d d7 1c 81 3d 41 5c 9e bc fa 62 2c bd
       0.032408796 0.06304329 -0.0193311 -0.04208658
000090 c9 9f f8 bd 46 c7 84 3d cd 02 4d bd e6 bc ce 3d
       -0.121398516 0.06483321 -0.0500515 0.10094623
0000a0 49 8f ec 3d a5 23 f4 bd c1 c9 a7 bd ea 31 26 3d
       0.11550767 -0.11920861 -0.081927784 0.040574946
0000b0 e4 46 8f 3d b6 a1 e1 bd cf 7d e4 3c 86 cf c5 bd
       0.06995943 -0.11017172 0.027892021 -0.096587226
0000c0 d0 02 2f 3d 64 70 9c 3d d3 96 7c 3d 05 86 30 bd
       0.04272729 0.07638624 0.061667275 -0.04309656
0000d0 18 51 c4 bd 78 3a 87 3d 24 af 85 3b 7a bc 68 3d
       -0.0958578 0.06602949 0.0040797163 0.05682037
0000e0 67 e6 d3 bd 74 44 1c bd fc 63 d9 bd b6 a8 65 bd
       -0.1034668 -0.03815122 -0.10614774 -0.0560691
0000f0 a8 ca 2a bd e6 50 1f 3c f1 32 14 3d 5c aa e0 3d
       -0.041697174 0.0097238775 0.036181394 0.109699935
000100 ce 93 a8 3d dd cc 88 bd 27 53 bb 3d 76 3c fe 3d
       0.082313165 -0.066796996 0.091467194 0.12413876
000110 90 3d 02 3e 2c 36 40 bd ae f9 3e 3d ee 8e 63 3d
       0.12718797 -0.046926662 0.04662483 0.05555623
000120 4c b5 a9 bd 7f 8f e9 bd f3 34 d4 3d e5 ee 26 3d
       -0.08286533 -0.11404323 0.10361662 0.04075517
000130 99 1f 8c 3c 7a 13 4b 3d 1c a5 02 3d ca 57 9f bd
       0.01710491 0.04957912 0.03189574 -0.07780416
000140 1c b9 d0 3d 8d 20 84 bd 13 37 e1 3d 9e c1 f5 3d
       0.10191557 -0.06451521 0.10996833 0.1199982
000150 b1 b5 d9 3c 72 47 bd 3d 19 f3 9c bd 6e b1 02 bd
       0.026575895 0.09242143 -0.07663555 -0.03190749
000160 95 47 10 bd 93 a2 a5 bd 35 67 83 3d 7e 5e 9a bd
       -0.035224516 -0.08087649 0.064161696 -0.07537554
000170 e6 16 12 bd c3 90 24 3d 8f 67 a9 3d e7 02 00 3e
       -0.03566637 0.040177118 0.08271705 0.12501107
000180 d4 a8 fc 3d d3 61 4e bd 5f 45 9c 3d af b0 be 3d
       0.12336889 -0.05038626 0.07630419 0.093110435
000190 20 5b fe 3d bd a6 97 bd 58 2e 6f 3d d8 5d 16 bc
       0.124197245 -0.0740485 0.058393806 -0.0091776475
0001a0 c3 1f f8 3c fa 58 ee 3d 69 b8 ee 3d bd cb a8 bc
       0.030288583 0.11638065 0.11656267 -0.020604962
0001b0 d9 63 58 bb 12 a4 d8 bb 1f 8e ba 3d f9 72 0a bd
       -0.0033018498 -0.0066113556 0.09109139 -0.033801053
0001c0 cc 68 c2 bd 90 e2 90 3d 84 90 ea bd bc 34 1b 3d
       -0.09492645 0.07074463 -0.114533454 0.03789209
0001d0 47 e8 65 3d 3d 4a c0 bd cf ff 49 bc bb ab c6 bd
       0.05612972 -0.0938916 -0.012329056 -0.09700724
0001e0 be e1 07 ba 07 57 94 3d 8e 12 51 3c 93 4b 9e bd
       -0.00051834795 0.07243162 0.012760771 -0.077292584
0001f0 99 26 9e 3d 3d 41 ea 3b bc 9d bb 3d 8c 4c e9 bd
       0.07722206 0.0071488903 0.09160945 -0.11391553
000200 3b 23 d5 bc 34 0d b6 3d dd 34 f8 bd 37 ea 42 bd
       -0.026017776 0.08889237 -0.12119458 -0.047586646
000210 1b b9 91 bc 83 60 cc bd 85 95 a6 bc 05 2d cc bd
       -0.01778846 -0.09979346 -0.020334968 -0.09969524
000220 06 c3 e9 bc d4 2f 42 3d 22 4f bd 3d 16 d0 ec bd
       -0.028535377 0.047408894 0.09243609 -0.11563127
000230 63 10 69 3d 36 56 da 3d ca 15 d3 3d fe cb ac 3b
       0.056900393 0.10660975 0.1030689 0.005273341
000240 1e dd 37 bd d9 f2 c3 3d 72 0c d8 3d cf 1d 63 bd
       -0.04488861 0.09567804 0.10549249 -0.05544835
000250 92 f0 cb bd eb a1 b6 bd 96 03 c9 3d 15 f5 1e bd
       -0.099579945 -0.08917602 0.09815137 -0.038807947
000260 38 39 3d 3c e6 d0 3d bd fa b8 b4 3d 5d 07 22 3d
       0.011549287 -0.0463418 0.08824344 0.039557803
000270 f3 f3 01 3e e1 2f 91 bb 5a 21 d7 bd 1e 76 53 bd
       0.12690715 -0.0044307564 -0.10504408 -0.051626317
000280 4e 2f 36 bd cd 36 53 bd 5c 10 90 3d 3a fe 57 3d
       -0.044478707 -0.051565934 0.0703437 0.052732684
000290 0e d4 b5 bc 05 de b1 bd ac d5 d7 3d 57 ee d4 bd
       -0.022195842 -0.08684925 0.105388016 -0.10397022
0002a0 dc 24 1a bc 8a e0 64 3d a2 af 91 bc e1 66 ff 3d
       -0.009408202 0.0558782 -0.017783944 0.124707945
0002b0 bd d6 ef bd 25 00 90 bd 2c c4 98 3d c8 7d 92 bc
       -0.1171088 -0.070312776 0.07459292 -0.017882243
0002c0 a1 9e 90 bc e3 79 df 3d 2e 99 d0 bd c0 19 ab 3c
       -0.017653765 0.1091192 -0.10185467 0.020886302
0002d0 c3 ea 86 bd b0 6a e0 3d 01 1c 98 3d 39 53 d8 3b
       -0.06587746 0.10957849 0.07427216 0.006601718
0002e0 15 f2 0a 3c 71 a8 db bc 5b 9b 80 3a c7 8f 81 3d
       0.008480568 -0.026813718 0.0009811925 0.063262515
0002f0 24 3d 03 bd 54 a6 83 bd 0d 35 79 bc 71 97 ef bd
       -0.03204073 -0.06428209 -0.015210402 -0.11698807
000300 84 cd 9d bd 95 2d 02 be 24 65 ee 3d 9c 94 2c bd
       -0.077052146 -0.127127 0.11640385 -0.042133912
000310 5f d6 e0 3d 93 f7 bd bd 58 da 10 bd 1c 7e 6e 3d
       0.10978388 -0.09275737 -0.03536448 0.058225736
000320 f8 db 80 3b 44 ed bc 3d 9e 02 c2 bc 14 4b da 3d
       0.0039324723 0.09224942 -0.023682889 0.10658851
000330 15 d6 b2 3d e0 ac ce 3d ee c3 f6 3d ac 51 94 3d
       0.08732239 0.10091567 0.12049089 0.0724214
000340 11 44 ac 3d ed 3d d8 bd a0 c5 80 3d 13 ef 03 3e
       0.0841142 -0.105586864 0.06287694 0.12884168
000350 c1 33 c3 bd e3 fd 03 bd f5 28 9a 3d dd 9d 4b bd
       -0.09531356 -0.032224547 0.07527343 -0.049711097
000360 82 4e d5 bd 6e b0 0b bd 0a 86 25 3b 5e ae d1 bd
       -0.10415365 -0.034103803 0.0025256895 -0.10238336
000370 6f 73 8e bd ef 3a 3f bd 3f 5b c9 bd 0b da dc bd
       -0.06955611 -0.046687063 -0.09831857 -0.10783776
000380 dc a7 a6 3d 77 33 38 3c a3 c0 8d 3d f3 29 98 3d
       0.081374854 0.011242739 0.06921508 0.07429876
000390 3e 8f f6 3d f2 e1 93 3c 6a 88 60 3d 28 fd 03 3c
       0.1203904 0.018052075 0.054817595 0.008055963
0003a0 da 5f ad bd bd 96 14 bc 10 ea de bc 37 3f 19 bb
       -0.08465548 -0.009069142 -0.02721122 -0.0023383626
0003b0 e6 17 cf 3d 3a 7a ba bd 84 44 4d bc f2 27 98 3d
       0.1011198 -0.09105344 -0.012528542 0.07429494
0003c0 75 26 1e 3d 36 7d ac 3c ea b5 f1 3d eb a6 e0 bd
       0.038610894 0.021055799 0.118022755 -0.10969337
0003d0 52 bd cf 3b fd 6b 80 bd 0d 44 9b bd 83 a6 6f 3d
       0.0063397074 -0.06270597 -0.07581339 0.058508407
0003e0 3e 17 a0 bc 0e 27 d1 3d 21 e5 9a 3d b1 f3 a4 3d
       -0.019542333 0.10212527 0.07563234 0.08054293
0003f0 2d 42 91 bd 3d 66 66 3d 33 11 b5 3d 40 08 20 3c
       -0.070927 0.056249846 0.08841171 0.009767592

_func._drift._model.2.bias f4 [16]
000000 70 28 ce bc 97 fb 8c 3d 9b 37 fa bd ee a1 9d bd
       -0.025165766 0.068839245 -0.12217637 -0.07696901
000010 f0 ca d7 3d 32 dd 27 bd f0 77 15 bd 3b dd 51 bd
       0.10536754 -0.040982433 -0.036491334 -0.051236372
000020 f5 70 94 3d 51 bf 71 bd 88 b0 88 ba ac ee 60 bd
       0.07248107 -0.059020344 -0.0010428587 -0.054915115
000030 09 1f db bc 84 1a 06 3e ec 32 b7 3d ba ee d3 3d
       -0.026748197 0.13096052 0.089452595 0.10348268

_func._diffusion._model.0.weight f4 [16, 17]
000000 c2 32 dc bd 8f e4 5a 3b d3 de ec bd 0b f9 0e bc
       -0.10751869 0.0033400392 -0.11565938 -0.008726369
000010 ed 39 8e 3d eb e6 66 3c dc af 92 bd c5 9a ad bd
       0.06944642 0.014093141 -0.07162449 -0.084767856
000020 01 23 2e bd 9f f9 db 3d 32 35 90 3d 5b 2b e9 3d
       -0.04251385 0.10740971 0.07041396 0.113852225
000030 c1 c7 b8 bd 77 51 b3 bd 19 4b b6 3d c4 ba ba bd
       -0.09022475 -0.087557726 0.089010425 -0.09117654
000040 db 6c 45 3d c1 c0 42 3d 62 74 2b bd ad 64 c9 bd
       0.048199516 0.047547106 -0.04185904 -0.098336555
000050 64 4e 10 3d be ea 29 bd a3 48 cb bd f3 54 cf bd
       0.03523101 -0.041483633 -0.09925964 -0.10123625
000060 c2 a4 7e 3d 90 af f9 3d 1b a3 e6 3c 8c b3 ab bd
       0.062168844 0.12191689 0.028153947 -0.08383855
000070 b4 8f a6 3d 56 9e c6 3d cf 1b 2f bc 57 b2 20 bd
       0.08132878 0.09698169 -0.010687782 -0.039232578
000080 21 75 b0 bd f0 a2 45 3d a8 1f 74 3d 2e 20 78 bc
       -0.086160906 0.048251092 0.059600502 -0.015144391
000090 52 b6 c7 3d 00 11 dc 3d 6a bb eb bd ca 38 ec bb
       0.09751572 0.1074543 -0.11510356 -0.007208918
0000a0 a3 f1 15 3d 55 52 2a 3c 8e 62 b5 bd 34 88 6a bd
       0.036607396 0.010395606 -0.088566884 -0.0572588
0000b0 ac 5d 39 bd 8d a8 1e bd 33 47 b0 3c a0 12 bc bc
       -0.045255348 -0.03873496 0.021518325 -0.0229581
0000c0 c8 8d ce 3c f3 85 87 bb 59 bd 8e bd 58 61 ae 3d
       0.025214091 -0.004135841 -0.06969709 0.085146606
0000d0 0f 70 37 bd ca b5 a2 3d 37 bf 08 bd 64 d7 0b bc
       -0.0447846 0.0794483 -0.03338548 -0.00853524
0000e0 43 75 b8 3d 17 1d 9d 3d 08 42 a1 3d 94 14 6e bc
       0.09006741 0.07671564 0.078739226 -0.014531273
0000f0 50 ec 8e 3d ec 07 a2 bd 5f 6f e0 bd e7 6d 80 3d
       0.06978667 -0.07911667 -0.10958742 0.06270962
000100 01 c4 b9 bd e1 f6 e7 bd 93 87 8a bb c8 18 f6 bd
       -0.09070588 -0.11326385 -0.0042275875 -0.120164454
000110 5f e1 8c 3c 2b 8b cd bd 73 46 e0 bc 1c 8c 88 bd
       0.017197309 -0.1003631 -0.027377343 -0.06667349
000120 ab 39 a0 bd 50 aa 7b bd 5a 2c 06 3d 2b 69 f6 bc
       -0.07823499 -0.06144172 0.03275714 -0.030079445
000130 4a fd 42 bd f8 fd 16 3c c9 a5 50 bd 8a f9 d6 bd
       -0.047604837 0.009215824 -0.050939355 -0.104968145
000140 88 8d a5 3d 24 c9 69 bc 00 01 4c 3d 0a 40 ac 3d
       0.080836356 -0.014269147 0.04980564 0.08410652
000150 c6 5a 8d 3d b3 84 a3 3d a9 4f 63 3d 28 9f 85 3d
       0.06902079 0.07984295 0.05549589 0.06524497
000160 1e 79 c2 bd 3f b7 ce bd cb 42 ea bd 48 16 03 3d
       -0.094957575 -0.10093545 -0.11438521 0.03200367
000170 d7 11 4f bd 18 6e f3 3d 8c 23 11 3d 02 0c bd 3d
       -0.050554123 0.11886233 0.03543429 0.09230806
000180 72 42 99 3d d4 c4 05 bc 80 d0 a8 3b 67 a4 e2 bd
       0.074833766 -0.008164603 0.0051518083 -0.110665135
000190 5f c1 cf 3d 02 0f e5 3d a7 0f 33 bd 2b 82 fd bc
       0.101443045 0.11184503 -0.0437161 -0.030945858
0001a0 37 c0 48 3d 94 a3 7c bc 52 3e c7 bc 6c 27 67 3c
       0.049011435 -0.015419859 -0.024321709 0.01410852
0001b0 85 45 76 bd b2 b3 02 bd 6c 69 d3 bc 20 0e be bc
       -0.060124893 -0.031909652 -0.025807105 -0.023200095
0001c0 1e fd 63 bd ca dc b1 3d 4d 67 b4 3d 33 43 db 3d
       -0.055661313 0.0868469 0.088087656 0.107061766
0001d0 4b 39 ef bc 68 3b 99 bb 68 46 f0 bc bf 55 f5 bd
       -0.029202124 -0.004676271 -0.029330447 -0.119792454
0001e0 1c e2 cd 3d b1 a4 a5 bc a5 4b c9 3d 7a 3d 4e 3c
       0.100528926 -0.020220133 0.09828881 0.012587899
0001f0 66 c6 bf bd 2b a6 82 bc 3f 7a c4 bd b4 0d 5f bd
       -0.093640134 -0.015948376 -0.09593629 -0.054456428
000200 74 4d 29 3d 66 ce f6 3c c3 e0 4e 3d a3 ae b6 bd
       0.04133363 0.030127715 0.05050732 -0.08920028
000210 56 c9 ad bd 61 bf f2 bd e4 0c e0 3d cb ac 49 bd
       -0.084856674 -0.11852909 0.10939959 -0.049237054
000220 0d 44 71 bd 03 53 9c 3c 39 86 93 bd 8f c1 28 3d
       -0.05890279 0.019082552 -0.07203335 0.041200217
000230 00 1e 3f 3d 98 f0 e7 3d a5 4c bf 3d f2 df e0 bd
       0.04665947 0.113251865 0.09340791 -0.10980214
000240 8a 0b 86 bd 41 66 5c bd ef 0c 59 3d 42 1c da ba
       -0.0654517 -0.053808454 0.05299085 -0.0016640502
000250 23 1f ee 3c cc 34 ad bd 92 4f de bd 66 49 01 3d
       0.029067582 -0.08457336 -0.108550206 0.03156414
000260 b3 0e b0 bd 12 4a 9a 3c 98 d8 a7 bc 8b b6 87 3d
       -0.08596554 0.018834148 -0.020489022 0.06626614
000270 5c 02 1a 3d c4 3e 2c 3b 68 b9 a9 bd c8 85 61 3c
       0.037599906 0.0026282528 -0.082873166 0.013764806
000280 a5 e0 dd bd ca 74 5e bd 58 c8 cd bd d4 2d fa 3d
       -0.10833863 -0.054310597 -0.10047978 0.12215772
000290 f0 1b 39 bd 10 e6 a0 bc 9f 0d 59 bd 17 a5 ac bd
       -0.04519266 -0.019640952 -0.052991506 -0.08429926
0002a0 5e 45 1f bd f1 0b be 3d 01 97 0a 3d 66 d6 26 3d
       -0.038884513 0.092796214 0.033835415 0.04073181
0002b0 60 8b c7 3d 32 f5 5f 3d 98 30 33 bd a3 46 44 3d
       0.097433805 0.054677196 -0.043747514 0.047918927
0002c0 9e d2 06 bd 2d 22 d3 3d ba ae f4 bd 35 0f d7 bc
       -0.032915704 0.10309253 -0.11947389 -0.026252368
0002d0 17 68 2e bd 25 93 cd bb 4d e4 cf 3c 9c ab 98 3d
       -0.042579737 -0.0062736445 0.025377417 0.07454607
0002e0 eb fa 08 bc fa 74 3c 3c 94 a6 a6 3c 3b 6f 7f 3c
       -0.008360605 0.011502499 0.020343103 0.015590484
0002f0 8c ec 7b bd 39 c2 0c 3d 72 e8 a6 3d 73 17 e9 bc
       -0.061504886 0.034364913 0.08149804 -0.028453564
000300 3f 45 87 3d ff 8d 97 3a d9 ae 44 3d 3a 3c d4 bd
       0.066050045 0.0011562704 0.04801831 -0.1036305
000310 f0 7a e5 3c 5d db bb 3d ba cd d6 bd aa 45 53 3d
       0.028012723 0.091726996 -0.10488458 0.05158011
000320 dc e0 9a 3d 00 f9 36 bd 7e 5f c0 bd 31 91 ac 3d
       0.0756242 -0.04467106 -0.09393214 0.084261306
000330 6c fa ab 3d 46 0c af 3c 11 28 c0 bd 42 03 9e bd
       0.083973736 0.021368157 -0.09382642 -0.07715465
000340 23 9d 74 bc 2e 27 e1 bd 69 84 a7 3d 00 8e b9 bd
       -0.014930042 -0.10993801 0.08179552 -0.090602875
000350 62 75 d2 bd a0 f0 f5 ba cc 5c 9c bc 16 20 d5 3b
       -0.10276295 -0.0018763728 -0.019087218 0.006504069
000360 f4 0d 6a bd ac d7 95 3d a3 91 84 bc fb 9a 62 bd
       -0.057142213 0.07316527 -0.016182726 -0.055323582
000370 8b 00 9f bd d8 51 d6 bd 18 e7 e5 3d 80 a2 99 bc
       -0.077637754 -0.10464829 0.11225718 -0.018754244
000380 c1 cd be bd f0 ce 76 ba 90 f0 71 3d 1f 25 46 bd
       -0.09316588 -0.00094149914 0.05906731 -0.048375245
000390 2b 78 64 bb f1 fa 91 3d 89 64 cb 3d 8e c9 ea 3d
       -0.0034861665 0.071279414 0.09931285 0.11464225
0003a0 9d 84 be 3b 52 09 86 3d fb f3 9d bb 32 58 90 3d
       0.0058141486 0.065447465 -0.0048203445 0.07048072
0003b0 ce 4d a1 bd 13 5c 78 bd 74 d4 4b bc e8 cf ad 3d
       -0.07876168 -0.060634684 -0.0124407895 0.084869206
0003c0 9f e5 e7 3d ed 95 15 3d 67 8b d7 bd 27 88 48 3d
       0.113230936 0.036519933 -0.10524636 0.04895797
0003d0 17 d8 4a 3d 34 50 bd 3d 34 08 65 bd 31 eb b9 3c
       0.049522486 0.09243813 -0.055916026 0.022695156
0003e0 24 f0 b4 bd 66 75 bd 3d 31 47 f3 bb 4b bd c1 ba
       -0.08834866 0.092509076 -0.007424258 -0.0014781145
0003f0 70 a7 3d bc 74 27 76 3c 15 23 ab 3d ce 67 bc bd
       -0.011575565 0.015024055 0.08356301 -0.09199487

_func._diffusion._model.0.bias f4 [16]
000000 31 14 f1 3d 52 af fa 3c 0b c6 07 bd d4 ad f1 bc
       0.11771429 0.030601177 -0.033147853 -0.029501833
000010 7a 4f 84 bd f0 2e 97 3d bd 71 8e bd 07 4e cd bc
       -0.064604715 0.073819995 -0.069552876 -0.02506162
000020 78 36 21 bd 63 43 7f 3c e5 bd 9a 3d 9b 77 d8 bb
       -0.039358586 0.015580031 0.07555751 -0.006606055
000030 bd 79 0f bc 7c 82 90 bd ce 9f 5c 3d 1a 5a c0 bd
       -0.008757052 -0.07056138 0.05386334 -0.093921855

_func._diffusion._model.2.weight f4 [48, 16]
000000 a0 3e e9 3b 98 1c d2 3d cc a5 f3 bd 9c 1c 2e bd
       0.007118061 0.1025936 -0.118968576 -0.042507753
000010 43 0a 93 3c bc 20 71 3b 02 86 c7 3b 7f ae 81 bd
       0.01794923 0.0036793193 0.006088973 -0.063321106
000020 93 7f 07 bd 7c 26 cc bd be cf 7a bc fa 99 bb bd
       -0.03308065 -0.09968278 -0.015308319 -0.09160228
000030 c2 d8 f3 3d 29 04 45 3d f1 14 41 3d 12 1d 59 bd
       0.11906578 0.04809967 0.047139112 -0.05300624
000040 64 de 34 3d 59 b6 29 bd 70 37 cb bd 98 2f 47 bd
       0.0441574 -0.041433666 -0.09922683 -0.048629373
000050 40 0a d6 bc 87 82 ee 3c 1d 71 5c 3d 44 be 4c bd
       -0.026127934 0.029114975 0.05381881 -0.04998614
000060 10 b3 40 bd 94 8c 73 bc 84 e4 e3 3d 3e 78 fd bd
       -0.047045767 -0.014865059 0.1112757 -0.1237645
000070 4b 1c 84 3d 82 20 3b bd de ae 8e bd 80 9f 2a bd
       0.06450709 -0.0456853 -0.06966947 -0.041656017
000080 0c bf 81 3d bc 93 de 3d a5 44 95 3d 96 cb 74 bc
       0.063352674 0.10868022 0.072884835 -0.014941117
000090 79 e6 93 3d 3b 89 ca 3d ab fb da bd ea 7b 97 bd
       0.072216935 0.09889456 -0.10692533 -0.073966816
0000a0 fc 3e 2b 3d e9 4a df 3d b7 8e 97 3d c3 6b 80 3d
       0.041808113 0.1090296 0.074002676 0.06270554
0000b0 fc 5a 02 be c6 0b d4 bd 11 fe ca 3c 64 15 b3 3d
       -0.1273002 -0.10353808 0.024779351 0.08744314
0000c0 2f dc 94 3d 6e c1 dc 3d 5b b4 62 bc d4 85 89 3c
       0.07268559 0.10779081 -0.013836945 0.016787447
0000d0 5b 48 3a 3d 8a 70 e0 3b 80 46 e9 3c 04 f0 fd 3b
       0.04547916 0.006849353 0.028476 0.0077495594
0000e0 f6 57 16 3d 3b 18 44 bd e1 97 20 3d fd 66 e7 3d
       0.03670498 -0.04787467 0.039207343 0.1129894
0000f0 42 dd d4 3d 4d 6c f7 3b c2 3f ff 3d 42 21 1d 3d
       0.10393764 0.0075507523 0.12463333 0.038361795
000100 1f 5e df bd 70 85 84 3d 74 ad 11 3d f1 99 9a bd
       -0.10906624 0.06470764 0.03556581 -0.07548893
000110 57 3a a9 bc d7 6a 3f 3c ae d4 8f 3d bd cd f1 3d
       -0.020657701 0.011683187 0.07022987 0.118068196
000120 b1 02 9d 3d 98 36 75 3c dd bf 1f bd a9 5c 91 bd
       0.07666529 0.014966629 -0.039001334 -0.07097752
000130 3c 01 ec bc ba 6f 5c bc 52 69 98 bd 4d 7d ca 3d
       -0.028809182 -0.013454372 -0.07441963 0.098871805
000140 97 79 d8 bd 24 d0 1e bd f7 7e b9 3d 6a 51 0c bd
       -0.105700664 -0.038772717 0.0905742 -0.03425733
000150 93 e0 80 bd 8c 8a 14 bc c7 ba e8 bd 2f f8 9f bd
       -0.06292834 -0.009066235 -0.1136375 -0.07811009
000160 cb b3 8d bd 1b 4a e5 3d 79 c0 56 3c a8 60 89 bc
       -0.069190584 0.11195775 0.0131074125 -0.016769722
000170 01 e4 b5 bc 40 95 1a bd a5 bd f7 3d 76 bb 49 bd
       -0.022203447 -0.037739992 0.12096719 -0.049251042
000180 d3 86 d1 bd 5e ea a4 3d bb 45 af bd 55 48 83 3c
       -0.10230794 0.080525145 -0.08558222 0.016025702
000190 dc 17 51 3d e1 34 0d bd 04 b9 27 3d bc e7 b5 bd
       0.051048145 -0.034474257 0.04094793 -0.088820904
0001a0 37 1b c7 bd f2 ac 57 3d 76 c6 f0 bd 71 e7 cd 3d
       -0.09721988 0.052655168 -0.117566034 0.100539096
0001b0 21 a8 99 bd 30 96 a5 bd cb f7 ef bd ee 2d b5 bd
       -0.07502771 -0.080852866 -0.11717185 -0.08846651
0001c0 82 d6 1b 3c 0d 86 a2 3c 9e ce a9 3d 3a b2 dc bd
       0.009511592 0.019839311 0.08291362 -0.107761815
0001d0 93 d4 d7 3d 1b a8 d1 bd b6 d7 68 bd 89 bf d1 bc
       0.10538592 -0.10237142 -0.056846343 -0.025604026
0001e0 4a 98 26 3d fb be c7 bd f2 f4 65 3d 1f df 51 bc
       0.040672578 -0.097532235 0.0561418 -0.012809544
0001f0 06 f3 b8 bd 85 ec 81 bd 42 c9 c5 bd 0b 6b 14 bd
       -0.09030728 -0.06343941 -0.096575275 -0.036234897
000200 80 33 90 3d 2b 5a b6 bd 75 e9 35 3d a6 d8 b5 bd
       0.07041073 -0.08903917 0.044412095 -0.08879213
000210 36 a6 18 3c 10 b3 0d bd ab 96 36 bd c1 cb d9 bd
       0.0093169715 -0.034594595 -0.044577282 -0.10634566
000220 ad 18 ac 3d 88 59 03 3d 6a 3a ac 3c 8e 49 e7 bd
       0.08403144 0.032067806 0.021023948 -0.11293326
000230 19 1d 3f bd f3 b2 90 bc 40 0d 51 bd b4 23 b9 3c
       -0.04665861 -0.017663455 -0.051038027 0.022600032
000240 46 28 02 3a a3 d2 e1 3c 1b ba 72 3b e6 15 a3 3d
       0.00049651077 0.02756626 0.0037037197 0.07963161
000250 8a e0 16 bd a3 89 ea 3d b7 4a 99 3d 8e d3 d1 bd
       -0.03683523 0.11452033 0.07484954 -0.10245429
000260 56 80 9b bc 0a 81 77 bd 66 0e b5 3c c9 ee 9e 3c
       -0.018982094 -0.060425796 0.022101592 0.019400971
000270 4a d1 99 bd d7 24 4b 3d aa f2 6e 3d 60 dc ad 3c
       -0.07510622 0.04959568 0.05833689 0.021223247
000280 6d f0 6e bd 2e ad 9a bc 44 99 f2 bc 63 55 94 bd
       -0.058334757 -0.018881407 -0.029614098 -0.07242849
000290 6d ff c4 3d 6f 35 8c bd 83 3b a5 3d 50 8f 56 3c
       0.09619031 -0.06846129 0.080679916 0.013095692
0002a0 89 24 8e 3d 75 ab 5d 3d 15 64 c3 bb b0 f0 35 bd
       0.06940562 0.054118592 -0.0059628584 -0.04441899
0002b0 e3 f9 8d 3c b9 80 f3 3d a2 4e fb bb 65 fd a0 3a
       0.01733107 0.11889786 -0.007669286 0.0012282549
0002c0 20 af 82 bd 22 be da 3c b3 e7 d4 bd f6 d5 1a bd
       -0.06381059 0.02670199 -0.103957556 -0.037801705
0002d0 12 b7 a9 3d 61 64 3f 3d 69 6a fa 3d 6c 95 fa bc
       0.08286871 0.04672659 0.122273274 -0.030588828
0002e0 4c e9 91 3d 4b 9a 04 ba 07 b9 9a 3d a5 ff c2 bc
       0.07124576 -0.0005058392 0.075548224 -0.023803541
0002f0 ee 74 af 3c 79 34 1a ba cc 1a 86 bd 0e 56 90 bc
       0.021418061 -0.0005882453 -0.0654808 -0.01761916
000300 58 2e bf bc ff 0a 10 bb d5 62 4b 3d 57 2d 06 bd
       -0.023337528 -0.002197921 0.0496548 -0.032758083
000310 dd 8b 83 3d 06 19 7a 3d 8f 1e 75 bb ab ef ce 3d
       0.06423161 0.06105902 -0.0037402248 0.10104307
000320 78 8a 01 3d 40 80 e4 3d 0f 1b 41 3d cf c0 a5 bd
       0.031626195 0.11157274 0.047144946 -0.08093416
000330 f7 46 36 3b 07 2d b8 bd 41 63 e5 bd 2f 64 ae bc
       0.0027813294 -0.08992963 -0.11200572 -0.021288006
000340 27 71 26 bd b6 dc 84 bd 0d 9c d5 bd 6d 7e d2 3d
       -0.040635254 -0.0648741 -0.10430155 0.1027802
000350 d3 11 6e 3d 76 eb 92 3d 27 1d 6d 3a 09 2e 92 bd
       0.058122467 0.07173817 0.00090451766 -0.07137687
000360 e3 dc d7 bb 2c 4b b5 bd 6d f0 8f bd 11 43 f9 3d
       -0.006587611 -0.088522285 -0.070282795 0.12170995
000370 ec 43 8a 3d cf 48 bc 3d e5 f3 db 3a ec 86 af 3c
       0.06751236 0.09193575 0.001678106 0.02142664
000380 e0 01 98 3b 8e 55 ee 3c 8f cf e5 3d 7e d6 95 3d
       0.0046388954 0.02909353 0.11221229 0.07316302
000390 82 60 17 3d 9c d3 99 bd 8f 2a c3 bc 33 b0 99 bd
       0.03695727 -0.075110644 -0.023824004 -0.075043105
0003a0 d8 90 f5 bc c8 e9 b7 bd ec 9f a8 3d 00 04 cc bd
       -0.029976293 -0.08980137 0.08233628 -0.099617004
0003b0 45 ff d0 bd 2c ca d3 3c 8c 3c e0 3d 3a 7d a7 3c
       -0.10204939 0.025853239 0.109490484 0.020445455
0003c0 48 56 83 3c 04 ce c1 3d 09 ad 91 3d 68 64 0b 3d
       0.016032353 0.094631225 0.07113082 0.0340313
0003d0 ff 90 03 3d 3b 34 2a 3d eb 6a 88 3d 43 0e 4f 3d
       0.0321207 0.041553717 0.06661018 0.05055071
0003e0 bc c3 ef 3d 79 67 7f 3d 94 45 ee ba 6f 0d 59 bd
       0.11707255 0.06235454 -0.0018178695 -0.052991327
0003f0 ba 51 c7 bd 78 1b e8 3c d8 40 a8 3c 58 82 5c bd
       -0.09732385 0.02833341 0.020538732 -0.053835243

_func._diffusion._model.2.bias f4 [48]
000000 4e 17 a8 3c 21 57 4b 3d a1 c7 23 3d ab 75 c2 3d
       0.020518925 0.04964364 0.039985303 0.094951
000010 8a e0 61 bd b5 11 c9 bd a2 b7 a6 bd 81 d7 b1 bd
       -0.055145778 -0.098178305 -0.08140494 -0.08683682
000020 84 18 f3 3d da 76 2c 3d 7c 24 be 3d 84 b1 d8 3c
       0.1186991 0.042105533 0.092843026 0.026451834
000030 2b 17 97 3d bd c2 1a 3b ef 57 ef bd 49 13 dd 3d
       0.07377466 0.0023614608 -0.11686694 0.10794694
000040 44 9d 5f bd 60 79 d9 3c d4 a1 a1 bd 85 09 2f bd
       -0.05459334 0.026547134 -0.078921944 -0.042733688
000050 52 f8 f2 bd 90 42 e2 3d ae c1 75 3c 41 f6 58 3d
       -0.118637696 0.11047852 0.01499979 0.05296922
000060 fb fa f0 3d 49 2e 02 3e ea 28 a6 3d 27 00 f5 3d
       0.11766621 0.12712969 0.081132725 0.1196292
000070 4c df ad bd d0 9d f0 3c 8b 2e 42 3d 51 d3 69 bd
       -0.08489856 0.029372126 0.047407668 -0.057086293
000080 8b 5f 68 3d 4e 46 90 3d ca 39 35 3c f8 67 a3 3d
       0.056731742 0.070446596 0.011061141 0.07978815
000090 d5 ff 69 3c 4f bb 1d bc e4 c8 f4 bd cd 82 94 bb
       0.0142821865 -0.009627177 -0.11952379 -0.004532194
0000a0 61 0e 86 bd 64 da 6e bd c5 00 0a bb 2c 17 b4 bd
       -0.06545711 -0.058313742 -0.0021057588 -0.08793482
0000b0 56 8c 73 3c 9c eb 4c bd 05 71 85 bd 6a ef ce bc
       0.014865002 -0.050029382 -0.065156974 -0.025260646

_readout.weight f4 [1, 16]
000000 65 ac a6 3d 47 ed df 3d de 44 77 bd f4 66 59 bd
       0.081383504 0.10933929 -0.06036841 -0.0530767
000010 4a 28 63 ba 0d 7a 06 3d 38 3c 79 3e 05 97 b6 3d
       -0.00086653663 0.03283124 0.24339378 0.089155234
000020 c6 c0 3a bd b5 6a c3 3d 10 4d 79 3e 5b 08 85 bd
       -0.045594 0.09541837 0.24345803 -0.06495734
000030 2e ae 89 3d 8d e7 12 3e c9 cf 83 bc a7 8a 6d 3e
       0.06722675 0.14346142 -0.01609029 0.23197423
