generator_bp.pt (torch, 13894 bytes, 13 tensors)

_initial._model.0.weight f4 [16, 5]
1.3452779 1.0308967 -0.13213529 0.6776782 -0.6800469 -0.89901537 -0.12244732 0.8882848
1.3016057 0.5922592 -0.23965216 0.90320164 -0.2448376 1.0509357 1.0583527 0.8032553
-0.3957821 -1.3026235 0.05285565 -0.97270316 0.043374594 -0.21395996 -0.15243416 -0.11204172
1.0451486 0.09019029 -0.93275875 1.1182731 0.6834176 1.1253574 -0.7939179 0.00020215227
0.46417886 -1.0601197 0.84757227 1.1939405 -0.41023448 0.31927747 -0.83836985 -1.2111181
0.9996049 -0.36435273 1.286362 1.1344746 1.3012439 0.9200571 -0.7301813 1.0781657
1.0557562 -1.2464384 0.8736188 -0.655134 -0.493996 -0.15474373 -0.94124866 0.7000101
1.1943521 0.49978822 0.5080755 -1.0408661 0.8764155 -0.18425441 1.1793723 -1.2133129
0.6927802 0.3935271 -0.77143085 0.3475812 -1.1333823 -1.1266328 -0.49174204 1.1951642
0.18565379 0.11938987 0.2634665 1.3136661 0.33619687 0.27964813 0.77730083 0.38426825
00000000: 1132 ac3f 6cf4 833f 794e 07be 527c 2d3f
00000010: 8e17 2ebf df25 66bf a9c5 fabd a266 633f
00000020: 049b a63f 4d9e 173f 6067 75be 3938 673f
00000030: b5b6 7abe 1085 863f 1a78 873f 24a2 4d3f
00000040: f4a3 cabe 5ebc a6bf 2b7f 583d 1303 79bf
00000050: 8fa9 313d 5218 5bbe b317 1cbe 2176 e5bd
00000060: 6ec7 853f b0b5 b83d 47c9 6ebf 9323 8f3f
00000070: 75f4 2e3f b60b 903f 343e 4bbf d6f8 5339
00000080: daa8 ed3e 01b2 87bf 7ffa 583f 0bd3 983f
00000090: 410a d2be 5678 a33e 689f 56bf eb05 9bbf
000000a0: 1be6 7f3f 718c babe 83a7 a43f 7736 913f
000000b0: 298f a63f dd88 6b3f 29ed 3abf 5501 8a3f
000000c0: 0523 873f 4b8b 9fbf 7ba5 5f3f ddb6 27bf
000000d0: 0bed fcbe 2475 1ebe acf5 70bf dd33 333f
000000e0: 88e0 983f 3ee4 ff3e 3c11 023f 1a3b 85bf
000000f0: c45c 603f 30ad 3cbe acf5 963f d64d 9bbf
00000100: 0b5a 313f 627c c93e 7e7c 45bf 2af6 b13e
00000110: ac12 91bf 8135 90bf 9dc5 fbbe 24fb 983f
00000120: 071c 3e3e ad82 f43d 15e5 863e 3626 a83f
00000130: ff21 ac3e 0a2e 8f3e 30fd 463f cfbe c43e

_initial._model.0.bias f4 [16]
-0.3241622 -1.2287124 1.1753983 -1.0611796 0.5608482 0.64262366 0.6576394 1.1207777
-0.44696224 -1.246798 -0.66673213 0.0024176473 -0.14901334 1.2833544 -0.83760357 1.1157976
00000000: 96f8 a5be 7346 9dbf 7473 963f bcd4 87bf
00000010: bf93 0f3f fc82 243f 0e5b 283f a575 8f3f
00000020: 3cd8 e4be 1497 9fbf f5ae 2abf 6471 1e3b
00000030: f496 18be f544 a43f 306d 56bf 75d2 8e3f

_initial._model.2.weight f4 [16, 16]
0.62239254 0.58234197 -0.10747999 0.4904973 -0.43604228 0.12970172 -0.03655509 -0.10196213
-0.513526 -0.6440652 -0.6145635 -0.19093162 0.72832924 0.73875225 0.5104985 -0.28218555
0.738459 -0.56682193 0.22192065 0.15566318 -0.4844737 -0.48932612 -0.39418453 -0.08686529
-0.023278337 -0.13778648 -0.08862688 -0.26083022 0.31374314 0.4618478 -0.6238618 0.36866108
0.50628954 0.18152866 -0.61971706 -0.59003025 0.58524704 0.104537845 -0.42878154 0.78204215
-0.6653217 0.3241013 -0.51797473 0.6144479 -0.49966916 -0.44846755 -0.5879079 -0.36173996
0.6233195 0.16674556 -0.19269411 -0.2140708 -0.5698784 0.27901387 -0.36100334 0.5807916
0.71126264 0.7450354 0.59622175 -0.42936411 -0.085505195 -0.600926 0.3141722 -0.5248522
0.58891547 0.3961438 0.16438894 -0.39716536 -0.33022395 -0.116933286 -0.25996363 0.5330634
0.6605355 -0.36230654 0.67588526 -0.24385038 0.49555618 -0.5135803 -0.5828533 -0.23407029
-0.6947879 0.12641142 -0.64561456 -0.7118387 0.73105365 -0.5187328 0.6054726 -0.49546334
0.15286715 -0.35193422 0.44011098 -0.036243014 -0.3691585 -0.13004413 -0.5617669 0.057561148
-0.009522684 0.009128527 -0.45675662 0.11460937 0.57623255 -0.4381313 -0.5894353 -0.6862167
0.5141075 -0.33383024 -0.053598296 0.25038388 -0.15435317 0.5996594 -0.029467676 -0.50587934
-0.5489392 0.56586814 -0.023095531 0.7378235 -0.3983046 0.08257379 0.46191376 0.5622414
0.3156628 0.66309816 0.22750042 -0.005320475 0.5467443 0.43158147 -0.18685828 0.19216947
-0.6433646 0.6398449 -0.3914237 0.7299198 0.24284205 -0.5945506 0.69987756 0.42419276
-0.3389777 -0.4012768 -0.48830038 -0.12439991 -0.37236944 0.44830534 -0.51778984 0.15954839
0.25951138 -0.08872671 -0.22563325 0.053800527 0.6256842 -0.19209072 0.27881348 0.06676713
-0.047939073 0.4587849 -0.745041 -0.20588227 0.54626805 0.07815064 0.48573768 -0.24160856
0.6990238 -0.6089438 -0.13442019 0.0435734 0.5721297 0.6475797 0.0581318 -0.6898757
-0.36946505 -0.31743178 -0.6370358 0.11967929 0.24496731 -0.22683999 0.046527844 -0.024287984
0.36111563 -0.17690112 0.58766085 -0.08261838 -0.72872686 -0.45354357 0.5214764 -0.25005823
0.574634 0.38902333 0.2401439 -0.5341396 -0.5797661 0.5995999 0.39243966 -0.6504569
0.15172918 0.6929529 0.7073509 0.59707516 0.49027455 0.46204606 -0.47446334 0.15644057
0.4908578 0.6032293 -0.5189887 -0.27457464 -0.17599861 -0.01127645 0.12597363 -0.4626006
-0.5847859 0.34554982 -0.3289971 0.4729738 0.49283335 0.6443769 -0.014922914 -0.09977625
-0.27996308 0.20973465 -0.27596915 0.49303746 -0.13837285 0.7155721 -0.04243581 0.68117917
0.5919559 -0.6638666 -0.59896356 0.74083847 0.46863997 0.08382912 -0.1902068 0.38751125
-0.090389304 0.1336718 -0.562115 -0.2876537 -0.22890359 0.53604484 0.6059233 0.63867456
-0.33307084 -0.34986845 -0.67537546 -0.62287843 0.4760316 0.7116132 0.12591586 -0.3526783
-0.036257286 0.083388545 -0.114870116 -0.0498306 -0.67344314 0.116241336 0.1773004 -0.22196876
00000000: 1e55 1f3f 5d14 153f 781e dcbd 7622 fb3e
00000010: ef40 dfbe 87d0 043e caba 15bd 85d1 d0bd
00000020: 7176 03bf 75e1 24bf 0954 1dbf 9483 43be
00000030: c973 3a3f de1e 3d3f 08b0 023f a07a 90be
00000040: a60b 3d3f 3e1b 11bf 2b3f 633e 2b66 1f3e
00000050: f00c f8be f488 fabe 8ed2 c9be 6ee6 b1bd
00000060: 36b2 bebc e617 0dbe 0282 b5bd 8a8b 85be
00000070: f1a2 a03e 5177 ec3e 68b5 1fbf 25c1 bc3e
00000080: 319c 013f a6e2 393e c7a5 1ebf 390c 17bf
00000090: c0d2 153f f017 d63d 4189 dbbe ea33 483f
000000a0: 8652 2abf 9bf0 a53e fe99 04bf 754c 1d3f
000000b0: a3d4 ffbe 8a9d e5be 2281 16bf fb35 b9be
000000c0: de91 1f3f 59bf 2a3e 9b51 45be 6035 5bbe
000000d0: 8de3 11bf e8da 8e3e 6ed5 b8be c2ae 143f
000000e0: 4f15 363f a4ba 3e3f fda1 183f 9dd5 dbbe
000000f0: 591d afbd 49d6 19bf 2edb a03e b75c 06bf
00000100: 2ac3 163f 5cd3 ca3e 9355 283e 4259 cbbe
00000110: 1d13 a9be b87a efbd f419 85be d876 083f
00000120: db18 293f 3e80 b9be d106 2d3f eab3 79be
00000130: 8ab9 fd3e 007a 03bf e035 15bf 1fb0 6fbe
00000140: 9fdd 31bf ff71 013e ff46 25bf 103b 36bf
00000150: 5526 3b3f accb 04bf 4100 1b3f 5fad fdbe
00000160: 3589 1c3e b930 b4be 3a56 e13e 8e73 14bd
00000170: 5802 bdbe 4a2a 05be f5cf 0fbf 3dc5 6b3d
00000180: 0805 1cbc d18f 153c 01dc e9be 51b8 ea3d
00000190: fa83 133f bf52 e0be 3be5 16bf e6ab 2fbf
000001a0: 8d9c 033f cceb aabe e389 5bbd 5132 803e
000001b0: c20e 1ebe 4783 193f 3266 f1bc 4f81 01bf
000001c0: 4887 0cbf bcdc 103f d732 bdbc 00e2 3c3f
000001d0: 95ee cbbe 721c a93d f67f ec3e 0def 0f3f
000001e0: 8e9e a13e cdc0 293f dff5 683e 6157 aebb
000001f0: 6ff7 0b3f 3ff8 dc3e c757 3fbe 13c8 443e
00000200: 8bb3 24bf e0cc 233f b068 c8be 06dc 3a3f
00000210: 96ab 783e 7834 18bf 2d2b 333f cb2f d93e
00000220: 7c8e adbe 2774 cdbe 8202 fabe 61c5 febd
00000230: 35a7 bebe 4788 e53e e08d 04bf a760 233e
00000240: adde 843e 59b6 b5bd 670c 67be f15d 5c3d
00000250: d72c 203f 6eb3 44be a4c0 8e3e 34bd 883d
00000260: c35b 44bd dbe5 ea3e 02bb 3ebf cdd2 52be
00000270: 39d8 0b3f 710d a03d 9cb2 f83e 3c68 77be
00000280: 39f3 323f bee3 1bbf 72a5 09be 057a 323d
00000290: 1877 123f c9c7 253f 9c1b 6e3d b29b 30bf
000002a0: 862a bdbe 6b86 a2be c714 23bf 6a1a f53d
000002b0: b6d8 7a3e be48 68be fb93 3e3d 98f7 c6bc
000002c0: 26e4 b83e 9125 35be f170 163f d333 a9bd
000002d0: d88d 3abf dd36 e8be 7a7f 053f a207 80be
000002e0: 371b 133f 112e c73e 48e8 753e 5fbd 08bf
000002f0: 8d6b 14bf 617f 193f daed c83e 5884 26bf
00000300: e55e 1b3e 5c65 313f f314 353f ebd9 183f
00000310: 4405 fb3e 4d91 ec3e dcec f2be f531 203e
00000320: b751 fb3e 3c6d 1a3f 72dc 04bf 0c95 8cbe
00000330: fb38 34be dcc0 38bc 3bff 003e fcd9 ecbe
00000340: 87b4 15bf e8eb b03e 4f72 a8be 9f29 f23e
00000350: a754 fc3e e2f5 243f 3d7f 74bc 7e57 ccbd
00000360: 5257 8fbe aec4 563e d44b 8dbe 686f fc3e
00000370: 9db1 0dbe bc2f 373f 2cd1 2dbd c261 2e3f
00000380: 6c8a 173f 29f3 29bf ad55 19bf 97a7 3d3f
00000390: 94f1 ef3e 9aae ab3d 92c5 42be e067 c63e
000003a0: 071e b9bd 43e1 083e c5e6 0fbf 5947 93be
000003b0: b465 6abe 3c3a 093f ca1d 1b3f 2d80 233f
000003c0: 4388 aabe f521 b3be 68e5 2cbf f674 1fbf
000003d0: 6aba f33e 482c 363f 16f0 003e 4092 b4be
000003e0: 8582 14bd 9dc7 aa3d 0641 ebbd 2c1b 4cbd
000003f0: c566 2cbf f00f ee3d 3c8e 353e c74b 63be

_initial._model.2.bias f4 [16]
-0.005783244 -0.06454983 0.097605474 0.08967459 0.5962159 -0.71637577 0.39135876 -0.515058
-0.53989995 0.030035773 -0.42458165 -0.51969415 -0.29068625 0.17490837 -0.48541427 0.44609717
00000000: 5e81 bdbb b432 84bd 61e5 c73d 50a7 b73d
00000010: 9ba1 183f 6764 37bf 2d60 c83e d7da 03bf
00000020: e236 0abf 950d f63c c462 d9be ad0a 05bf
00000030: d4d4 94be 2e1b 333e 3888 f8be d966 e43e

_func._drift._model.0.weight f4 [16, 17]
-0.050731186 -0.048136044 0.05977438 -0.06910334 -0.055275023 0.080025524 0.039306466 0.01157117
0.09665955 0.013455197 -0.0720562 0.056919895 0.040393755 -0.09878347 0.04787239 0.020169007
0.024373103 0.1062609 -0.022954177 -0.046473738 0.09195492 0.008874597 0.08641364 -0.02762851
-0.07252245 0.11472646 -0.09693202 -0.08643697 -0.10867987 -0.038816277 -0.10994936 -0.027227806
-0.06325134 -0.009431037 0.09109614 -0.090193205 -0.09244924 0.09566733 0.03702249 0.019949019
-0.10648081 -0.08991387 0.043620512 0.07115835 0.050404973 0.031780366 -0.07173649 0.080066554
0.030180754 0.008066411 -0.023326948 -0.05288129 0.054847557 0.08302529 -0.0654334 -0.04541068
0.090675175 -0.037265614 0.015938142 0.08191141 0.08365058 0.083239935 0.05824636 0.048266392
-0.07646132 0.026246008 0.069276854 0.006542628 0.0713143 0.08511074 0.020727914 0.084673285
0.00022414267 0.028241206 0.10015878 -0.06828741 0.13117486 -0.115289405 -0.0045889104 -0.059298836
0.054592315 0.055550683 -0.08904062 0.047631405 -0.07804919 0.10847454 -0.057674788 0.039632145
-0.03841396 0.04790857 0.04025938 -0.08612575 0.11449418 0.025912521 0.11335555 0.09787325
0.045834366 -0.007971142 -0.054115362 0.014935424 -0.00047627467 0.08181842 0.08533722 -0.081187546
-0.056241196 0.08333224 -0.014571447 -0.041384116 -0.10110449 0.10971221 -0.07490689 -0.042835418
0.005739008 -0.106254704 -0.11671571 -0.0047678095 0.10538403 0.07073477 -0.02650345 0.01749923
-0.02737673 0.015908258 0.078854285 0.031136101 0.014933931 0.05962562 0.058486924 0.107703365
0.04880268 0.025709473 0.07019513 0.045443725 0.06639164 0.04487439 -0.11240886 -0.11571259
0.07874557 0.062187012 -0.11278221 0.09425102 0.012258717 0.067864746 0.068313524 0.022216115
-0.08167101 0.06402271 0.056815073 0.057802804 -0.049908657 0.05569119 -0.059262726 -0.0481213
0.08282283 0.053804427 -0.06385129 0.10071642 0.017709823 0.034521803 -0.012838892 -0.106128335
0.039417714 -0.049815692 -0.11165786 0.059500318 -0.00575663 -0.05409023 -0.1043833 -0.0346621
-0.07364915 -0.052003387 0.00964743 0.01577318 -0.019288145 0.053849604 0.12260817 -0.09378863
-0.018633986 -0.0881582 0.019437345 -0.036942054 -0.07881765 0.010228138 -0.050510895 0.033590574
-0.037315886 -0.042882282 0.024816811 -0.091155894 -0.028998893 -0.04884313 -0.11729606 0.06414075
0.09654372 0.104140356 -0.04933523 -0.06512502 -0.07112249 0.018807802 -0.093462855 -0.047036108
0.099832825 -0.06587327 -0.07506634 -0.07329132 0.000684782 0.00673697 -0.009357627 -0.036477286
-0.06911821 -0.0752152 0.08037905 0.06614866 -0.0950686 0.002727817 -0.037989423 -0.06359533
0.05260241 0.03112996 -0.038375918 -0.10956539 0.08157789 0.045828052 -0.024800895 0.045459364
-0.050097626 -0.09800105 -0.11308702 0.102124535 -0.08616006 0.010331581 0.094329566 0.11166754
0.050126236 0.05831239 0.0423089 0.00064036774 0.10265386 -0.021630846 -0.049098283 -0.024322636
0.09757455 0.068784915 0.0032813002 0.11811445 0.04564259 -0.0052419403 -0.04416909 -0.08652072
0.074170366 0.06361228 0.016500039 0.053217493 0.031690918 -0.01343528 -0.06691095 -0.07488047
00000000: 81cb 4fbd 4d2a 45bd fbd5 743d 0d86 8dbd
00000010: 1068 62bd 6ce4 a33d d1ff 203d 0195 3d3c
00000020: 71f5 c53d 3073 5c3c 3392 93bd d624 693d
00000030: ec73 253d fd4e cabd d715 443d 7939 a53c
00000040: 1aaa c73c 519f d93d 660a bcbc 3f5b 3ebd
00000050: dc52 bc3d c266 113c a2f9 b03d 2f55 e2bc
00000060: a686 94bd b5f5 ea3d 4b84 c6bd de05 b1bd
00000070: 8d93 debd d1fd 1ebd 212d e1bd d90c dfbc
00000080: eb89 81bd a384 1abc 9d90 ba3d 37b7 b8bd
00000090: 0756 bdbd 3ced c33d e5a4 173d 206c a33c
000000a0: 9c12 dabd c324 b8bd 6cab 323d 78bb 913d
000000b0: 7275 4e3d 212c 023d 95ea 92bd eff9 a33d
000000c0: a13d f73c fb28 043c 2818 bfbc 0d9a 58bd
000000d0: d5a7 603d 2a09 aa3d f201 86bd 8d00 3abd
000000e0: e8b3 b93d d4a3 18bd b590 823c 2bc1 a73d
000000f0: ff50 ab3d b379 aa3d bc93 6e3d fbb2 453d
00000100: c197 9cbd de01 d73c 06e1 8d3d 8b63 d63b
00000110: 3b0d 923d 8a4e ae3d 96cd a93c 3069 ad3d
00000120: d707 6b39 1a5a e73c 0c20 cd3d 45da 8bbd
00000130: b452 063e da1c ecbd 925e 96bb 56e3 72bd
00000140: 319c 5f3d 1d89 633d ee5a b6bd 2619 433d
00000150: 41d8 9fbd e627 de3d 663c 6cbd 5155 223d
00000160: f557 1dbd c73b 443d 05e7 243d b262 b0bd
00000170: ed7b ea3d 7f46 d43c f426 e83d c571 c83d
00000180: d1bc 3b3d 6599 02bc 12a8 5dbd b5b3 743c
00000190: 81b4 f9b9 6a90 a73d 48c5 ae3d a845 a6bd
000001a0: 2b5d 66bd 18aa aa3d 14bd 6ebc 6482 29bd
000001b0: df0f cfbd ccb0 e03d c968 99bd 3174 2fbd
000001c0: 4a0e bc3b 119c d9bd a508 efbd 493b 9cbb
000001d0: 95d3 d73d 64dd 903d c31d d9bc 8c5a 8f3c
000001e0: 2a45 e0bc 0952 823c 5b7e a13d 2311 ff3c
000001f0: 72ad 743c fe39 743d fc8f 6f3d 9593 dc3d
00000200: 52e5 473d ac9c d23c 77c2 8f3d 3323 3a3d
00000210: 57f8 873d 35ce 373d 9e36 e6bd b9fa ecbd
00000220: 5b45 a13d cfb7 7e3d 5cfa e6bd ae06 c13d
00000230: c9d8 483c acfc 8a3d f6e7 8b3d 92fe b53c
00000240: 2143 a7bd 571e 833d ecb6 683d a2c2 6c3d
00000250: 056d 4cbd 721c 643d 79bd 72bd d71a 45bd
00000260: 049f a93d 0862 5c3d 77c4 82bd 6944 ce3d
00000270: 3114 913c bc66 0d3d 375a 52bc d059 d9bd
00000280: 7874 213d 8a0b 4cbd e0ac e4bd 9bb6 733d
00000290: 1da2 bcbb b88d 5dbd e9c6 d5bd d9f9 0dbd
000002a0: 5ed5 96bd 8101 55bd 4110 1e3c c236 813c
000002b0: 2c02 9ebc 6791 5c3d fe19 fb3d 4114 c0bd
000002c0: 4da6 98bc 498c b4bd 113b 9f3c 8d50 17bd
000002d0: 266b a1bd ec93 273c 83e4 4ebd 4596 093d
000002e0: 8bd8 18bd 55a5 2fbd a04c cb3c f1af babd
000002f0: 168f edbc bc0f 48bd eb38 f0bd 3a5c 833d
00000300: b7b8 c53d 8a47 d53d bd13 4abd 4460 85bd
00000310: aba8 91bd d212 9a3c 7469 bfbd efa8 40bd
00000320: 2775 cc3d 91e8 86bd 62bc 99bd c219 96bd
00000330: f182 333a cdc1 dc3b bb50 19bc 3569 15bd
00000340: d98d 8dbd 6d0a 9abd c59d a43d f378 873d
00000350: 53b3 c2bd 2dc5 323b cc9a 1bbd 453e 82bd
00000360: a075 573d 4204 ff3c 1130 1dbd d263 e0bd
00000370: 4f12 a73d 32b6 3b3d 3f2b cbbc 9933 3a3d
00000380: 2b33 4dbd c6b4 c8bd 2b9a e7bd ab26 d13d
00000390: af74 b0bd cb45 293c dc2f c13d f4b1 e43d
000003a0: 2b51 4d3d f9d8 6e3d 194c 2d3d 5ade 273a
000003b0: 303c d23d 2c33 b1bc 481b 49bd 4440 c7bc
000003c0: 2ad5 c73d 1bdf 8c3d 150b 573b fde5 f13d
000003d0: b9f3 3a3d 95c4 abbb a6ea 34bd c631 b1bd
000003e0: a2e6 973d 2847 823d 172b 873c 96fa 593d
000003f0: 56ce 013d a61f 5cbc 9c08 89bd ef5a 99bd

_func._drift._model.0.bias f4 [16]
-0.07137255 -0.0046140254 -0.04854056 -0.051189553 0.04866781 -0.08735693 0.10994535 0.017714158
0.038669378 -0.07038176 -0.044092994 -0.0051237703 0.0027106265 -0.04932883 -0.0657959 0.052669164
00000000: c62b 92bd 4031 97bb 77d2 46bd 23ac 51bd
00000010: e657 473d 31e8 b2bd 072b e13d 481d 913c
00000020: c863 1e3d 5024 90bd db9a 34bd 4de5 a7bb
00000030: c4a4 313b 070d 4abd 00c0 86bd 9fbb 573d

_func._drift._model.2.weight f4 [16, 16]
-0.121467605 0.081708066 -0.05368964 0.023845674 0.12355253 -0.085662425 0.06939363 0.026097499
0.1174806 0.093704835 0.08245247 -0.051317737 -0.017114803 -0.111877084 -0.017220171 -0.02216
0.11706221 0.108801186 -0.01137342 -0.008954009 -0.12948935 0.06345423 0.005845645 0.040662225
0.037272148 0.03192292 0.05282891 -0.10843411 -0.009013592 0.068772 0.06936893 -0.014682861
-0.037745282 0.06413754 -0.110940054 0.010661736 -0.039733686 0.012399765 0.0015019062 -0.080310605
-0.09772978 0.11711586 -0.08736309 0.07942125 0.07644365 -0.028296502 -0.119504824 -0.04869096
0.09090371 0.0069412924 -0.09828068 0.10687188 0.07303758 0.095965475 -0.11315101 0.007770891
-0.019022087 0.051570714 -0.1523154 0.07177653 -0.013751194 -0.046621807 -0.11590044 -0.10669532
-0.044495642 0.08146419 -0.09149616 -0.052271236 -0.17977326 0.07740839 0.08475144 -0.09007515
0.0022863925 -0.07976113 -0.030390294 0.06436484 0.03809775 0.08777941 -0.090074316 0.052349657
0.08502046 0.08318093 -0.005609008 0.032128185 0.07490117 0.033415362 -0.09171502 -0.043066103
0.017174862 -0.04101919 0.07901985 -0.014409863 0.045606617 -0.113821045 -0.027712012 0.008389522
0.059054825 -0.060049176 0.041964307 -0.050028417 0.003695724 -0.078128904 -0.04800784 -0.055298775
-0.052797105 -0.071905784 0.087407 -0.035941307 -0.01107875 0.0019869744 -0.081858866 -0.10319213
0.005772276 -0.09371951 0.011658237 -0.102204435 -0.022124289 0.10508614 -0.042578302 0.089961186
0.068946525 0.0762817 0.106272556 -0.077679336 -0.023580402 -0.015045316 -0.11379576 -0.14433855
-0.0060649374 -0.08506139 0.04130643 -0.007911354 -0.004979167 -0.06594148 0.06910191 -0.0068163145
-0.077739336 0.010711571 0.12543008 -0.115935825 0.008541246 0.04967957 0.05668033 -0.01626298
0.08453685 0.06816891 -0.002344104 0.095127 -0.0499706 0.006161778 -0.035336524 0.06822426
-0.015340963 -0.053872123 -0.012558975 0.0798003 -0.010506876 -0.022744365 0.061791975 -0.010670776
0.07751007 -0.02268588 -0.033236492 0.00072628015 0.016831277 0.06184471 -0.111426845 -0.11506682
-0.013568716 -0.01723977 0.08754973 0.097846135 -0.038463566 -0.09434819 -0.015664587 0.088778004
0.08648421 -0.091795005 -0.0057858913 -0.02784568 0.07862831 -0.12508626 -0.09692639 -0.11535811
-0.09211019 -0.031261317 0.048631452 -0.039485253 -0.104189135 -0.06607114 0.09268438 0.03356592
0.015975514 0.09355449 0.084837936 0.03510589 -0.10188507 -0.042458043 0.0779783 -0.03116335
0.018106982 -0.08298877 -0.05444507 -0.05223164 0.11142678 0.05540627 -0.031935822 -0.07418926
0.074704 0.1277307 -0.05194385 -0.10005717 0.05803368 0.011494646 8.474922e-06 -0.033156954
0.05195314 0.06709234 0.04015576 -0.08354071 0.08911803 -0.11578067 -0.051219847 -0.031203577
-0.08033367 -0.011734701 -0.03908345 -0.015303642 0.055142358 -0.10603175 -0.12518348 0.08141828
-0.000700573 -0.12174912 -0.046003208 -0.019397162 0.027729914 -0.013945585 -0.057992443 0.019912967
-0.10654296 -0.07395487 0.022864096 0.005127422 0.06795913 -0.047226243 0.052889906 0.06100199
0.09435558 -0.048570435 -0.08785528 -0.097535856 0.10361645 0.105126165 0.105164394 0.10822758
00000000: 02c4 f8bd 8f56 a73d abe9 5bbd 0158 c33c
00000010: 1c09 fd3d c86f afbd 3f1e 8e3d 6cca d53c
00000020: ab99 f03d 52e8 bf3d d7dc a83d 8c32 52bd
00000030: 5834 8cbc d01f e5bd 5111 8dbc e388 b5bc
00000040: 50be ef3d 28d3 de3d 9557 3abc d6b3 12bc
00000050: db98 04be 4bf4 813d d38c bf3b 6f8d 263d
00000060: aeaa 183d 9cc1 023d 2163 583d b412 debd
00000070: bfad 13bc 56d8 8c3d 4c11 8e3d 6290 70bc
00000080: cc9a 1abd 8b5a 833d 8a34 e3bd 90ae 2e3c
00000090: cabf 22bd 6228 4b3c 9cdb c43a e379 a4bd
000000a0: 8d26 c8bd 71da ef3d 6beb b2bd 9ca7 a23d
000000b0: 7d8e 9c3d 11ce e7bc f2be f4bd 2c70 47bd
000000c0: b92b ba3d c873 e33b 6247 c9bd a5df da3d
000000d0: ba94 953d 8c89 c43d b7bb e7bd f5a2 fe3b
000000e0: 35d4 9bbc d03b 533d 91f8 1bbe 93ff 923d
000000f0: b04c 61bc 82f6 3ebd 365d edbd 1383 dabd
00000100: 1041 36bd b2d6 a63d 5762 bbbd 5d1a 56bd
00000110: 7b16 38be 4a88 9e3d 2a92 ad3d 5279 b8bd
00000120: 4dd7 153b ce59 a3bd 11f5 f8bc b7d1 833d
00000130: 630c 1c3d b1c5 b33d e278 b8bd 986c 563d
00000140: 351f ae3d c35a aa3d c5cb b7bb d898 033d
00000150: c965 993d 8cde 083d 16d5 bbbd 1566 30bd
00000160: 4cb2 8c3c bd03 28bd 29d5 a13d 5917 6cbc
00000170: 01ce 3a3d 021b e9bd 4d04 e3bc 3574 093c
00000180: 79e3 713d 20f6 75bd c4e2 2b3d 99ea 4cbd
00000190: f633 723b 0c02 a0bd dea3 44bd f880 62bd
000001a0: c741 58bd 5743 93bd 7102 b33d 3137 13bd
000001b0: a583 35bc e637 023b 9fa5 a7bd 6556 d3bd
000001c0: 5c25 bd3b 04f0 bfbd 3102 3f3c 8f50 d1bd
000001d0: ff3d b5bc 6737 d73d 9666 2ebd 923d b83d
000001e0: d633 8d3d 9439 9c3d 6da5 d93d 5816 9fbd
000001f0: b02b c1bc a180 76bc c00d e9bd 7ccd 13be
00000200: 62bc c6bb ab34 aebd ee30 293d a09e 01bc
00000210: 4828 a3bb 540c 87bd 4d85 8d3d 645b dfbb
00000220: cd35 9fbd 967f 2f3c be70 003e c36f edbd
00000230: 95f0 0b3c ce7c 4b3d a229 683d f139 85bc
00000240: a821 ad3d 249c 8b3d 8a9f 19bb f2d1 c23d
00000250: f9ad 4cbd bde8 c93b 08bd 10bd 29b9 8b3d
00000260: aa58 7bbc 04a9 5cbd 29c4 4dbc 576e a33d
00000270: 0825 2cbc 6452 babc 9519 7d3d 7ad4 2ebc
00000280: 99bd 9e3d bdd7 b9bc fd22 08bd d663 3e3a
00000290: bfe1 893c e150 7d3d c233 e4bd 27a8 ebbd
000002a0: 524f 5ebc 6b3a 8dbc 464d b33d 8e63 c83d
000002b0: f98b 1dbd a039 c1bd 0553 80bc 3ed1 b53d
000002c0: a21e b13d 05ff bbbd 9397 bdbb a01c e4bc
000002d0: e107 a13d 9d16 00be 5881 c6bd df40 ecbd
000002e0: 44a4 bcbd de0b 00bd c631 473d 4abb 21bd
000002f0: 1d61 d5bd 4e50 87bd 4fd1 bd3d 6b7c 093d
00000300: 15df 823c 7f99 bf3d 83bf ad3d 32cb 0f3d
00000310: 1fa9 d0bd 7ce8 2dbd 16b3 9f3d 484a ffbc
00000320: 1855 943c 04f6 a9bd cb01 5fbd d8f0 55bd
00000330: b933 e43d aff1 623d 23cf 02bd 8af0 97bd
00000340: 69fe 983d d6cb 023e 13c3 54bd c6ea ccbd
00000350: b9b4 6d3d 0a54 3c3c 832f 0e37 96cf 07bd
00000360: d1cc 543d b567 893d 5e7a 243d 6417 abbd
00000370: 8483 b63d 6a1e edbd e7cb 51bd a59e ffbc
00000380: fb85 a4bd e742 40bc f815 20bd 20bc 7abc
00000390: f4dc 613d 2d27 d9bd 1930 00be a1be a63d
000003a0: a8a6 37ba 9a57 f9bd dc6d 3cbd cce6 9ebc
000003b0: d829 e33c 067c 64bc 7c89 6dbd 8520 a33c
000003c0: 3233 dabd a775 97bd 7c4d bb3c ef03 a83b
000003d0: 282e 8b3d 4e70 41bd 16a3 583d 39dd 793d
000003e0: 803d c13d cbf1 46bd 78ed b3bd e1c0 c7bd
000003f0: dd34 d43d 634c d73d 6e60 d73d 6ca6 dd3d

_func._drift._model.2.bias f4 [16]
-0.020330675 -0.12754248 0.048644155 0.09827922 -0.110816196 -0.05667851 0.072345465 -0.028479507
-0.054952886 -0.1301805 -0.004022318 -0.020866562 -0.07102605 -0.025733829 0.068166226 0.00042090556
00000000: 848c a6bc 7f9a 02be 183f 473d 9e46 c93d
00000010: 9af3 e2bd ba27 68bd dc29 943d db4d e9bc
00000020: 4716 61bd 094e 05be a6cd 83bb 5af0 aabc
00000030: 1b76 91bd c0cf d2bc bc9a 8b3d fdac dc39

_func._diffusion._model.0.weight f4 [16, 17]
0.07359748 -0.11114895 0.07072219 -0.11112729 0.026854014 0.026753975 -0.023536528 0.034978125
-0.0018671182 0.05798615 -0.108831726 0.05829545 0.003998392 0.1168168 -0.0706812 -0.07508714
0.109831356 0.0033371605 0.015111823 0.07118517 0.01997776 0.006571395 0.048981864 -0.0702612
-0.0054764943 -0.07753711 0.052323863 0.096398495 -0.017564747 0.08823228 -0.071421765 -0.032516476
0.11473932 -0.004508554 -0.04922511 0.06806563 0.070796505 -0.07081156 -0.08300123 0.022926927
-0.026157446 -0.00823145 -0.016289294 0.019355588 0.038457878 -0.05087138 0.025247881 -0.05445396
-0.07351646 0.0038923966 -0.068881005 0.05920169 0.07671546 -0.054420065 -0.019926712 -0.121208124
0.06503093 0.07188175 -0.08305212 0.093809314 -0.12004087 -0.030332249 0.072323605 -0.04398639
0.0076066754 -0.006704781 -0.09964198 0.009865972 0.11553053 -0.10990539 0.031315807 0.070932105
-0.03313436 -0.02162701 -0.11351479 0.05738729 -0.069961466 -0.11760214 -0.121912956 0.030048944
0.100208126 0.11209783 0.119306296 0.102910936 0.003755516 0.046685264 -0.07293653 0.105325274
-0.07763439 -0.04661419 0.034983993 0.09534246 0.051040635 -0.008551289 -0.10202912 -0.0724368
-0.055729672 -0.007438384 0.09761643 -0.06704663 -0.06433841 -0.0749949 -0.020747641 -0.040809073
-0.040300917 -0.011341331 -0.04357721 0.10360423 -0.021473223 0.07855877 0.06286313 -0.06889128
-0.10765362 0.093159884 0.057488415 -0.12434207 -0.06831266 0.06380432 0.055798963 -0.03073934
-0.07242186 0.00013917766 -0.068332046 0.013427526 -0.09582416 0.07769573 -0.08991032 -0.09873507
-0.009797415 -0.047031842 0.05497401 -0.11049064 0.05242299 0.07929903 -0.005683393 0.07227971
-0.08564255 0.041532286 0.044135332 0.11223327 0.006631404 0.036568735 0.05400476 -0.07767653
-0.01919742 0.0027509776 -0.084774844 -0.11657494 -0.108308464 -0.005501959 0.054622393 0.03597203
0.019896058 -0.084676854 0.1102758 -0.027188247 -0.07128294 0.09331342 0.046936415 0.0762942
0.08362635 -0.11303247 0.11340471 0.010862991 -0.06353148 -0.042816754 0.104138814 -0.02307832
0.10930786 0.0038421848 0.031797376 -0.09715765 -0.015167072 0.09127151 -0.03725693 0.10668439
0.097563535 -0.049648102 -0.025585778 0.11756488 -0.017824827 0.08530645 -0.0063588507 0.059898864
-0.111184984 0.011849655 -0.06577736 0.08019189 0.029782942 0.048322923 0.08290108 0.015301318
0.11154995 0.10884031 -0.012171621 0.029815594 0.051154442 0.0877332 0.03558876 -0.00013973819
-0.011637324 -0.0023032574 -0.035737384 -0.08534939 -0.017718727 0.018276239 0.020476405 -0.111480415
0.026213773 -0.076244526 -0.004765093 0.111527495 0.07984349 0.09963904 0.065694064 0.10584588
-0.033134043 -0.050832238 0.10571098 0.050662205 0.08131856 -0.09766874 -0.04230054 -0.10981127
-0.059587732 -0.06860543 0.11185207 0.10960352 -0.004927745 0.03938089 -0.054300584 -0.0870488
-0.089001395 -0.043982595 0.07043103 -0.12283528 -0.014866065 -0.022488715 -0.015928226 -0.030720124
0.049899984 0.06977494 -0.07523803 0.014828275 0.081343025 -0.05726539 0.0089500835 0.01754397
-0.026294814 0.11310139 0.034017712 -0.09710236 0.10353545 0.110102214 0.09937008 0.082790315
00000000: 47ba 963d 10a2 e3bd ccd6 903d b496 e3bd
00000010: f3fc db3c 272b db3c adcf c0bc 3945 0f3d
00000020: 17ba f4ba e382 6d3d 2be3 debd 36c7 6e3d
00000030: f104 833b a53d ef3d 4ec1 90bd 49c7 99bd
00000040: 43ef e03d 43b4 5a3b 9497 773c 88c9 913d
00000050: 66a8 a33c db54 d73b 35a1 483d 1be5 8fbd
00000060: 2a74 b3bb c7cb 9ebd 8c51 563d 936c c53d
00000070: f2e3 8fbc 20b3 b43d 9345 92bd ff2f 05bd
00000080: 73fc ea3d 7ebc 93bb 45a0 49bd fe65 8b3d
00000090: c2fd 903d a705 91bd 8dfc a9bd 40d1 bb3c
000000a0: 2448 d6bc 34dd 06bc 2071 85bc 9c8f 9e3c
000000b0: 0286 1d3d 825e 50bd a5d4 ce3c 1e0b 5fbd
000000c0: cc8f 96bd 9417 7f3b 7c11 8dbd 797d 723d
000000d0: ff1c 9d3d 93e7 5ebd 583d a3bc f73b f8bd
000000e0: f02e 853d bd36 933d 3b17 aabd 191f c03d
000000f0: fdd7 f5bd 567b f8bc 661e 943d 132b 34bd
00000100: 6b41 f93b c8b3 dbbb 1811 ccbd e3a4 213c
00000110: 459b ec3d 1416 e1bd 0145 003d da44 913d
00000120: e5b7 07bd 212b b1bc 717a e8bd ef0e 6b3d
00000130: f547 8fbd 64d9 f0bd 80ad f9bd 3429 f63c
00000140: eb39 cd3d 8c93 e53d dc56 f43d f8c2 d23d
00000150: 1a1f 763b 0c39 3f3d bf5f 95bd c7b4 d73d
00000160: c7fe 9ebd 85ee 3ebd 604b 0f3d e842 c33d
00000170: fc0f 513d b51a 0cbc a5f4 d0bd bf59 94bd
00000180: cc44 64bd b0bd f3bb 1feb c73d be4f 89bd
00000190: dbc3 83bd ed96 99bd f5f6 a9bc 6a27 27bd
000001a0: 9312 25bd fdd0 39bc 047e 32bd 742e d43d
000001b0: 9de8 afbc 6ce3 a03d 62be 803d df16 8dbd
000001c0: 8079 dcbd 9cca be3d f978 6b3d 0ea7 febd
000001d0: 82e7 8bbd d7ab 823d 748d 643d 12d1 fbbc
000001e0: ea51 94bd 38f0 1139 acf1 8bbd 20ff 5b3c
000001f0: 753f c4bd f01e 9f3d e722 b8bd 9d35 cabd
00000200: 5685 20bc 76a4 40bd 6d2c 613d eb48 e2bd
00000210: 7db9 563d 8867 a23d c23b babb 6207 943d
00000220: 5c65 afbd c21d 2a3d 40c7 343d 8fda e53d
00000230: 404c d93b 19c9 153d 1834 5d3d df14 9fbd
00000240: e843 9dbc bf49 343b 6f9e adbd d8be eebd
00000250: d4d0 ddbd c749 b4bb bbbb 5f3d 6857 133d
00000260: 0ffd a23c 0f6b adbd 47d8 e13d e3b9 debc
00000270: cafc 91bd 1b1b bf3d 6640 403d 2240 9c3d
00000280: 4b44 ab3d 917d e7bd bb40 e83d b0fa 313c
00000290: cb1c 82bd 9f60 2fbd bb46 d53d bf0e bdbc
000002a0: cddc df3d 2acd 7b3b f73d 023d 97fa c6bd
000002b0: 507f 78bc 8fec ba3d b99a 18bd 587d da3d
000002c0: 64cf c73d cf5b 4bbd 4499 d1bc dbc5 f03d
000002d0: 5f05 92bc 26b5 ae3d e85d d0bb 8358 753d
000002e0: f4b4 e3bd 0e25 423c 48b6 86bd a53b a43d
000002f0: 5bfb f33c 42ee 453d 0bc8 a93d 61b2 7a3c
00000300: 4d74 e43d abe7 de3d 7b6b 47bc d53f f43c
00000310: 5287 513d 77ad b33d 85c5 113d af86 12b9
00000320: 79aa 3ebc 3ff2 16bb 5d61 12bd a9cb aebd
00000330: dd26 91bc 0db8 953c 22be a73c d84f e4bd
00000340: 44be d63c 1726 9cbd 7f24 9cbb 8768 e43d
00000350: fc84 a33d 8e0f cc3d 9c8a 863d bac5 d83d
00000360: 90b7 07bd 7735 50bd 007f d83d 2c83 4f3d
00000370: 588a a63d 8c06 c8bd 5543 2dbd bbe4 e0bd
00000380: 4412 74bd 0181 8cbd b312 e53d cf77 e03d
00000390: ec78 a1bb db4d 213d 4a6a 5ebd a446 b2bd
000003a0: 5d46 b6bd 1827 34bd 253e 903d 1091 fbbd
000003b0: cc90 73bc 413a b8bc e97b 82bc c5a8 fbbc
000003c0: ed63 4c3d 2ae6 8e3d 6516 9abd 4bf2 723c
000003d0: 2c97 a63d 1d8f 6abd 5fa3 123c 5fb8 8f3c
000003e0: 3968 d7bc b4a1 e73d 2856 0b3d 9add c6bd
000003f0: 650a d43d 457d e13d 8a82 cb3d f88d a93d

_func._diffusion._model.0.bias f4 [16]
-0.002064203 -0.09603278 0.047272224 -0.07162817 -0.09292825 0.033483695 -0.012540722 0.11894926
-0.09311637 -0.107752934 0.028350206 0.03564192 -0.027709419 -0.076976515 -0.1009592 0.019857187
00000000: 9447 07bb d6ac c4bd 85a0 413d cab1 92bd
00000010: 2b51 bebd 3326 093d 9a77 4dbc ab9b f33d
00000020: ccb3 bebd 92ad dcbd b13e e83c 43fd 113d
00000030: ddfe e2bc dda5 9dbd b2c3 cebd 8aab a23c

_func._diffusion._model.2.weight f4 [48, 16]
0.005575787 -0.00021680446 -0.04313392 -0.03506972 0.062176675 -0.067045756 0.07377629 -0.038805887
-0.11717169 -0.050532945 -0.0035050998 0.028216064 0.06998458 -0.044274487 -0.09242375 0.03736379
0.1175891 -0.005712076 -0.09136693 0.03479482 -0.093553126 0.03875247 0.030407788 -0.044634447
-0.10449016 -0.11833287 -0.016286174 -0.03836797 0.12099293 -0.10146996 -0.048209697 0.05282384
0.086039044 0.0040260926 0.03238349 -0.077769846 0.04145476 0.039941575 0.058441807 0.09434673
-0.08775376 -0.09455925 0.0661969 0.05547299 0.050056316 -0.06364738 -0.024974078 -0.07316945
-0.061500695 0.11054257 0.013869897 -0.0069659525 -0.12319368 -0.030847775 -0.018099625 -0.06349955
0.07833131 -0.077536985 -0.009137192 0.06577436 -0.07787501 0.084122926 -0.014389282 0.07758554
0.0669988 -0.0759278 -0.052805826 0.058267664 -0.015641171 -0.12242698 0.10534081 -0.08952521
0.016005682 -0.08356012 0.057814986 0.07475013 0.1050092 -0.08556356 -0.059358463 0.09508003
0.0076679327 -0.08712657 -0.004074849 -0.09224401 0.062751606 0.06734495 -0.115527414 0.025091963
0.0886973 0.0746892 -0.08645331 -0.12863842 0.07425893 -0.058609687 0.110463254 0.10131507
-0.0941433 -0.08882994 0.06498957 -0.13305242 -0.021530742 0.059699006 -0.0735771 0.063457586
-0.078028396 0.010368313 0.10312587 0.002443949 -0.052731194 -0.09286235 0.06746242 -0.04621626
-0.0008636439 0.10863149 0.045953993 0.015879879 0.09923323 0.003999701 -0.002915379 -0.06939399
-0.09021553 -0.09793202 0.09078693 0.056692604 -0.085023284 0.06887771 0.08356049 0.109219134
-0.09166641 -0.09666504 -0.012802151 0.12020916 -0.028024191 0.12852623 0.014792547 -0.084962025
-0.0053781006 -0.0325076 0.07223064 0.12900385 -0.07883097 0.08699409 -0.03432329 0.058190804
-0.0347901 -0.03729828 0.0067853252 -0.12276875 -0.055879116 0.051771574 -0.049807224 0.09315658
0.07524122 0.102003425 -0.06048543 -0.0090501 0.085284814 0.12006546 -0.049294848 0.039733198
0.08197254 -0.05220051 0.077359736 -0.038397532 0.0019943877 -0.045120098 0.117172554 -0.06441966
-0.0015634351 0.09707275 0.010561672 -0.08862027 0.10098763 0.081768066 -0.034025863 -0.116776146
0.009317396 -0.09634965 -0.018005854 -0.095009714 0.12505847 -0.09966076 0.070619345 0.033277985
0.0062614847 -0.03723988 -0.012861054 -0.003998672 -0.0040506655 0.011421827 -0.052707292 0.09542996
-0.096557416 0.060167756 0.09915256 -0.0028075262 -0.11221736 -0.12510225 0.045791797 -0.10429747
-0.0497398 0.11418548 -0.0529319 -0.09255724 -0.118032366 0.05977717 -0.049573198 0.09388698
-0.07295805 0.00253222 -0.100382045 -0.11383927 0.04251093 -0.073477566 -0.022065347 0.082374096
-0.09549731 -0.031245727 0.074730694 0.11666309 0.0395306 -0.03942594 0.081867635 -0.06572473
0.042544965 0.01698828 -0.11202239 0.016406665 -0.01990919 -0.048563506 0.060382448 -0.054459795
0.12371292 -0.04675976 -0.08548716 0.052268215 -0.08423497 -0.023530858 -0.08931082 0.098166935
0.09145249 -0.014805557 -0.09806212 -0.12448107 0.0340139 -0.11357924 -0.11185106 -0.0892387
-0.038894776 -0.033617873 0.058796633 0.08281283 0.055883598 -0.08171106 0.09094505 -0.046371814
00000000: 17b5 b63b 0156 63b9 31ad 30bd 44a5 0fbd
00000010: f8ac 7e3d 494f 89bd 0618 973d ecf2 1ebd
00000020: b6f7 efbd a2fb 4ebd d1b5 65bb 6025 e73c
00000030: 1354 8f3d 2a59 35bd aa48 bdbd c60a 193d
00000040: 8ed2 f03d 5e2c bbbb 961e bbbd 0385 0e3d
00000050: c898 bfbd e9ba 1e3d c119 f93c 9cd2 36bd
00000060: f0fe d5bd 8158 f2bd 956a 85bc bc27 1dbd
00000070: 24cb f73d 7bcf cfbd 8877 45bd d05d 583d
00000080: 3d35 b03d 50ed 833b 8da4 043d cc45 9fbd
00000090: 77cc 293d c799 233d ad60 6f3d dc38 c13d
000000a0: 3eb8 b3bd 48a8 c1bd 3e92 873d a537 633d
000000b0: da07 4d3d 8f59 82bd 7096 ccbc ddd9 95bd
000000c0: 27e8 7bbd 2564 e23d 913e 633c a542 e4bb
000000d0: f84c fcbd 79b4 fcbc aa45 94bc 0d0c 82bd
000000e0: 2a6c a03d b6cb 9ebd 29b4 15bc b5b4 863d
000000f0: ef7c 9fbd a448 ac3d 06c1 6bbc 2be5 9e3d
00000100: ab36 893d 0980 9bbd ec4a 58bd 13aa 6e3d
00000110: ea21 80bc ffba fabd ecbc d73d fe58 b7bd
00000120: 591e 833c 9121 abbd 68cf 6c3d 9916 993d
00000130: 100f d73d f33b afbd dc21 73bd 52b9 c23d
00000140: 4843 fb3b 6a6f b2bd 5086 85bb 6dea bcbd
00000150: ea83 803d 26ec 893d a399 ecbd a98d cd3c
00000160: eea6 b53d a7f6 983d 6f0e b1bd cab9 03be
00000170: 1115 983d b610 70bd 8f3a e23d 477e cf3d
00000180: 34ce c0bd 79ec b5bd 4019 853d e53e 08be
00000190: 3d61 b0bc f286 743d 97af 96bd 0df6 813d
000001a0: 5acd 9fbd dbdf 293c a833 d33d a92a 203b
000001b0: aafc 57bd 9e2e bebd bd29 8a3d 434d 3dbd
000001c0: 2966 62ba 307a de3d 413a 3c3d 8516 823c
000001d0: cb3a cb3d ec0f 833b f10f 3fbb 701e 8ebd
000001e0: ebc2 b8bd 9590 c8bd 7fee b93d 8136 683d
000001f0: b020 aebd c20f 8d3d c321 ab3d 48ae df3d
00000200: 99bb bbbd 52f8 c5bd 1dc0 51bc 3830 f63d
00000210: fd92 e5bc 619c 033e 705c 723c 9200 aebd
00000220: c73a b0bb b026 05bd a8ed 933d 9619 043e
00000230: 2272 a1bd f529 b23d 9496 0cbd 7b59 6e3d
00000240: 1080 0ebd 15c6 18bd 6f57 de3b 2f6e fbbd
00000250: 80e1 64bd 6e0e 543d a902 4cbd e1c8 be3d
00000260: 1218 9a3d 2ce7 d03d 92bf 77bd df46 14bc
00000270: cea9 ae3d e1e4 f53d 65e9 49bd 47bf 223d
00000280: 38e1 a73d 34d0 55bd c86e 9e3d bb46 1dbd
00000290: 46b4 023b dacf 38bd 2af8 ef3d 74ee 83bd
000002a0: 2dec ccba 14ce c63d dd0a 2d3c 8b7e b5bd
000002b0: 9ad2 ce3d 0476 a73d b45e 0bbd 5528 efbd
000002c0: fea7 183c f752 c5bd 0381 93bc 7494 c2bd
000002d0: 540f 003e f11a ccbd e0a0 903d 7f4e 083d
000002e0: 242d cd3b d888 18bd 2cb7 52bc 4b07 83bb
000002f0: 72bb 84bb 9d22 3b3c 9ae3 57bd c870 c33d
00000300: e5bf c5bd 7772 763d 7f10 cb3d 79fe 37bb
00000310: 37d2 e5bd ce1a 00be 2e90 3b3d e999 d5bd
00000320: f6bb 4bbd 14da e93d 1fcf 58bd a68e bdbd
00000330: f4ba f1bd e8d8 743d 440d 4bbd d147 c03d
00000340: 086b 95bd 9af3 253b 1a95 cdbd 9024 e9bd
00000350: f11f 2e3d 687b 96bd 63c2 b4bc c0b3 a83d
00000360: 1894 c3bd 0af7 ffbc 680c 993d 0fed ee3d
00000370: d7ea 213d 187d 21bd 38aa a73d b09a 86bd
00000380: a143 2e3d 012b 8b3c ff6b e5bd 4567 863c
00000390: 9918 a3bc 87ea 46bd 9653 773d 3c11 5fbd
000003a0: 335d fd3d 2987 3fbd e413 afbd 3217 563d
000003b0: 6283 acbd c9c3 c0bc 97e8 b6bd bf0b c93d
000003c0: 714b bb3d 0293 72bc cbd4 c8bd eeef febd
000003d0: 2952 0b3d 3c9c e8bd 2b12 e5bd c8c2 b6bd
000003e0: 2150 1fbd e5b2 09bd bdd4 703d c699 a93d
000003f0: 33e6 643d 2158 a7bd 6641 ba3d 5ff0 3dbd

_func._diffusion._model.2.bias f4 [48]
0.025848633 -0.11141858 -0.027345175 -0.090224646 -0.07837789 0.11500707 0.030201858 -0.079010665
0.046377018 0.07971079 -0.052197367 -0.105334684 -0.095247775 -0.02670632 0.11144915 -0.036647096
0.06904093 -0.00834739 0.016225372 -0.030836374 -0.008708286 0.008030626 0.106978945 0.025391487
-0.05268223 -0.09423222 -0.027170634 0.07815259 0.06678453 -0.047452148 0.031034136 -0.050298225
0.014542981 -0.12786612 -0.100167066 0.0104776425 0.045603152 -0.012645804 -0.029448735 0.02123072
0.034056492 0.003927685 0.12453313 -0.03546005 0.07848446 0.12705842 -0.11726822 0.012977517
00000000: 83c0 d33c 6d2f e4bd fd02 e0bc b3c7 b8bd
00000010: 9684 a0bd d488 eb3d e369 f73c 58d0 a1bd
00000020: d4f5 3d3d 693f a33d e8cc 55bd b6b9 d7bd
00000030: 4411 c3bd 36c7 dabc 743f e43d 441b 16bd
00000040: 5565 8d3d 7ec3 08bc 12eb 843c 909c fcbc
00000050: 33ad 0ebc e392 033c c717 db3d cf01 d03c
00000060: 52c9 57bd d2fc c0bd f394 debc 770e a03d
00000070: 54c6 883d 2f5d 42bd 4d3b fe3c 8305 4ebd
00000080: af45 6e3c 56ef 02be 6424 cdbd 6baa 2b3c
00000090: 5fca 3a3d 5930 4fbc 793e f1bc 0cec ad3c
000000a0: d27e 0b3d cfb3 803b 3a0b ff3d 8f3e 11bd
000000b0: 76bc a03d 9a1b 023e 522a f0bd a79f 543c

_readout.weight f4 [1, 16]
0.2329744 -0.23430488 -0.06877862 -0.07494136 -0.17905353 -0.020501014 0.14477555 0.1362879
-0.25252292 -0.18891911 0.015819376 -0.12805012 -0.08422652 0.122454956 -0.105109915 -0.026645945
00000000: d790 6e3e 9eed 6fbe cedb 8cbd db7a 99bd
00000010: cf59 37be bef1 a7bc 0b40 143e 0e8f 0b3e
00000020: af4a 81be 0374 41be a397 813c 921f 03be
00000030: f47e acbd aac9 fa3d de43 d7bd 9948 dabc
