latent_sde_model.pt (torch, 432469 bytes, 36 tensors)

pz0_mean f4 [1, 4]
000000 37 a5 e6 bf b7 6d 7a 3f d7 7e cf be df 9f bc 3e
       -1.801917 0.9782366 -0.4052646 0.36840722

pz0_logstd f4 [1, 4]
000000 02 ce c9 bf 35 b1 01 c0 c7 d8 b5 bf 7a 82 0c c0
       -1.5765994 -2.0264409 -1.420678 -2.1954637

encoder.gru.weight_ih_l0 f4 [384, 3]
000000 1b 5e a6 be 5d ac 11 bd a8 39 4a 3e fc b3 3b 3d
       -0.32493672 -0.03556477 0.19748557 0.045825943
000010 6d 7e 15 3e b6 12 6b 3d 32 ef fe bd a9 6e 05 3c
       0.14599009 0.05739089 -0.12447967 0.008144059
000020 5d 37 28 be f3 cf ba 3e bf 3a e8 3e 56 20 e8 3d
       -0.1642737 0.36486778 0.4535732 0.113342926
000030 8c 88 1d 3e b9 57 5b bd 7c 21 09 3e 87 f6 9c bd
       0.1538412 -0.053550456 0.1339168 -0.07664209
000040 e6 68 7b be 27 bf 9c bc 7c cc 91 bd cf b9 49 3d
       -0.24551734 -0.019134117 -0.071190804 0.049249467
000050 fb 15 61 3e 2d 9d cf 3d 5f 65 2e 3e dc 63 7c 3d
       0.21981041 0.10137401 0.17030858 0.06161867
000060 54 33 40 be ed d6 10 be 90 13 a0 3b f8 7c 3e bb
       -0.1876958 -0.14144488 0.0048851445 -0.0029066186
000070 83 2b 4f 3e 8a c4 ac 3d 4f a8 fd 3e 4b 66 7f 3e
       0.20231442 0.08435924 0.49542472 0.24941365
000080 55 7b 8b bc 5c 2d 83 bd 6b d9 5f 3e 60 5a fe 3d
       -0.017026583 -0.06405136 0.21860282 0.124195814
000090 20 52 6c 3c c3 7f 02 be 06 bd 1c 3d 08 82 1b 3f
       0.014423877 -0.1274405 0.038266204 0.60745287
0000a0 16 6d b0 3d ff 0e 43 be ab 25 f4 bd c9 bf f0 3d
       0.086145565 -0.1904869 -0.11921247 0.1175533
0000b0 f6 d8 fb 3c be 4a 0a be 54 69 2a 3d df d4 dc ba
       0.030743103 -0.13505074 0.041604355 -0.0016848108
0000c0 27 37 0a bd eb ea 7e bb 2a 9d ea 3d 75 50 87 be
       -0.033744004 -0.0038897346 0.11455758 -0.2642857
0000d0 7b e4 de bd f7 67 b8 3d 37 61 7c be d1 bb ab bd
       -0.10883423 0.09004205 -0.2464646 -0.083854325
0000e0 f4 0a 60 3e 64 e0 ad bd e3 71 26 3e 3b 7c a1 3d
       0.21879178 -0.08490065 0.16254382 0.07885023
0000f0 b6 15 5a bc 74 09 25 3e 17 5e bf 3c 16 a3 23 3e
       -0.01331084 0.16116887 0.023360295 0.15980181
000100 ec 94 a3 3e 4b c0 ba bd 7b 30 6f 3d 24 76 a0 3c
       0.31949556 -0.09118708 0.058395844 0.019587584
000110 63 98 d3 bb a8 7d 83 be f1 b5 4e be 05 e9 0c 3b
       -0.006457375 -0.25681806 -0.20186593 0.0021501195
000120 e3 cd af be 66 6f 50 be cd cd 54 3e c6 c7 c1 bd
       -0.34336767 -0.20354995 0.20781632 -0.09461932
000130 49 cb a2 3e 49 6a e3 3c 2f 95 23 bd b1 88 15 be
       0.3179572 0.027760642 -0.039937194 -0.14602925
000140 45 39 ae bd 12 3c 82 be 50 50 9c be 86 9b e3 bc
       -0.08507017 -0.25436455 -0.30530024 -0.02778412
000150 6e 77 8b be 80 23 39 3d 23 b1 9c bc 4a aa ec bd
       -0.27239555 0.04519987 -0.019127434 -0.115559176
000160 2c ae a7 3d 57 00 f5 bd 58 23 e9 3d 81 49 17 3e
       0.081875175 -0.119629554 0.113836944 0.14774133
000170 e7 37 14 3b 85 a5 18 3e 65 15 ed 3b 14 3d 4e bd
       0.0022616328 0.1490689 0.0072352164 -0.050351217
000180 db 48 c0 3b 86 2c 75 be 23 ae ee 3d 04 52 62 be
       0.00586806 -0.23942766 0.11654308 -0.22101599
000190 74 6a fd bd 9e 71 a3 bb 6f 23 1c be 31 d8 0a be
       -0.1237382 -0.0049879095 -0.15247892 -0.13559033
0001a0 72 7b ae 3d 96 d1 3a 3e bb 09 cb 3e 9a cf 9c 3d
       0.08519639 0.18244013 0.3965586 0.07656784
0001b0 12 18 22 bd 1a dd 20 be 55 dc bd bc 7d d3 1c be
       -0.039573736 -0.15709344 -0.023176352 -0.15315051
0001c0 41 22 ee bc 51 4d c2 bd c8 2d a9 bd 2c 38 13 3b
       -0.029069068 -0.09487403 -0.08260685 0.00224639
0001d0 9d 84 20 3e 8c f7 3a be 36 30 90 bd 27 27 0d 3e
       0.15675588 -0.18258494 -0.070404455 0.13784467
0001e0 ae 4e 6d 3e 0e 66 9a 3e e6 8d a0 3d a8 00 20 3d
       0.23174545 0.30155987 0.07839565 0.039063126
0001f0 45 97 48 3d 0f 1b d0 bc 35 90 c5 bd 9a 0d c0 be
       0.048972387 -0.025403528 -0.09646646 -0.37510377
000200 de 68 59 bd 91 fc 17 be 36 dc e3 bd a6 a8 27 3e
       -0.053078525 -0.1484244 -0.11125986 0.16372928
000210 30 f6 2e 3e 71 d8 a8 3d 49 c2 57 3e 79 2e ab 3b
       0.170861 0.08244408 0.21070208 0.005224046
000220 5f 2a 21 be 62 53 a8 bd ad 27 7f bc 89 fb 58 bd
       -0.1573882 -0.08219029 -0.015573424 -0.052974258
000230 58 b2 b7 bc c4 e3 c3 bc 9c cc b8 3c 87 03 08 3e
       -0.022423908 -0.023912318 0.022558503 0.13282596
000240 65 b5 7b bd 7a a5 f9 bd 6c ea 14 be 41 6a a7 bd
       -0.06145229 -0.12189765 -0.1454255 -0.08174563
000250 a2 a5 b1 3e e5 e2 85 bc 10 ea 76 be 8f 3b bc 3d
       0.3469668 -0.016343543 -0.24112725 0.091910474
000260 ed 64 e4 3d b5 d3 b6 bb a3 dc 04 3d 0a 64 00 3e
       0.111520626 -0.0055794367 0.032436978 0.12538162
000270 e9 98 27 bf 0b 40 b2 bd da 00 a1 3e d6 f9 53 be
       -0.654677 -0.087036215 0.31445962 -0.20700774
000280 60 10 d8 bd b3 8c 9d 3d 9c b7 0a bd 57 ce 87 3c
       -0.10549998 0.07692852 -0.03386651 0.016577883
000290 92 de 05 3d 89 96 83 bd 60 b2 e5 bd e0 d3 88 3e
       0.032682963 -0.06425197 -0.11215663 0.26724148
0002a0 f9 db 3e 3e 4d d7 c1 3e 3c e7 8a 3e 88 a4 81 be
       0.186386 0.37859574 0.27129543 -0.2532084
0002b0 f3 45 57 be 11 2d 43 be bc 18 9e be 5a e2 90 be
       -0.21022777 -0.1906016 -0.30878246 -0.28297693
0002c0 b3 8b 83 bd fa 6b d0 bb c4 90 58 3d 3b 53 28 3e
       -0.0642313 -0.006360528 0.052872434 0.16438
0002d0 6c 50 d0 be db ef 8f bd b7 13 f9 3d e0 60 35 3d
       -0.40686357 -0.07028171 0.121619634 0.04428184
0002e0 38 95 84 ba 4f 0f 8b 3c e3 88 bf bd 68 06 a6 bd
       -0.0010115271 0.016975073 -0.09352281 -0.08106691
0002f0 b5 46 91 bc 74 71 9c bd 3f a6 1d 3d 9a e3 9e bd
       -0.017733911 -0.07638827 0.038488623 -0.07758255
000300 ea bb 1b 3e 2e cf 1a be 98 84 5e 3e 7b 5b db be
       0.15208402 -0.15118095 0.21730268 -0.42843232
000310 16 ba 96 be 3b 4c 96 3b c1 05 7c bc 1e d2 01 bd
       -0.29438847 0.004586724 -0.015382231 -0.031694524
000320 47 ab bf bd 40 2a 84 bd ff 0d 6e 3e a2 a8 8d 3b
       -0.093588404 -0.06453371 0.23247527 0.004323081
000330 22 3b b2 bd 58 9b 82 3e 22 29 5f bd d4 d5 9e be
       -0.08702685 0.25509143 -0.054482587 -0.31022513
000340 83 8d 97 be 77 b1 89 3d 1e b1 a1 be 8b 86 2e be
       -0.29600152 0.06723302 -0.31580442 -0.17043512
000350 3f 5a ab 3d 7c 85 90 3d d9 4d 39 be 0a 06 fc 3c
       0.083668225 0.0705671 -0.18096103 0.030764598
000360 0c a6 20 be 58 7e 85 be 56 e0 7b 3e 33 70 a7 bd
       -0.15688342 -0.26072955 0.24597296 -0.08175697
000370 1a d7 d4 3e 52 d4 5c 3c 16 74 31 3e be 3c f5 3d
       0.4157036 0.0134783555 0.1732944 0.11974476
000380 f7 60 fd bc 37 99 24 be c8 92 e5 bd e5 3c 94 bc
       -0.030930026 -0.16074072 -0.11209637 -0.018095443
000390 3e b3 99 3d 3b 03 d1 3d 38 47 a9 bd 1a 5f 1d bf
       0.07504891 0.10205694 -0.08265537 -0.6147324
0003a0 e0 d1 3f be 0c f4 57 3b 0b a0 8b be c6 14 75 3e
       -0.18732405 0.003295186 -0.2727054 0.23933706
0003b0 f0 f6 da 3d d1 42 dd bd 9e ba 32 3e b6 fb 8c 3d
       0.10691631 -0.1080376 0.17454001 0.068839476
0003c0 c1 be a7 bd 86 c5 6a bd 6a 8b 77 be 93 51 72 be
       -0.0819068 -0.05731728 -0.24174276 -0.2366393
0003d0 84 c7 b2 be 12 c0 d2 3d 2a be e3 bc 92 0d 21 3e
       -0.34917843 0.10290541 -0.027800638 0.15727833
0003e0 a5 3c 0c 3e 50 c2 24 be 2b 6a 92 be 55 41 1b 3e
       0.13695009 -0.1608975 -0.28596625 0.15161641
0003f0 99 7b 0e be 41 58 8d be 50 f2 12 3d 9f ab 10 be
       -0.13914336 -0.27606395 0.03587562 -0.14127968

encoder.gru.weight_hh_l0 f4 [384, 128]
000000 9a 9b 17 be c8 a9 aa bd ac 92 fa bd 5e c8 11 3c
       -0.14805451 -0.083331645 -0.12235007 0.008897869
000010 77 f1 0c be 77 d3 44 bd 37 ef 54 3d 8e a5 d7 3d
       -0.13763987 -0.04805323 0.051985946 0.10529624
000020 c1 c2 08 3e 75 c0 94 3d 28 45 7b 3b cb 6d 48 be
       0.13355543 0.07263271 0.003834078 -0.19573133
000030 2c c0 72 be 83 ad 19 be 64 8b b7 bd 61 38 38 bd
       -0.2370612 -0.15007596 -0.089621335 -0.044975642
000040 fa d0 7a bd 4c 62 a9 be f6 bf fe bc 09 12 c3 bd
       -0.06123445 -0.33082807 -0.031097393 -0.09524924
000050 16 30 47 bd 43 bd b4 3d a0 66 5a be 6b 11 37 3e
       -0.048629843 0.08825161 -0.21328211 0.17877738
000060 d0 af 01 be 66 8f 4b 3c b7 fe 23 be 71 f0 3b be
       -0.12664723 0.012424326 -0.16015135 -0.1835344
000070 1b 66 c1 3e 8d c1 69 be 47 50 43 3d f8 5f be 3d
       0.37773213 -0.2282774 0.04768398 0.09295648
000080 14 99 cb 3d bc 0e 34 bd d7 aa 88 3e 78 d3 16 3e
       0.09941307 -0.043959364 0.2669284 0.14729106
000090 61 98 28 3e 46 78 e2 3d 4f 96 f5 3d 72 68 02 3e
       0.16464378 0.110580966 0.1199156 0.12735155
0000a0 eb bb a3 bd d0 db 23 3d 73 63 cb bc 00 69 a7 bd
       -0.07994827 0.04000455 -0.024827695 -0.08174324
0000b0 9a 19 59 bc 2e ba a5 bd 6a d9 41 be e7 5a 6b be
       -0.013250733 -0.080921516 -0.18930593 -0.22983895
0000c0 8e 37 bf 3d 8e 44 4a be e5 11 58 3e e4 b3 0a 3d
       0.09336768 -0.19752714 0.21100576 0.033862963
0000d0 68 1b 04 be f3 eb 7c bc 8a 19 de bd e7 50 f8 bd
       -0.1290108 -0.015437114 -0.10844715 -0.12124806
0000e0 f5 77 51 bd ad 2e 35 be 23 34 89 be ba af d9 bd
       -0.05113979 -0.17693587 -0.2679759 -0.1062922
0000f0 56 a8 03 3c 77 07 17 3c f9 40 10 3d cb 74 90 bc
       0.00803574 0.009218088 0.035218213 -0.017633816
000100 78 83 0a 3e 1d 94 9c 3d be 7f 79 3e db 7f 0b be
       0.13526714 0.07645438 0.24365136 -0.13622992
000110 02 fc f8 bd 32 40 dd 3d a9 6e 3d be 41 aa 96 bc
       -0.12157442 0.1080326 -0.18499245 -0.01839173
000120 5a a7 a8 be 32 0a e5 bc 80 b5 21 3e 51 87 8c bd
       -0.3294018 -0.027958963 0.15791893 -0.06861747
000130 2b dd 81 bc d3 b1 88 3e a6 4c 2d 3e a1 80 14 be
       -0.015852531 0.2669817 0.1692377 -0.14502193
000140 ba 69 50 3d 15 94 e0 bd 73 5e dd 3d b1 a9 2c be
       0.05088208 -0.109657444 0.108090304 -0.16861607
000150 c5 36 42 be 6f 4f 9b bb d9 fe 8e 3d bd c7 b7 bd
       -0.18966205 -0.004739694 0.06982202 -0.08973644
000160 73 e1 bc bd 40 1b 10 be 70 b2 62 3e bf f3 7b bd
       -0.092226885 -0.14072895 0.22138381 -0.06151175
000170 c3 18 fe 3d ef 2e 7b bb 2e 8a 79 be e1 11 39 be
       0.12407067 -0.0038327535 -0.24369118 -0.18073227
000180 2d fa a2 be 12 d1 aa bd e0 cf ad 3d ca 8e 30 3d
       -0.31831494 -0.08340658 0.08486915 0.043104924
000190 27 e5 89 3d c6 4b 6d be d0 2f 3b 3e 62 42 0a 3e
       0.067331605 -0.23173437 0.18279958 0.13501886
0001a0 62 0c fa 3d fb bf 3c be 62 45 2c 3e 80 05 2a 3c
       0.12209393 -0.1843261 0.16823342 0.010377288
0001b0 af 05 31 be 03 33 39 be d0 0e 8d bd ab a3 a8 3d
       -0.17287324 -0.18085866 -0.06887591 0.08234342
0001c0 85 7a 36 be 34 07 7a bd 2f ba 02 3c 83 cb d7 bd
       -0.17820175 -0.061042026 0.00797896 -0.10536864
0001d0 fa e5 37 be 02 df a8 3d 1d 58 81 3e 9e ef 5c 3e
       -0.17958823 0.0824566 0.25262538 0.21575782
0001e0 0c 7a d7 bd c2 b2 1b be b3 04 08 3e 07 dd 2f be
       -0.105213255 -0.1520491 0.13283043 -0.17174159
0001f0 a6 5d 26 3d 65 b4 35 3c 59 5e 9c 3e bf 56 06 bd
       0.040616654 0.011090373 0.30540732 -0.03279757
000200 e3 c5 84 bd 98 64 76 bc 41 bb e4 3d 8a c9 97 bd
       -0.064830564 -0.015038632 0.11168528 -0.074114874
000210 2e 85 66 3d c2 40 0d 3e 65 8d b5 3c d0 ef 01 3d
       0.056279354 0.13794234 0.022162149 0.031722844
000220 17 cd 90 3d 29 55 89 3d 63 2a 06 be 85 45 19 3e
       0.07070368 0.06705696 -0.13102107 0.14967926
000230 9d 31 fa bd 96 4f 78 3d cc 21 b7 bc d1 79 c5 bd
       -0.12216494 0.060622774 -0.022354983 -0.09642375
000240 8b 1a 1d 3e 83 6c 64 bd 12 b9 3f 3d 96 49 59 bd
       0.15342157 -0.055767547 0.046807356 -0.053048693
000250 cc 87 ad bc e8 b1 5b bd 32 cd 2a be c5 33 4a bb
       -0.021182917 -0.05363646 -0.16679838 -0.003085361
000260 a8 df 19 bd 7b b8 fb bc 12 aa 5d bd 6e 7a 8f b9
       -0.03756681 -0.030727616 -0.05411727 -0.00027366303
000270 35 42 ec 3d 1c 16 a8 bb e6 0c e6 bd dd 3f 90 3d
       0.115360655 -0.005129589 -0.11232929 0.07043431
000280 34 4a 0b 3d e9 27 8b 3d 25 bb fe bc d6 c6 80 3d
       0.034006312 0.06794722 -0.031095097 0.06287925
000290 a6 64 61 3e a4 d4 01 3e d3 51 32 3e 2b 26 06 3e
       0.2201105 0.12678772 0.17414026 0.13100497
0002a0 1b fd 90 3d 2f 5c a2 bd 10 91 fa bd 0c ac 85 bc
       0.07079526 -0.07927739 -0.122347 -0.01631739
0002b0 02 e7 3b be 2e ec 65 ba a8 e7 0c be a7 39 3e 3b
       -0.18349841 -0.000877085 -0.13760245 0.0029026063
0002c0 ba 90 0a 3d 02 95 9c bd d2 c9 6d bc c5 a0 1c be
       0.03382943 -0.076456085 -0.01451345 -0.15295704
0002d0 e0 f6 1e 3d 54 33 1c be 84 80 76 3c 9c a8 a8 3c
       0.038809657 -0.15253955 0.015045289 0.020588212
0002e0 85 6e 83 be 7e d1 82 3e 39 89 43 3d 36 56 7e 3d
       -0.25670257 0.25550455 0.047738288 0.062093936
0002f0 c6 50 00 3e 07 24 4f be 97 96 60 bd 3d 53 f1 bc
       0.12530813 -0.20228587 -0.054831114 -0.029458636
000300 fe de 80 bc 20 5c 03 3e ba d0 98 3d ee c2 a2 bd
       -0.015731331 0.12828112 0.074616864 -0.07947336
000310 e3 06 90 bd 2a 21 24 3d f7 51 5c bc a6 d9 a4 3d
       -0.070325635 0.04007069 -0.013447276 0.08049326
000320 fc f2 ed bc 3f 8c 7c bd c3 db c2 3d a6 da 59 be
       -0.029046528 -0.061657187 0.095145725 -0.21274814
000330 a1 15 b5 bb f1 6f 15 3e 3b a0 3f 3e ef c2 bf bd
       -0.00552626 0.14593484 0.18713467 -0.093633525
000340 4c 6c d9 3d 0c 3d d4 bd cb 90 49 bd b4 e8 7f bd
       0.10616359 -0.10363206 -0.04921035 -0.062477782
000350 e4 cb 12 bc 59 22 ea bc 63 11 7a 3d a9 ab 50 bd
       -0.008959744 -0.028580831 0.061051738 -0.050944958
000360 ad 34 76 bc 2b 76 d0 bc 93 68 c0 bd 14 09 b3 bc
       -0.015027207 -0.025446972 -0.09394946 -0.021854915
000370 ce 21 39 be 7b f4 9e 3e b8 33 43 be ba e5 8b 3c
       -0.18079302 0.310459 -0.19062698 0.017077316
000380 8f 57 4a bd 48 37 98 3c 2d 78 65 3d 0a c3 a8 bd
       -0.04939991 0.018581048 0.05602281 -0.08240326
000390 09 5b 6c 3d 45 d0 3d bc 9c 5b 5a 3e 42 15 75 bd
       0.057704005 -0.0115853 0.21324009 -0.059834726
0003a0 5b 69 14 3e 59 e0 57 3d 35 9a 11 3e 5d d1 0f 3e
       0.14493315 0.05270419 0.14218982 0.1404471
0003b0 a1 c5 84 bd fc 1d 2e bd c9 ce 2b be 88 cd 14 3e
       -0.06483007 -0.042509064 -0.16778101 0.14531529
0003c0 fc a3 d0 3d c9 5b ed bd 1c 11 40 3d ae 06 db bd
       0.101875275 -0.11589772 0.046891317 -0.106946334
0003d0 2e a4 a0 bc a5 ed 2a 3d 94 0d 89 3e d4 94 ec 3d
       -0.019609537 0.04173054 0.26768172 0.11551824
0003e0 aa fc 99 3c a6 49 0f be 0d 7d de bc 0d 3a 6a 3e
       0.018797237 -0.13992938 -0.027159238 0.22873707
0003f0 bb bf 05 3e cb 8e 30 3d 6c 32 4d 3e 21 b1 44 3d
       0.1306142 0.043104928 0.20038766 0.048020486

encoder.gru.bias_ih_l0 f4 [384]
000000 56 cb 51 bd 93 11 1c be bb 4a 72 3d ac c1 bc 3b
       -0.051219307 -0.15241079 0.0591533 0.005760392
000010 ad e5 1d bd cb c4 02 bd b3 70 36 be e9 9f 51 3e
       -0.038549114 -0.031925958 -0.17816429 0.20471157
000020 8a 54 6f 3c 75 3b 2e 3c 6f f3 00 3d 65 b0 1b 3a
       0.014607558 0.010634293 0.031482156 0.00059390656
000030 3b a4 83 bd d8 71 b4 3d aa 55 62 bd e4 96 37 3d
       -0.06427809 0.088107765 -0.055257477 0.044821635
000040 ce 24 c3 bd d7 d2 20 be d8 9a 0d be 17 a9 8e bd
       -0.09528504 -0.15705429 -0.138286 -0.06965845
000050 7e 78 1b bd 97 62 04 3e b4 26 b5 3c ea 1d 0d bd
       -0.037956707 0.12928234 0.022113182 -0.034452356
000060 95 e1 0f be d6 27 a0 3d 31 85 a8 bd b4 60 96 bd
       -0.14050896 0.07820098 -0.08228529 -0.073426634
000070 e2 f6 99 bd 90 c7 5c bd 50 86 5d 3e c4 b5 05 3d
       -0.07517792 -0.053901255 0.21633267 0.03264405
000080 f2 e9 92 bd 6b b4 c1 bd 09 1d e9 3c c6 35 e3 bc
       -0.07173528 -0.0945824 0.028456228 -0.027735602
000090 ce 16 46 bc 31 6d 03 be 28 38 93 bd f8 a8 e2 bd
       -0.012090398 -0.12834622 -0.07188445 -0.110673845
0000a0 67 1a 12 be ee e1 22 bc 27 d0 01 be 93 63 c9 bd
       -0.14267884 -0.009941561 -0.1267706 -0.098334454
0000b0 20 04 82 3d 62 f6 96 bc d7 8c ea bd 1c 34 41 be
       0.06348443 -0.018428031 -0.11452644 -0.18867534
0000c0 96 40 1e 3d 8d 54 4b be cd 0a ea bc 92 ae 23 be
       0.038635813 -0.19856472 -0.028569603 -0.15984562
0000d0 ab 52 49 be 91 69 d1 bd d2 d8 5a bd 56 fa 08 be
       -0.19660442 -0.10225213 -0.053429432 -0.13376746
0000e0 8b 3f 4d 3d 73 61 cf ba 01 4c ec 3b 61 f6 0e be
       0.050109427 -0.0015821889 0.007211209 -0.13961174
0000f0 8f 56 1b be 75 75 5a be 1a 0b 29 be 6f 83 0c be
       -0.15169738 -0.21333869 -0.16508141 -0.13722013
000100 64 6e 00 be ca ca fc bd a1 0b 99 3d dd da 42 bd
       -0.1254211 -0.123433664 0.07472921 -0.047572006
000110 7e 3b 93 3d 10 93 11 be a9 99 7e bd d8 11 bc bd
       0.071890816 -0.14216256 -0.06215826 -0.09183091
000120 75 2b 73 be ea bf 1c be d9 38 df 3d cc 1b e6 3d
       -0.23747046 -0.15307584 0.10899515 0.112357706
000130 68 5c 3e be 1d 1b 77 bd 46 cc 3b bd 01 33 aa bd
       -0.18589938 -0.06032859 -0.045849107 -0.083105095
000140 cf 7a 81 3d 59 59 17 be 37 84 4e be e3 79 f7 3a
       0.06322252 -0.14780177 -0.20167623 0.001888093
000150 bd 99 f0 bd ef 20 66 bd 2d 54 89 be 79 d3 0f be
       -0.11748073 -0.05618375 -0.26822034 -0.14045514
000160 8a c6 97 bd 24 62 17 be d6 b2 fa 3c 0e ab be bc
       -0.07410915 -0.14783531 0.030602854 -0.023274925
000170 2c 01 13 3e 76 31 ee bd b5 22 38 3e b0 b2 c2 bd
       0.14355916 -0.11630528 0.1798199 -0.09506738
000180 fb 56 1d be 85 43 97 3d 47 d8 2c 3d 63 2e 9a bb
       -0.15365212 0.07385925 0.042198446 -0.0047052368
000190 fe b7 ea bd 1b d3 09 be 61 90 85 be e8 41 88 3d
       -0.11460875 -0.13459437 -0.26086715 0.066531956
0001a0 4f ee 1e bd 4e e4 84 bc 55 86 62 bd ef d3 b0 3d
       -0.038801488 -0.016222145 -0.05530389 0.08634173
0001b0 b7 a0 a3 3d f2 b2 4b bc 3e bf d3 bd 8c a7 aa be
       0.07989638 -0.012432801 -0.10339211 -0.33330953
0001c0 90 38 6f be bc 61 94 bc 60 76 e7 bd 95 f5 91 3d
       -0.2336142 -0.01811301 -0.11301875 0.07126919
0001d0 f4 e5 88 bd 46 61 fd bd 25 a4 ee 3d 6b 22 81 bd
       -0.06684485 -0.12372069 0.11652402 -0.06305393
0001e0 1d ff 0a 3d 7d ed b8 3d 26 2f 18 bc ac 41 58 3d
       0.0339347 0.09029672 -0.009288585 0.052797005
0001f0 f8 21 be bd ec 76 c4 bd 32 a0 4f be 33 37 9e bd
       -0.09283823 -0.09592995 -0.20275953 -0.07725372
000200 05 4f 82 3e 83 e5 8e 3e f1 3b 01 3e 37 66 f0 3e
       0.25450912 0.2790948 0.12620522 0.46952984
000210 08 a1 5a 3e 11 f4 37 bd 94 36 2a 3e 41 8d ad bc
       0.21350491 -0.044910494 0.16622382 -0.02118552
000220 c9 17 e9 3d 22 fd 58 3d 25 b4 c4 be b7 e7 82 3e
       0.1138149 0.05297578 -0.3841869 0.2556741
000230 e3 11 bf 3c 06 6c 33 bd b6 e4 ac 3e 68 a8 8a 3e
       0.023323959 -0.04380419 0.33768243 0.2708161
000240 cb 38 7b 3e 7c 9d d4 3d 93 8b d2 bb fa 85 3d 3c
       0.24533384 0.103816 -0.00642533 0.011567587
000250 92 0c 14 3e e5 35 24 3e 4c 50 9b 3e 77 d5 5e 3d
       0.1445792 0.16036184 0.303347 0.054402795
000260 f8 b0 8c 3d 99 d5 75 3e e9 76 84 be 12 1f 8c 3e
       0.068696916 0.24007262 -0.2587197 0.27367455
000270 bc 5a 91 3d b2 c7 6b 3e 87 43 68 3e 1e 94 64 bd
       0.07097384 0.23025396 0.2268201 -0.055805318
000280 ca 4f 9f 3e 4a 09 7e be 7e c9 41 3e fb 37 fc 3d
       0.31115562 -0.24808231 0.1892452 0.12315365
000290 9b b9 0c 3e 0d 05 92 bc f2 1c a7 3c e8 0c b5 3d
       0.13742678 -0.017824674 0.020399544 0.08840352
0002a0 96 61 73 3e 0d ad 92 3e 46 6e 4f be 25 19 04 3d
       0.23767695 0.28647652 -0.2025691 0.032250542
0002b0 9e 22 2c 3f 28 5a e1 3d 9a 39 82 3d 47 95 93 3e
       0.6724032 0.11003524 0.06358643 0.28824827
0002c0 95 b3 6a be 19 33 be 3e c3 a9 8a 3d 73 28 30 3e
       -0.22920068 0.3714836 0.06770661 0.1720293
0002d0 91 f6 dd bd 96 8d 11 3e 4b 26 21 3e f5 25 89 3e
       -0.108380444 0.14214167 0.15737264 0.2678677
0002e0 af 6d 36 3e 58 c6 2e 3e 42 65 3a 3d b5 20 49 be
       0.17815278 0.1706785 0.045506723 -0.19641383
0002f0 82 ee 26 bd 9f 64 34 3e af a3 36 3e a3 26 07 3d
       -0.040754803 0.17616509 0.17835878 0.03299583
000300 d2 6d c5 3d 34 ce be bd c1 ec fa 3d 4e 12 87 3e
       0.09640087 -0.09316674 0.122521885 0.26381153
000310 a1 4d 2a 3e ab 13 8a 3e 77 65 0a bd d7 58 8a bd
       0.16631176 0.2696813 -0.03378817 -0.06755226
000320 e8 d7 40 bd 00 70 35 3e 23 2a 6d be 40 96 34 3c
       -0.047080904 0.17718506 -0.23160605 0.0110221505
000330 07 fd 13 3e 08 6d ea 3d 6d 30 76 3e 66 c4 bc 3d
       0.14451991 0.11446577 0.2404191 0.092171475
000340 32 95 38 3e 41 0f 74 bd ba 74 e5 bc 0e e6 02 bc
       0.18025663 -0.05958486 -0.028009761 -0.00798942
000350 35 b0 e4 bd 33 43 d6 3c 71 67 ea 3d a3 c2 05 be
       -0.11166421 0.02615509 0.11445511 -0.1306253
000360 49 f3 96 be 7e 81 01 bf 6a 97 18 3d c4 cc 78 3e
       -0.29482487 -0.50588214 0.037253775 0.24296862
000370 2c a6 46 3d b6 f0 e6 3d 5b 6a 94 3d 00 8b c7 3d
       0.048498318 0.11276381 0.07246848 0.09743309
000380 1a 86 5b 3e 7a cd a8 3d 63 6d 8f 3e 69 0b a0 be
       0.21437874 0.082423165 0.28013143 -0.31258705
000390 17 d9 da bd 7e 9e a1 be 93 f4 68 bc 00 a7 ff bd
       -0.10685938 -0.31566232 -0.014218467 -0.124830246
0003a0 55 de 32 3e ab 63 30 3d da 54 3c be 3e 58 c7 3d
       0.17467625 0.0430638 -0.18391743 0.09733628
0003b0 8c 09 16 3d c2 83 3e be 66 75 72 3e 6f 8b 86 3c
       0.0366302 -0.18604949 0.23677596 0.016423909
0003c0 e2 5f cd bd f5 37 b5 3d a9 8e 16 3d 62 c4 2e bd
       -0.10028054 0.088485636 0.036757145 -0.042667754
0003d0 4d 1a c0 3e 68 6b b7 3c 76 d6 0b 3e 08 3c 83 3d
       0.37520066 0.022390082 0.13656029 0.064079344
0003e0 81 da 35 be 02 f5 75 3e 47 32 ee 3c e1 b1 c0 3e
       -0.17759134 0.24019244 0.029076708 0.3763571
0003f0 9f bd 50 3e c8 32 5a 3d cd 51 5f be 5d 7c d2 bc
       0.20384835 0.053271085 -0.21808548 -0.025694067

encoder.gru.bias_hh_l0 f4 [384]
000000 f5 56 d5 bd 9a 2e ee bd ae 98 34 3e 92 a4 1a bd
       -0.10416976 -0.11629982 0.17636368 -0.037754603
000010 17 a4 c3 bd 95 4e 48 bb eb 87 1c bd a2 7f 96 3d
       -0.09552782 -0.0030564417 -0.03821556 0.07348563
000020 4a 75 62 3c 33 b4 39 3c a9 7c 4c bd 1a cc 9e bc
       0.013821909 0.011334467 -0.049923573 -0.019384433
000030 27 2f 5c 3c f5 13 c2 3d 21 50 fb bd 2b 30 32 3e
       0.013438976 0.09476463 -0.12271143 0.17401187
000040 87 8a 12 be 87 2c 49 be 52 68 06 be bf 38 d5 bc
       -0.14310656 -0.19645892 -0.13125733 -0.026028035
000050 72 5e 51 bd 05 93 05 3e 67 d1 06 3e 0e 37 ca bc
       -0.05111546 0.13044365 0.13165818 -0.024684455
000060 83 cb a3 bd 5d 4a e4 3c 72 45 3e bd 36 2e 89 bd
       -0.07997801 0.02786749 -0.046452947 -0.06698267
000070 24 4d 4d bb 08 24 86 bd 7f 38 17 3e 90 92 8c 3c
       -0.0031326497 -0.06549841 0.14767645 0.01715973
000080 90 a9 0f bc 2b 11 52 bd 59 6c 97 3d 33 48 13 bd
       -0.008768454 -0.051285904 0.073937126 -0.035957526
000090 71 d3 c8 3d 96 c0 08 be a2 8f 27 be d5 ed 0e be
       0.09805954 -0.13354716 -0.16363385 -0.13957913
0000a0 39 ee 2a bd e1 5f 69 3c c6 be 09 be e6 df 20 be
       -0.041731093 0.014244051 -0.1345168 -0.1571041
0000b0 14 8c 87 3d 8e ba 23 be 8f c4 f4 bd b5 f0 1e be
       0.06618515 -0.15989134 -0.11951553 -0.1552151
0000c0 7c 4a d6 bd db 74 02 be 93 40 43 bd eb 29 2c be
       -0.104634255 -0.1273989 -0.047669005 -0.16812865
0000d0 f8 63 19 be 2a fa 13 be 36 82 59 ba ea a8 d5 bd
       -0.14979541 -0.14450899 -0.0008297296 -0.104326084
0000e0 31 e1 0b 3e 8d c8 9f bd d0 41 c7 bd a3 c0 d6 bd
       0.13660122 -0.07801924 -0.097293496 -0.10485961
0000f0 d9 e2 7c bd a2 f9 2c be 65 bd 07 be 14 eb 0f be
       -0.061739776 -0.16892102 -0.13255842 -0.14054519
000100 d3 e5 61 bc d4 5a 61 bb a5 dc 93 bc ed 31 b6 3b
       -0.0137877045 -0.0034386413 -0.018049547 0.005560151
000110 c2 87 2c 3e ba 48 9c bd 0c 2f d8 bd 70 e7 ee bd
       0.16848662 -0.07631059 -0.105558485 -0.11665237
000120 f9 4f b9 be 7d 05 18 bd 7b 89 fb 3d e8 4c 97 3c
       -0.36193827 -0.03711461 0.12282082 0.018469289
000130 14 8f 23 be fa 2f 27 3d f3 04 79 bc 65 a6 dc 3c
       -0.15972549 0.04081724 -0.015198934 0.026934812
000140 99 27 31 3d 68 b0 13 be 1f f6 28 be 91 c8 06 bc
       0.043250654 -0.14422762 -0.16500138 -0.00822653
000150 ff f6 9e bd 29 cb 0b bd 00 cb 47 be 6b bc 98 bd
       -0.077619545 -0.034129295 -0.19511032 -0.07457813
000160 90 f9 e4 bd 93 63 67 bd 10 9e 13 3c da e9 8f bd
       -0.11180413 -0.056491446 0.009009853 -0.070270255
000170 1f 91 6d 3d 5e ce e0 bd e7 32 8c 3e c7 87 c1 bc
       0.057999726 -0.109768614 0.27382585 -0.023624314
000180 8a 8e 10 be 8c a3 b3 3d e2 ee 0f 3d f0 5a d4 bd
       -0.14116874 0.087714285 0.035139926 -0.103689075
000190 f4 ea fc bd ef 9c 4a be 0f e0 6d be bd 5e 90 3d
       -0.12349501 -0.19786428 -0.23230003 0.0704932
0001a0 f4 ca 43 3c bb 0f e2 3d 3b 2d 8e bc 5a bb c1 3c
       0.011950243 0.110381566 -0.017355552 0.023648906
0001b0 a7 c4 8f 3d 26 ad 92 3c d4 cf 2b be 19 8c 8d be
       0.0701993 0.01790483 -0.16778499 -0.2764595
0001c0 6f 31 74 be 65 dc 75 bc 46 a9 04 be 5a b6 12 bd
       -0.23846982 -0.015006159 -0.12955198 -0.035818435
0001d0 ab fb 1d 3c 86 ff f2 bd b8 a7 f3 3d 1c af 1e be
       0.009642522 -0.118651435 0.11897224 -0.15496486
0001e0 96 dd a1 bd 39 45 23 3e 69 0d b6 bb 77 8f 2d bc
       -0.07903592 0.15944375 -0.005555798 -0.010593287
0001f0 54 5e b4 3a 1d 6e 1c be 14 a2 2e be e7 3e c4 bc
       0.0013761022 -0.1527638 -0.17054015 -0.023955775
000200 49 20 31 3e be 9f 73 3e de e5 13 3e 95 83 d4 3e
       0.17297472 0.23791406 0.14443156 0.4150664
000210 e6 bc 6c 3e a7 a0 f2 bd 5e ae d4 3d bc 2d ac 3c
       0.23118934 -0.11847048 0.103848204 0.021017902
000220 a8 ab b9 3d 83 46 00 bd ee 18 ae be 70 1a 8f 3e
       0.09065944 -0.031317245 -0.34003395 0.27949858
000230 5a 67 1b 3b 24 d3 11 be 0f 97 9e 3e 8e 14 a1 3e
       0.0023712725 -0.142407 0.30974624 0.31460994
000240 0c 66 71 3e c1 2c 7e 3d 22 29 b8 3c d6 a6 af bc
       0.23574084 0.0620544 0.022480551 -0.021441858
000250 d1 7c 5e 3e ad 02 00 3e 0a d6 68 3e ab ee 28 3e
       0.21727301 0.1250102 0.227379 0.16497295
000260 2e a3 81 3d ba c5 00 3e bc e5 59 be e6 45 28 3e
       0.06329952 0.12575427 -0.21279043 0.16432914
000270 fd 5f aa 3d 5a ed 8c 3e cb 84 7d 3e 5e 74 94 bd
       0.083190896 0.27524835 0.24757688 -0.07248758
000280 0b b0 80 3e 1c 5c d6 bd 92 2e 20 3e 3a 68 57 3d
       0.2513431 -0.10466787 0.15642765 0.052589633
000290 8f f7 9f bc 6f cc d8 bd a3 77 f8 3d 3a cf 1c 3d
       -0.019527225 -0.105858676 0.12132194 0.038283564
0002a0 4c 19 7a 3e 64 f5 58 3e e8 a3 0e be f1 05 24 bd
       0.24423712 0.21187359 -0.13929713 -0.04004473
0002b0 83 b6 25 3f 40 e2 61 3e 13 b1 51 ba 4c b9 60 3e
       0.64731616 0.22058964 -0.00079991034 0.21945685
0002c0 60 2b 3d be 66 58 98 3e 6e 39 1b 3d 95 c3 9c 3e
       -0.18473577 0.29754943 0.037896566 0.30617967
0002d0 ea 57 6c bc 9e a5 19 3e 9d ab 8c 3e 5c 72 3f 3e
       -0.014425257 0.15004584 0.2747468 0.18695968
0002e0 55 ba 98 3d e4 92 93 3d 28 aa 3c 3c 8d d8 0a be
       0.07457415 0.072057515 0.011515178 -0.1355917
0002f0 4f 46 06 bd a7 6d 4f 3e 2c db 2f 3e 2c 78 4b 3d
       -0.032781895 0.20256673 0.17173451 0.04967515
000300 82 17 fb 3d 56 7f 1f 3d 44 03 58 3d 45 35 46 3e
       0.12260343 0.038939796 0.05273749 0.19356258
000310 b7 13 cb 3d 03 69 9d 3e a5 ac 1c be a7 ea 3f bc
       0.0991587 0.3074418 -0.15300234 -0.01171366
000320 0b 2d 7b bd 12 a2 2e 3e 2b e8 2b be 76 ae 51 3d
       -0.061322253 0.17054012 -0.16787784 0.05119177
000330 1f b0 b3 3d f7 ec 63 3d 80 a4 2d 3e 97 9c 10 3e
       0.08773827 0.05564591 0.16957283 0.14122234
000340 62 52 85 3e b4 4a 8e 3d 8f e6 d9 bd ee cd 7b 3c
       0.26039416 0.06947842 -0.10639679 0.015368922
000350 17 58 72 bd 52 a7 10 3d 43 86 2b 3e bb ca 25 bd
       -0.05916604 0.03531582 0.16750436 -0.040476542
000360 4f 18 a1 be 5f 9d dc be f4 55 b0 bd 8e 64 20 3e
       -0.31463858 -0.43088815 -0.08610144 0.15663359
000370 43 1b 4b bd 1f c4 7b 3d ce 23 06 3e 2b a6 bc 3d
       -0.049586546 0.061466333 0.13099596 0.092113815
000380 a8 6e ea 3d fa 37 b5 3d 82 33 93 3e 57 09 9e be
       0.11446887 0.08848567 0.28750235 -0.308665
000390 20 c3 80 be 7c fd 69 be ae 43 8c bc 7b 78 aa bd
       -0.2514887 -0.22850603 -0.017122116 -0.08323761
0003a0 df 16 50 3e 04 2b 16 3e 19 ab 00 be 9a 8d 3e 3e
       0.20321225 0.14664847 -0.12565269 0.18608704
0003b0 39 92 08 3e 90 d1 8a be 31 f7 9d 3e 3c e5 ce bd
       0.1333703 -0.27113008 0.30852655 -0.10102317
0003c0 a9 2f 15 bd 72 55 2f bb c4 d0 00 3e d9 31 bc 3d
       -0.036422405 -0.002675381 0.12579638 0.09189195
0003d0 08 7e 98 3e 23 a2 02 3e 6e d1 3f 3e aa 69 bc 3d
       0.29783654 0.12757163 0.18732235 0.09199841
0003e0 8a 0d 94 bd 9e 0a 60 3e ab 8a 6a 3d d3 ba 95 3e
       -0.07229145 0.2187905 0.05726115 0.29244098
0003f0 51 79 6c 3d 6b 37 be 3d 2f f9 9a be 04 d9 75 3d
       0.057732884 0.09287914 -0.30268237 0.060021415

encoder.lin.weight f4 [64, 128]
000000 30 96 38 3e 28 55 85 bc 48 0d 85 3d 0f d4 b7 3c
       0.18026042 -0.016275957 0.06496674 0.022439985
000010 59 a7 50 bb c0 98 39 3e fc 2f 28 3d b1 60 04 be
       -0.0031838028 0.18124676 0.041061386 -0.1292751
000020 6e f2 bc 3d 8b 5d 22 3e 6c 9b 16 be 72 b4 6f 3c
       0.09225927 0.15855996 -0.14707726 0.014630424
000030 30 d0 e7 bd e9 a6 f3 bb 8f db ca 3d 54 02 91 bd
       -0.113190055 -0.0074356687 0.09905159 -0.07080522
000040 ae 22 06 3b 1f bf 3b 3e 7e 1f 6a be 11 29 65 bc
       0.0020467448 0.18334626 -0.22863576 -0.013986842
000050 8c 31 ab 3d ce fd 43 be e2 e1 a0 be ea 1c 8f be
       0.0835906 -0.19139788 -0.31422335 -0.27951747
000060 b2 32 e6 bd af e0 aa bd dc 4f af bd 7c e5 41 3e
       -0.11240138 -0.08343636 -0.08560154 0.18935198
000070 0f 51 93 3d db 1a 23 3e 58 cd c7 bb 20 79 66 3e
       0.07193195 0.15928213 -0.006097477 0.22507143
000080 ff d5 f7 bc df a2 08 be ec 45 e0 3d aa fa 28 bd
       -0.030253408 -0.1334338 0.109508365 -0.041254677
000090 55 60 19 3e 89 f8 8a bd c2 b4 28 be 05 16 eb 3d
       0.14978154 -0.067856856 -0.16475204 0.11478809
0000a0 51 1d 82 bd 52 56 02 be 86 20 d8 bd 26 52 44 3e
       -0.06353248 -0.12728241 -0.10553078 0.19171962
0000b0 5a 39 5f bb cf d7 4f 3e 5d 55 b1 bd cf 39 ba bd
       -0.0034061284 0.20297168 -0.0865886 -0.09093057
0000c0 15 1f 2c 3e 50 51 1b 3d 95 fe 07 be 81 19 e4 bd
       0.16808732 0.037919343 -0.13280709 -0.11137677
0000d0 e0 1b 8d be 58 92 59 3d 7c 76 b8 3d 31 a3 13 bd
       -0.2756033 0.05311808 0.09006974 -0.036044303
0000e0 8f 54 c9 3d da 19 51 3d ab 3c 0d 3e ba b9 37 be
       0.098305814 0.051050045 0.13792674 -0.17941943
0000f0 88 3d 3d 3e 96 21 a6 3b 3b e0 30 3e 18 f8 60 bd
       0.18480504 0.0050699217 0.17273037 -0.0549241
000100 66 29 65 bd ea e8 84 3d a1 c7 67 bb 01 9b f8 bd
       -0.055947684 0.06489737 -0.003536679 -0.1213894
000110 5a 01 28 be a7 52 15 3e 66 be 27 be 9a 2f 9b 3e
       -0.16406766 0.1458231 -0.16381225 0.30309755
000120 e7 8b 4e 3d 74 1d 92 3e 20 fa 41 3e cc a9 f6 bd
       0.05042639 0.28538096 0.18943071 -0.12044105
000130 93 6a 59 3c b2 55 71 3e 53 7e 6a bd 25 d9 9c bd
       0.013270038 0.23567846 -0.05724938 -0.076586045
000140 c6 35 2d bd 5d 39 a2 bc 65 3d 59 3e f3 87 ba 3d
       -0.04228761 -0.019802744 0.21214826 0.091079615
000150 9a 8e a2 3d 78 be 54 3b df a1 9e 3d 04 71 ee 3d
       0.07937355 0.003246216 0.07745718 0.1164265
000160 08 38 1b bd ad 28 71 be 12 91 c4 bb e3 f5 0b 3e
       -0.037895232 -0.23550673 -0.005998739 0.13668017
000170 3a f7 bc 3d 2b 4b 79 3e 29 19 61 be 60 48 94 3d
       0.09226842 0.2434508 -0.21982254 0.07240367
000180 4c 47 67 be e6 21 45 3d 1f 23 01 bd ad bb b9 3e
       -0.22585791 0.04812803 -0.031527635 0.36275998
000190 da 54 80 3c 3d 71 26 be a0 3e 45 3e c8 94 92 bd
       0.01566546 -0.16254134 0.19262171 -0.07157284
0001a0 df e7 57 3d 7d fa 2c bd 82 b9 06 3d 06 55 13 3e
       0.052711364 -0.04223107 0.032891758 0.14387903
0001b0 37 3c 40 3d d1 1f 63 be dd bf 86 bd eb c2 91 3d
       0.046932425 -0.22180106 -0.06579564 0.07117256
0001c0 5e 36 94 bd 93 f2 6f bd 03 46 d9 3d 46 97 6b 3d
       -0.07236932 -0.058580946 0.10609057 0.057517312
0001d0 3f f6 4a be e8 d0 ce 3d 6f f0 d7 3c 9b b9 66 bd
       -0.19820498 0.100984395 0.026359765 -0.05632935
0001e0 d5 29 06 3d b6 4c 09 3e b0 4d dd 3d 2c 26 4f bd
       0.032754738 0.13408169 0.10805833 -0.050573513
0001f0 3a 89 4c 3d 8d a8 b6 bd de f6 6b 3e 0d 91 66 be
       0.049935557 -0.08918867 0.23043391 -0.2251627
000200 ff c4 cf 3d 11 c4 db bc a0 97 28 be 1c d9 ab 3d
       0.10144996 -0.02682689 -0.1646409 0.0839102
000210 32 e2 f9 3d 23 86 ef bc d4 7f 96 3d 4c 32 36 3e
       0.122013465 -0.029238766 0.073486 0.17792624
000220 74 4e e1 bc 50 78 2b bc df 10 08 3e bb 8e b7 3d
       -0.02750323 -0.010465696 0.13287686 0.089627706
000230 e0 d4 cf 3d 35 b0 d2 bd 57 a8 40 3e d9 d5 c2 bd
       0.101480246 -0.10287515 0.18814217 -0.095134445
000240 d5 15 37 3d 92 29 3d 3d 38 fb da 3d d8 af ad bd
       0.044698555 0.046182223 0.106924474 -0.08480805
000250 bb 48 57 bd ec 7c 28 3d 0a e0 d0 3d dd 0e 91 3d
       -0.052559596 0.04113476 0.10198982 0.07082913
000260 72 cc 29 3d e5 7e 0d be ee fa 98 bd 2c c6 d8 bd
       0.04145474 -0.13817938 -0.07469736 -0.10584673
000270 f6 21 a9 bc 16 3d 84 3d 0a 50 0b 3d 0c 19 a3 bd
       -0.020646077 0.06456964 0.034011878 -0.07963762
000280 21 c2 a9 bd 10 04 3e 3e a1 de 88 3d de 4d 87 3d
       -0.0828898 0.18556237 0.06683088 0.06606649
000290 99 44 f2 bd 6d 80 0e 3d 1a 7f 94 3d 23 8d aa 3c
       -0.1182949 0.034790445 0.07250805 0.020819252
0002a0 ac ac 33 3c 8b 01 9e 3d ef 39 80 bd 3a 0b 05 3e
       0.010966461 0.07715138 -0.0626105 0.12992564
0002b0 00 7a 59 3d 28 ca 0b be 15 93 77 3d 77 95 04 be
       0.053094864 -0.13651335 0.060443003 -0.12947641
0002c0 12 36 10 3e 95 af f9 3c e0 4c 1a 3d 78 9d 31 3e
       0.14083126 0.030479232 0.03767097 0.17345226
0002d0 b4 e9 57 3e bc 24 bc 3c 99 84 fd 3d 76 10 9f bd
       0.21085244 0.022966735 0.123788066 -0.077668115
0002e0 89 e2 63 bd a9 bf 9d 3d df 48 a9 3d 86 f0 d5 3d
       -0.055635963 0.07702572 0.08265852 0.10446267
0002f0 1a 18 c0 bd b8 fd e3 bc 57 f8 d7 bd d7 ac 01 bc
       -0.09379597 -0.027830943 -0.10545414 -0.007914743
000300 a5 e7 9f bd ab 7c be 3d 8d c5 a9 bd c5 58 82 3d
       -0.078078546 0.09301122 -0.08289633 0.06364588
000310 bf 46 0b 3e 47 8a dd bb 5e 06 2c 3e f6 41 fb bc
       0.13601206 -0.0067608687 0.16799304 -0.030671101
000320 0c 9f 10 3e c0 d0 b7 bd e0 85 e9 bd 13 c1 46 3d
       0.14123172 -0.08975363 -0.11402488 0.048523974
000330 b0 51 b3 3b 37 b3 46 bd 74 c8 80 3d cc 61 b2 bd
       0.0054723844 -0.048510756 0.062882334 -0.087100595
000340 76 8f 99 bc 0d 8a b4 bd 11 a4 94 bd 65 15 3d bc
       -0.018745165 -0.088153936 -0.07257856 -0.011540745
000350 a6 26 a2 3d 6f 0b 46 bd d9 9e 4a bd a1 42 41 3a
       0.07917528 -0.048350748 -0.049467895 0.0007372294
000360 5f d3 51 3b a2 a8 86 3e 0c 93 a3 3d 46 20 d5 bb
       0.0032016856 0.26300532 0.07987031 -0.0065040914
000370 92 a1 01 3e c2 db 82 39 4e 6b 30 3e 5e 6b d5 3d
       0.1265929 0.00024959265 0.17228433 0.10420869
000380 dd 7b 30 3d 97 b9 ec bd 4f 24 b0 3c 66 ab 1d be
       0.043086875 -0.11558836 0.021501688 -0.15397415
000390 63 ef cd bb d0 dc b1 3d fa 91 e9 bd d9 fd ef ba
       -0.0062846406 0.08684695 -0.11404796 -0.0018309905
0003a0 b5 eb 87 3b a7 d0 a1 3d af 2f 12 3d e3 9f aa bc
       0.0041479715 0.079011254 0.035690006 -0.020828193
0003b0 4f c7 33 bd ea ad 4c 3e 8b 19 5b bd 3d 19 96 3d
       -0.043891247 0.19988218 -0.053491157 0.073290326
0003c0 05 45 63 3d 79 f7 4e 3d c3 d8 b2 3d 4b e1 c1 3d
       0.055485744 0.050528977 0.0873275 0.09466799
0003d0 a0 60 f2 bb 7d e7 84 bd f1 cd 72 bd 19 d5 c0 bd
       -0.0073967725 -0.064894654 -0.059278432 -0.09415645
0003e0 c3 09 d8 bd ae af 17 be 52 b8 c1 ba 27 38 22 be
       -0.10548737 -0.1481311 -0.0014779663 -0.15841733
0003f0 b2 89 1e bd 17 83 99 3d e6 b6 2f be a6 54 41 3d
       -0.038705535 0.074957065 -0.17159614 0.047199868

encoder.lin.bias f4 [64]
000000 38 1e 39 bd bb a8 07 bd f6 bb 41 3e e8 e9 93 3d
       -0.045194834 -0.0331199 0.18919358 0.072223485
000010 9a d3 87 3c 99 c1 03 3d 63 8f 01 be 42 aa f7 bd
       0.016580392 0.03216705 -0.12652354 -0.12093021
000020 94 77 a1 bd fc b9 63 3c 39 7a 7b bd f6 ac 4b 3d
       -0.07884136 0.013899323 -0.061395857 0.049725495
000030 a0 31 ef bb 21 83 d2 bd f8 b7 84 3c b7 3a 62 3d
       -0.007299617 -0.10278917 0.016201004 0.055231776
000040 26 a7 b9 bd 96 ac 79 bd e9 a9 28 bc e7 8d 17 3c
       -0.09065084 -0.060955606 -0.010294416 0.009250141
000050 1b d8 91 3c 6e c0 d3 bd cb 97 06 bd 7b 7a 66 3d
       0.017803242 -0.103394374 -0.032859605 0.05626915
000060 67 26 0d 3d 98 c6 86 bd 2d c6 5f bd fc 45 a3 3d
       0.03446045 -0.065808475 -0.054632355 0.07972333
000070 3c bd 19 bc d0 0a 21 3c 38 69 9a bc 82 17 73 bd
       -0.009383496 0.009829238 -0.018849 -0.05934859
000080 69 f6 a9 3d 19 b8 cc 3d 75 9d 06 3d 91 a8 40 be
       0.08298952 0.09996051 0.032865006 -0.18814303
000090 9f 9e 3d 3e 4e 49 07 3d d6 50 98 3c ae 9c dc bd
       0.1851754 0.033028893 0.018593233 -0.10772072
0000a0 87 c5 11 be 55 39 f1 bd 6b 8e bf bd 2e d9 c6 3c
       -0.14235507 -0.11778513 -0.09353336 0.024273481
0000b0 98 8b 3b bd 3c 14 6f 3d 57 bd 17 3d 8f a4 98 3d
       -0.045787424 0.058368906 0.037045803 0.07453262
0000c0 4a 53 a0 bd 54 81 79 3c 25 ca a3 bd 5f e9 fa bd
       -0.07828386 0.015228588 -0.079975404 -0.12251543
0000d0 50 4d 14 bd 99 de d3 bd 34 ea 82 3d 1b c2 25 be
       -0.036206543 -0.103451915 0.06392327 -0.16187327
0000e0 d3 18 b2 3d 9c d2 53 be 5b 76 da bc cf 59 75 bc
       0.08696141 -0.2068581 -0.026667764 -0.014975025
0000f0 36 6d ab 3d dd cc 43 bd 4a 6f 57 3b 43 6d 23 3e
       0.0837044 -0.047802795 0.003287273 0.15959649

qz0_net.weight f4 [8, 64]
000000 2f eb 2b bd 58 66 20 3d 3e c8 de bb 23 ae 04 bd
       -0.041972335 0.039160103 -0.006798773 -0.032392632
000010 42 c0 a2 3c ec da 93 3c 3e 1f db 3d 46 6c c3 3d
       0.019867066 0.018048726 0.10699318 0.09542136
000020 9d a8 ee bc 09 23 8b 3d 97 9d 8e 3d 0d 8c e7 3c
       -0.029133135 0.06793792 0.069636516 0.028265024
000030 15 9d b7 3c e3 e3 76 bc a6 45 30 bd c7 8e 97 bd
       0.02241377 -0.015068981 -0.043035172 -0.074002795
000040 46 e0 c8 bc 56 b0 37 3c e7 ef 97 3d 52 4b 90 3b
       -0.024521004 0.011211475 0.074188046 0.00440351
000050 3e d1 05 3d 58 19 f1 3d 4a 58 6d 3d bb d6 5d bc
       0.032670252 0.11772412 0.057945527 -0.013539965
000060 52 bb a6 bd 3f ab 8a 3d 28 40 4d bd 8d 13 45 3d
       -0.08141197 0.06770944 -0.050110012 0.04811435
000070 aa 33 d3 3c 95 c0 8b 3d ee 2a a0 3d d4 d6 73 bd
       0.025781471 0.068238415 0.07820688 -0.059531048
000080 39 6a 81 bd f2 40 1f bc f7 6d 8b 3d d3 8f 1d 3d
       -0.063190885 -0.009720074 0.068080835 0.03846724
000090 8f 7c 05 be 0d 80 57 bd c2 08 93 bd 3c 65 64 3c
       -0.13035797 -0.052612353 -0.07179405 0.013940152
0000a0 cc 9f dc 3c 78 33 e0 3d 3b ec c3 bd 33 2f cb 3c
       0.026931666 0.10947317 -0.09566542 0.02480278
0000b0 6e 08 df bd 12 07 16 bd ec 01 45 bd c7 a6 9f 3c
       -0.1089028 -0.036627837 -0.048097536 0.019488705
0000c0 55 0a 7c 3d 6e 8c 01 3d 60 fb 88 3c 55 c8 aa 3d
       0.06153329 0.031628065 0.016721427 0.083389916
0000d0 7d 7e ac bd 05 78 03 3e 1c 4c c6 bd 67 30 05 3e
       -0.08422563 0.12838753 -0.096824855 0.13006745
0000e0 2e c6 88 bc 22 f1 92 3d a3 78 d8 bd a4 84 17 bd
       -0.016696062 0.07174899 -0.10569885 -0.03699173
0000f0 0e 7a bc 3d f4 ee 25 bd 7d 97 5a 3d 7a 5b eb 3c
       0.092029676 -0.040511087 0.053367127 0.028730143
000100 57 af fc bc 8f d3 be bd bd 41 ee bd eb bd 89 3d
       -0.030845327 -0.09317695 -0.11633632 0.06725677
000110 2b 02 48 bb 4c 45 d3 3c 84 10 b0 bd 71 c7 11 3c
       -0.003051887 0.02578988 -0.085969 0.008897648
000120 56 23 09 3d a2 49 2b bd bc c8 ca 3b f5 36 50 3c
       0.033480965 -0.04181827 0.00618848 0.012708415
000130 04 ff b1 3d c3 4c 5f 3c 0b 37 82 3d 46 ac 02 3d
       0.086912185 0.013629141 0.06358155 0.031902574
000140 83 44 3e bd e6 d3 fb bc 90 42 c3 3c f2 9e 7e 3d
       -0.046452057 -0.03074069 0.02383545 0.0621633
000150 0c 2f 7d 3a 66 b3 db bc 6e 83 15 3c d9 16 0d bd
       0.00096581946 -0.026818942 0.009125574 -0.034445617
000160 0f 30 10 3c 2c 00 9f 3c e3 fc 26 bd 07 32 a8 bc
       0.008800521 0.019409262 -0.040768515 -0.020531667
000170 48 50 ac bc 49 7d 1f bb a6 c0 d6 bd 1b c6 00 3d
       -0.021034375 -0.002433615 -0.104859635 0.031438928
000180 01 da 94 3d 15 25 3b 3c dd 47 f5 3c 33 75 1a bc
       0.072681434 0.011422415 0.029941494 -0.0094273565
000190 59 08 c2 bc 8a 89 07 3d 81 72 70 3d c4 b4 2f bd
       -0.023685621 0.03309015 0.05870295 -0.042897
0001a0 3e 91 08 3d 70 5b 00 bd f3 4c 83 bb 3d 3a 87 3c
       0.03334164 -0.0313372 -0.004006976 0.016507262
0001b0 ac 22 1b 3d dc d4 5c 3d a3 b2 35 3c 78 d6 bc bc
       0.037874863 0.053913936 0.011089954 -0.023051485
0001c0 55 ea ad bd ee f8 d4 bc 81 ee cb 3c 19 e6 bf bc
       -0.08491961 -0.025997605 0.024894001 -0.023425149
0001d0 54 74 a7 3d bb 00 f0 3d 28 40 5d 3d 42 ef a0 bd
       0.08176485 0.11718889 0.054016262 -0.07858135
0001e0 25 41 12 bd 7e 6d 52 3c 69 87 a0 3d 64 57 98 bc
       -0.035706658 0.012843488 0.078383274 -0.018596359
0001f0 cd 36 f4 bc c1 83 b8 bc b5 4e f9 3d 8c 65 4c 3d
       -0.029811287 -0.022523763 0.12173215 0.04990153
000200 b9 f0 19 bd d0 99 ce bd f7 d8 96 3d 79 e9 b9 3d
       -0.037583087 -0.10087931 0.073656015 0.090777345
000210 72 fc 72 3d 94 f2 16 bd 55 34 bc bd 24 02 a8 bd
       0.05932278 -0.036852434 -0.09189669 -0.08203533
000220 15 b2 d0 3d be c8 68 3d 55 2b 5f 39 b9 c7 1c be
       0.101902165 0.056832068 0.0002128308 -0.15310563
000230 63 28 86 bd 68 78 43 bd 58 ee 24 3e ac b3 67 3d
       -0.06550672 -0.04772225 0.16106546 0.056567833
000240 6d 08 83 3d 68 d6 bc bd be ed 20 bc b7 0b 99 3d
       0.063980915 -0.09220582 -0.009822307 0.074729376
000250 83 26 75 bd ee 1e a8 3d 04 2e 1d 3d 00 be 0a 3e
       -0.05985118 0.08209024 0.038373962 0.13549042
000260 37 4e 12 be 4c cb f2 3d ea fa a1 bd 42 68 ed bd
       -0.14287649 0.11855182 -0.07909186 -0.11592151
000270 5e 89 06 bd 5f 78 8f bd 19 16 b2 bd 65 99 92 bd
       -0.032845847 -0.07005381 -0.08695621 -0.07158164
000280 1b 1d ce 3d 78 69 01 3c 74 e8 40 bd fe 0d eb bc
       0.10064145 0.007898681 -0.047096685 -0.028693195
000290 3c 40 2f bd 2a 3f d5 3c fe a2 f1 bc 11 4f 08 3e
       -0.042785868 0.026031096 -0.029496666 0.13311411
0002a0 37 d5 dd 3c b8 71 12 3d 2d 84 e7 3d 83 4c 69 3d
       0.027079208 0.035752982 0.113045074 0.056957733
0002b0 20 d1 5e bd 1d 97 8c bc 8d 01 4f 3d c3 ae e4 3d
       -0.054398656 -0.0171619 0.05053859 0.11166146
0002c0 e5 bb d7 3d 59 c6 cf bb b4 cc c8 3d dd 6b b2 3d
       0.10533885 -0.0063407836 0.09804669 0.087119795
0002d0 fd f1 bb 3d b8 7d 72 bd cc da a7 3d 9f 5f 91 3c
       0.09177015 -0.059201926 0.08196029 0.017745791
0002e0 b2 b2 bc bd 3f 95 b1 bd a0 c6 5e 3d 21 f0 a6 3c
       -0.09213771 -0.086710446 0.054388642 0.020378174
0002f0 e0 12 e2 3c bf 1b 31 3d b0 b0 78 bd d0 c4 d6 bd
       0.02759689 0.04323935 -0.060715377 -0.10486758
000300 f0 0a d7 bd f7 3c b7 3c c2 8b ad 3d b9 ab 5f bd
       -0.10500133 0.022367937 0.08473922 -0.054607127
000310 41 a7 82 bc 27 fe dc 3c e3 12 46 bd 6d 27 6a 3c
       -0.015948894 0.026976658 -0.048357856 0.014291626
000320 83 46 1f 3d 7a 90 55 3c 58 2b 8a bd c1 00 4d 3d
       0.038885605 0.013034934 -0.067465484 0.050049547
000330 96 af 1c 3c 2c e8 f0 bd ea 1a ba 3c 20 60 20 3d
       0.009563347 -0.11763033 0.022717912 0.039154172
000340 3d a6 fc bd 0b 54 8e 3a ca df 94 bc f7 60 03 bb
       -0.12336395 0.0010858787 -0.018173117 -0.002004681
000350 56 3f 0a 3e 3b c0 ff 3c be 6d 86 3d 3e f0 8a bd
       0.13500723 0.031219592 0.065639004 -0.06784104
000360 9d 67 c8 3c b0 5c fd 3d e8 80 5b bd db b1 1a 3d
       0.02446347 0.12371194 -0.05358973 0.037767272
000370 1e 93 e8 3a cd da 98 3c 8e b8 9d 3d b8 d1 31 bc
       0.001774404 0.01865902 0.07701217 -0.0108532235
000380 8a 29 8f 3d 65 07 8c bd 7c 40 ce 3c 62 fb 96 bd
       0.06990345 -0.06837348 0.025177233 -0.07372166
000390 50 f3 28 3e 65 f7 7a bb 0d e1 27 bd 7a a7 80 3c
       0.16499066 -0.0038294431 -0.04098611 0.015704859
0003a0 0a 9c 8b bd ab 61 e2 bc 50 38 c3 bd d1 8e a4 38
       -0.068168715 -0.027634462 -0.09532225 7.846731e-05
0003b0 0b 4d 8e bd 95 cd 1a 3d e8 26 0f bc 4c d2 93 bc
       -0.069482885 0.037793715 -0.008737303 -0.018044613
0003c0 5b af 84 3d 48 69 8f 3c 42 d7 b7 3c 35 bf 47 bd
       0.06478759 0.017506257 0.02244151 -0.048766334
0003d0 1d 47 89 bd 78 9d a2 3c 0e 38 36 bd f5 ac 38 bd
       -0.06703017 0.019850478 -0.04448705 -0.04508682
0003e0 58 83 97 bc c4 44 ee bd 14 e9 34 bd 2f d3 b3 bd
       -0.018495247 -0.1163421 -0.044167593 -0.087805144
0003f0 b9 44 af 3d fa 8a 04 be 0c 8c 70 3d 4c d5 8b 3d
       0.0855803 -0.1294364 0.05872731 0.068277925

qz0_net.bias f4 [8]
000000 11 0c 9d 3d 7a 49 0f be dc a1 34 bd a7 8f 85 bd
       0.07668317 -0.13992873 -0.044099674 -0.0652154
000010 53 b2 40 be 0b 66 b6 bd 03 14 ba bd 07 ec 6a bd
       -0.18818025 -0.08906182 -0.09085848 -0.057354
