model_saves/discriminator_reverseHeun.pth (torch, 8735 bytes, 9 tensors)

_initial._model.0.weight f4 [16, 2]
-0.057994366 0.037704036 0.057990853 0.028550772 0.057995558 -0.062103342 -0.057993215 -0.05113187
-0.057991244 0.014818753 0.057991106 -0.06195952 0.057992604 0.060154438 -0.05799537 -0.062357787
0.057993066 -0.06232401 -0.05799373 -0.062364116 -0.057992056 0.062196925 -0.057991672 -0.036394924
0.057993554 0.032171942 -0.0437041 0.06112152 -0.057990838 0.062174875 0.057992272 -0.0440374
00000000: 808b 6dbd 8c6f 1a3d d187 6d3d 4fe3 e93c
00000010: c08c 6d3d 1360 7ebd 4b8a 6dbd a76f 51bd
00000020: 3a88 6dbd 5bca 723c 1588 6d3d 44c9 7dbd
00000030: a789 6d3d 8064 763d 8e8c 6dbd e16a 7fbd
00000040: 238a 6d3d 7647 7fbd d58a 6dbd 8471 7fbd
00000050: 1489 6dbd 34c2 7e3d ad88 6dbd d812 15bd
00000060: a68a 6d3d bac6 033d 1203 33bd 8f5a 7a3d
00000070: cd87 6dbd 15ab 7e3d 4e89 6d3d 9060 34bd

_initial._model.0.bias f4 [16]
-0.5346587 -0.05385965 0.6857967 -0.091559924 0.527364 0.058198944 0.05869933 0.31247798
0.6664784 0.41497037 0.510775 -0.58760625 0.67186934 -0.06626146 -0.025080727 0.5380307
00000000: 64df 08bf f09b 5cbd 5f90 2f3f c583 bbbd
00000010: 5401 073f 0462 6e3d b56e 703d 1dfd 9f3e
00000020: 549e 2a3f ff76 d43e 27c2 023f 5d6d 16bf
00000030: a1ff 2b3f 17b4 87bd 1976 cdbc 61bc 093f

_initial._model.2.weight f4 [16, 16]
0.05393703 -0.053272218 -0.060431994 -0.049787235 0.05039782 -0.054893736 0.03257752 0.043914985
-0.060455162 -0.06088864 -0.049054164 0.03611824 -0.04878664 -0.05060492 -0.052992407 0.044242978
-0.061710957 0.040232882 0.061911155 0.060551938 -0.029006306 0.06121175 0.02202583 -0.031413898
0.061904658 0.061794404 0.039428122 -0.029925056 -0.05601485 -0.06201757 -0.061955955 -0.050749995
0.057533357 0.062207494 -0.061745882 0.007771152 -0.03992733 -0.062287573 0.0114799505 0.031672977
-0.06175287 -0.061854195 -0.003705337 0.040900137 -0.021668192 0.061566707 -0.0021924889 -0.023043148
0.032076895 -0.06153624 0.060761895 -0.036801394 8.9514215e-05 -0.03519806 0.0410314 0.06147028
0.060785577 0.06119691 -0.061960712 -0.041850325 -0.0544912 -0.061290108 -0.061525293 0.058324702
0.054084916 -0.040780284 -0.049381904 0.05849355 0.016094811 0.059981924 -0.059822112 0.061660085
0.0073100063 -0.045624327 -0.057096258 -0.051014032 0.041381095 -0.05515843 -0.061263923 -0.053684972
0.06222567 -0.040337067 -0.06183538 -0.0057315747 0.05513591 -0.058581725 0.058480296 0.036823258
0.032539036 -0.061487064 0.05883641 0.057062477 -0.042137787 -0.020033743 0.060321275 -0.054931093
-0.03256178 -0.026824307 0.007895709 0.035254527 -0.0477176 0.019165326 0.058661766 0.040591005
-0.061987095 -0.061734527 0.042708572 -0.055658422 -0.04274092 0.061390925 0.060580198 -0.0541298
0.008011587 -0.051023617 -0.057504434 -0.062183335 -0.0450666 -0.062026095 -0.04250381 -0.06128507
-0.05788546 0.018565957 -0.011760176 -0.06209486 0.06149816 -0.046283633 0.043451585 -0.02776477
0.044094432 -0.012026296 0.0558914 0.055619083 0.022531047 -0.04576528 0.054167185 0.060636617
0.035857785 -0.054042313 0.05043508 -0.047897886 0.049172133 -0.041725148 0.0554179 0.056145664
-0.05459939 -0.055910505 -0.053910807 -0.037441522 -0.06156069 -0.03816304 -0.042517457 -0.046207815
-0.05393229 0.061311007 -0.061850175 -0.045008175 0.04581705 -0.04647373 -0.056614578 -0.053244557
0.054528464 0.058725066 -0.060681984 -0.028693793 -0.046710864 -0.05576824 -0.045537766 -0.061408624
0.04746883 -0.025605293 0.056233555 -0.061639298 -0.044451736 -0.04985244 0.053711496 0.046529993
0.008093077 -0.05884081 -0.036256365 -0.018874645 0.039920237 0.022608416 -0.0035086728 0.061738152
0.061564516 0.061707027 -0.06032212 0.05792121 0.03171706 -0.06218833 -0.0054479255 0.024366204
0.052415807 0.04222675 0.00012394729 0.056054827 -0.022160819 0.058271267 -0.05762413 0.060385976
-0.049860146 0.06105966 -0.05869536 0.056025535 0.05097176 0.022145282 0.031743262 0.056103017
0.059986662 0.062028028 0.029725289 0.03727958 0.045642145 0.035468902 -0.041618012 -0.06199894
-0.06156906 0.026234254 -0.04173446 0.046280406 -0.045200128 -0.04560357 0.062036674 -0.060644645
0.0568436 0.009972914 0.02842515 0.044606004 0.043264635 0.041636985 0.061778944 0.033269852
-0.061353218 -0.044812452 0.0472712 -0.051337328 0.043936253 -0.049191706 0.062135708 -0.050348613
-0.03175879 0.053848285 0.016724922 -0.05979108 -0.050576612 -0.053959385 0.026999412 0.025726134
-0.055899482 0.019338155 0.05550247 0.048248276 -0.049318902 0.044972382 0.0537566 -0.059117176
00000000: 13ed 5c3d f833 5abd 8a87 77bd b3ed 4bbd
00000010: f26d 4e3d 41d8 60bd 0170 053d 33e0 333d
00000020: d59f 77bd 5e66 79bd 05ed 48bd b8f0 133d
00000030: 80d4 47bd 1b47 4fbd 910e 59bd 2038 353d
00000040: a1c4 7cbd 3ccb 243d 8d96 7d3d 4f05 783d
00000050: a29e edbc 2cb9 7a3d 836f b43c dcab 00bd
00000060: bd8f 7d3d 211c 7d3d 627f 213d 6425 f5bc
00000070: d46f 65bd 2306 7ebd 87c5 7dbd 3adf 4fbd
00000080: 19a8 6b3d 49cd 7e3d 40e9 7cbd 26a5 fe3b
00000090: d78a 23bd 4121 7fbd 6716 3c3c 86bb 013d
000000a0: 94f0 7cbd d35a 7dbd 3dd5 72bb e786 273d
000000b0: 7e81 b1bc 5f2d 7c3d dcaf 0fbb fcc4 bcbc
000000c0: 1063 033d 6d0d 7cbd 77e1 783d 0fbd 16bd
000000d0: 94b9 bb38 d72b 10bd 8b10 283d 43c8 7b3d
000000e0: 4cfa 783d 9ca9 7a3d 84ca 7dbd 3f6b 2bbd
000000f0: 2a32 5fbd 560b 7bbd f201 7cbd e2e5 6e3d
00000100: 2588 5d3d 3a09 27bd ae44 4abd ef96 6f3d
00000110: 44d9 833c 9baf 753d 0808 75bd 498f 7c3d
00000120: c788 ef3b 93e0 3abd c4dd 69bd 17f4 50bd
00000130: 397f 293d ceed 61bd e1ef 7abd c6e4 5bbd
00000140: 58e0 7e3d 7b38 25bd 1847 7dbd efcf bbbb
00000150: 31d6 613d 64f3 6fbd 0989 6f3d fcd3 163d
00000160: a747 053d dcd9 7bbd 73fe 703d 58ba 693d
00000170: ac98 2cbd ce1d a4bc 7113 773d 6dff 60bd
00000180: 805f 05bd a6be dbbc 015d 013c 0d67 103d
00000190: 8873 43bd 9a00 9d3c 5247 703d c142 263d
000001a0: 2ee6 7dbd 58dd 7cbd 2fef 2e3d 16fa 63bd
000001b0: 1a11 2fbd 0d75 7b3d f122 783d 36b7 5dbd
000001c0: 0843 033c 24fe 50bd c589 6bbd f4b3 7ebd
000001d0: c197 38bd 130f 7ebd 7a18 2ebd 0e06 7bbd
000001e0: 4e19 6dbd a217 983c c1ad 40bc 2e57 7ebd
000001f0: 7fe5 7b3d e893 3dbd 4afa 313d f172 e3bc
00000200: 5d9c 343d f109 45bc 61ee 643d d6d0 633d
00000210: 0893 b83c 6074 3bbd 69de 5d3d 1a5e 783d
00000220: 9ddf 123d 795b 5dbd 0495 4e3d 9330 44bd
00000230: b868 493d fde7 2abd e1fd 623d fff8 653d
00000240: 9ca3 5fbd 6a02 65bd 94d1 5cbd 485c 19bd
00000250: 1027 7cbd d950 1cbd c926 2ebd 6844 3dbd
00000260: 1be8 5cbd 4021 7b3d 9c56 7dbd 7e5a 38bd
00000270: a9aa 3b3d 3d5b 3ebd b0e4 67bd f716 5abd
00000280: 3d59 5f3d b289 703d ac8d 78bd 3f0f ebbc
00000290: e453 3fbd 3d6d 64bd cf85 3abd 9c87 7bbd
000002a0: ad6e 423d 31c2 d1bc 2855 663d 7d79 7cbd
000002b0: 0613 36bd 1232 4cbd 9600 5c3d 3c96 3e3d
000002c0: d398 043c 1003 71bd 8e81 14bd 009f 9abc
000002d0: 6783 233d 4935 b93c c3f1 65bb 25e1 7c3d
000002e0: 132b 7c3d 82c0 7c3d 5414 77bd ca3e 6d3d
000002f0: bfe9 013d 31b9 7ebd 8384 b2bb a29b c73c
00000300: f5b1 563d f5f5 2c3d d9f7 0139 bf99 653d
00000310: 9b8a b5bc daad 6e3d 4807 6cbd 4957 773d
00000320: 273a 4cbd b219 7a3d 8c6a 70bd 087b 653d
00000330: c4c7 503d 066a b53c 3905 023d 47cc 653d
00000340: 93b4 753d 1a11 7e3d 7382 f33c 79b2 183d
00000350: 42f3 3a3d d747 113d a677 2abd 9af2 7dbd
00000360: d72f 7cbd 38e9 d63c c1f1 2abd 8690 3d3d
00000370: c523 39bd cfca 3abd 2b1a 7e3d 8566 78bd
00000380: d6d4 683d 6f65 233c dcdb e83c c9b4 363d
00000390: 4236 313d 8b8b 2a3d eb0b 7d3d f845 083d
000003a0: 834d 7bbd 438d 37bd 729f 413d 1747 52bd
000003b0: 80f6 333d 3e7d 49bd 0382 7e3d 593a 4ebd
000003c0: 8115 02bd 0590 5c3d b402 893c 7ee7 74bd
000003d0: 6c29 4fbd 8404 5dbd df2d dd3c 9dbf d23c
000003e0: dbf6 64bd 0d6b 9e3c 8f56 633d fc9f 453d
000003f0: 9e02 4abd f634 383d e12f 5c3d da24 72bd

_initial._model.2.bias f4 [16]
0.20287402 -0.028729793 0.25681624 -0.079034835 -0.108426645 0.16401048 0.011188828 0.16402197
-0.120442435 0.03429882 -0.01733993 0.020047493 -0.059600417 -0.17064634 -0.11201985 0.08478703
00000000: 35be 4f3e be5a ebbc 6b7d 833e 04dd a1bd
00000010: ca0e debd 5df2 273e 5951 373c 60f5 273e
00000020: 86aa f6bd eb7c 0c3d 780c 8ebc a43a a43c
00000030: 911f 74bd eabd 2ebe aa6a e5bd d3a4 ad3d

_func._module._model.0.weight f4 [16, 17]
-0.059913803 0.035469946 0.062335674 0.032512266 0.05916104 0.025170384 0.055432774 -0.027403766
-0.05669677 -0.002456512 -0.062031947 -0.010408808 -0.022880157 0.060980543 0.061951265 0.047666974
-0.05962197 -0.020655923 0.06034639 0.037412517 0.061405554 -0.061334696 0.061902262 0.025600279
0.03797454 0.061393883 -0.044508185 -0.022376591 0.061608773 0.06079594 -0.022083811 -0.04708228
0.055584762 0.061613794 -0.061268423 -0.009412014 0.061576243 0.01605865 0.06084934 0.018431367
-0.023735628 0.008798468 -0.061145585 -0.060102317 -0.062076308 -0.0016812822 -0.047487576 0.061006997
0.060282126 0.058627214 -0.061090473 -0.060103327 0.008676868 0.039834604 -0.0117106885 0.026303044
0.0029637571 -0.039104313 -0.031584743 -0.060095098 -0.060294654 -0.059311647 -0.022307249 0.05515197
0.0598008 0.015799878 0.0581806 -0.060915064 0.055608593 -0.0621991 0.045446236 0.051922362
0.061410308 0.016159784 0.061363123 0.00075722265 -0.048640087 -0.033024054 0.060025956 -0.062226143
-0.037783537 -0.058504764 -0.034750942 0.020517208 0.0340088 0.058612596 0.008448602 -0.058291882
0.055533636 0.046488427 -0.017141711 0.06108443 0.058316223 0.023916319 0.058842976 0.044778537
-0.022880785 -0.01484072 -0.058549944 -0.059001256 -0.05817971 -0.018263837 0.0049398467 0.016414247
0.056686264 -0.057977315 -0.013913898 -0.048166227 -0.055259906 -0.055793356 -0.052572533 -0.05260298
-0.05370794 -0.046576206 0.020807356 -0.057997692 -0.051978264 0.051040817 -0.04749351 0.053624112
-0.062086336 -0.04967834 -0.053059116 -0.035642702 -0.03211435 0.05531224 0.059566453 -0.061023585
0.05902717 0.05981176 -0.06207523 0.040052764 -0.05857766 -0.058633313 -0.017692761 -0.055329226
0.06119282 0.06127681 0.059861854 0.040462196 -0.029143794 0.060933232 -0.05999358 -0.0600785
0.023588333 -0.049258728 -0.06111174 0.062216762 -0.027690219 0.0485578 -0.008848767 0.04128045
0.061943956 0.055621397 -0.06214575 0.04135541 0.051016357 0.06109792 -0.06054808 -0.009345776
0.06117462 -0.060984552 0.05864351 0.060085822 -0.062255885 -0.059354864 -0.058442466 -0.058504485
-0.047374457 -0.061924938 -0.027293405 0.05982884 -0.05834476 0.06029429 -0.061791286 -0.052436333
0.056771625 0.056573488 0.061845712 -0.028228838 -0.06115432 0.062208373 -0.055786807 -0.058453746
0.051951084 0.014824445 0.06185675 -0.017166067 -0.022817506 -0.052474376 0.05679191 -0.014958857
-0.031626437 0.042772833 0.054335386 0.061015848 -0.04594062 -0.060229048 0.061064467 -0.05009905
-0.049690053 0.0030148753 0.042401507 -0.039840635 0.062179264 0.060953908 0.05715134 -0.040737726
-0.008373797 0.06135404 -0.059622202 -0.056855205 0.060161475 -0.052403677 -0.06086488 0.06221741
0.050729398 0.050419353 -0.04166501 0.0029110478 0.06208548 0.009299802 0.043327067 0.012047525
0.05997492 -0.05273708 -0.05086576 -0.02112905 0.035962697 0.061914023 0.011505239 -0.06056474
0.061986003 -0.056494545 -0.029731842 0.044814814 -0.015599724 0.061669685 0.062096596 0.06084171
0.055896074 -0.042306166 -0.026755784 0.013728154 -0.0593187 -0.05950088 0.060306963 -0.044258203
-0.060199 0.062171344 0.050297022 0.051494278 0.048222743 -0.05956424 0.058309127 -0.061371718
00000000: 2d68 75bd ef48 113d b153 7f3d 952b 053d
00000010: d952 723d 1f32 ce3c 7a0d 633d dd7d e0bc
00000020: df3a 68bd 6ffd 20bb 3615 7ebd b489 2abc
00000030: 2b6f bbbc bcc6 793d 9cc0 7d3d 723e 433d
00000040: 2b36 74bd 9c36 a9bc c72d 773d de3d 193d
00000050: 6484 7b3d 173a 7bbd 3a8d 7d3d adb7 d13c
00000060: 318b 1b3d 2778 7b3d 374e 36bd 1d4f b7bc
00000070: 7b59 7c3d 2a05 793d 1ce9 b4bc 59d9 40bd
00000080: d9ac 633d bf5e 7c3d 99f4 7abd d934 1abc
00000090: 5f37 7c3d 6e8d 833c 283d 793d 61fd 963c
000000a0: 3871 c2bc 7327 103c cb73 7abd d92d 76bd
000000b0: ba43 7ebd 785e dcba 5582 42bd 79e2 793d
000000c0: 64ea 763d 1723 703d 013a 7abd e82e 76bd
000000d0: 6c29 0e3c 9c29 233d 30de 3fbc 7b79 d73c
000000e0: 983b 423b d82b 20bd 015f 01bd 4726 76bd
000000f0: 87f7 76bd c5f0 72bd b1bd b6bc 08e7 613d
00000100: aff1 743d bf6e 813c c84e 6e3d 1382 79bd
00000110: d6c5 633d 7cc4 7ebd d525 3a3d 8bac 543d
00000120: 6089 7b3d 8661 843c e657 7b3d 5a80 463a
00000130: d43a 47bd 3b44 07bd c7dd 753d d7e0 7ebd
00000140: e9c2 1abd b1a2 6fbd 0157 0ebd b413 a83c
00000150: d04c 0b3d c313 703d 016c 0a3c 78c3 6ebd
00000160: 3d77 633d a66a 3e3d c66c 8cbc ab33 7a3d
00000170: fedc 6e3d 28ec c33c 5505 713d b369 373d
00000180: 7c70 bbbc 7e26 73bc 11d2 6fbd 4dab 71bd
00000190: d94d 6ebd 0b9e 95bc 70de a13b 2c77 863c
000001a0: db2f 683d 9f79 6dbd 1ef7 63bc f349 45bd
000001b0: 3658 62bd 9387 64bd 4c56 57bd 3976 57bd
000001c0: dbfc 5bbd b1c6 3ebd 3074 aa3c fd8e 6dbd
000001d0: 29e7 54bd 2d10 513d 8e88 42bd f5a4 5b3d
000001e0: 3e4e 7ebd 847b 4bbd 8454 59bd 15fe 11bd
000001f0: 568a 03bd 168f 623d f4fb 733d def3 79bd
00000200: 79c6 713d 2dfd 743d 9942 7ebd 5e0e 243d
00000210: 21ef 6fbd 7c29 70bd 69f0 90bc e6a0 62bd
00000220: 53a5 7a3d 64fd 7a3d b431 753d b0bb 253d
00000230: f7be eebc 2095 793d d4bb 75bd e014 76bd
00000240: 523c c13c 85c3 49bd 4e50 7abd 01d7 7e3d
00000250: 99d6 e2bc 8be4 463d 6bfa 10bc b015 293d
00000260: f2b8 7d3d 43d3 633d 8b8c 7ebd 4a64 293d
00000270: 87f6 503d d041 7a3d 4301 78bd 071f 19bc
00000280: 3d92 7a3d f0ca 79bd 2d34 703d 8d1c 763d
00000290: 0700 7fbd 161e 73bd 5e61 6fbd 66a2 6fbd
000002a0: b80b 42bd 01a5 7dbd 6b96 dfbc 160f 753d
000002b0: eafa 6ebd 25f7 763d dc18 7dbd 7bc7 56bd
000002c0: 5d89 683d 9ab9 673d ee51 7d3d 2a40 e7bc
000002d0: f47c 7abd 35ce 7e3d b580 64bd 326d 6fbd
000002e0: a9ca 543d 3be2 723c 815d 7d3d da9f 8cbc
000002f0: c7eb babc 5fef 56bd a29e 683d fe15 75bc
00000300: b98a 01bd 9132 2f3d c88e 5e3d c1eb 793d
00000310: 3b2c 3cbd bcb2 76bd bc1e 7a3d a934 4dbd
00000320: cc87 4bbd 3795 453b 34ad 2d3d ef2f 23bd
00000330: afaf 7e3d ceaa 793d 8617 6a3d 9adc 26bd
00000340: 4032 09bc 604e 7b3d 6936 74bd 01e1 68bd
00000350: e16b 763d 3da5 56bd 744d 79bd afd7 7e3d
00000360: a1c9 4f3d 8684 4e3d eea8 2abd 47c7 3e3b
00000370: 584d 7e3d 325e 183c b977 313d fb62 453c
00000380: 43a8 753d d602 58bd 9d58 50bd d416 adbc
00000390: 9f4d 133d 8f99 7d3d 7880 3c3c bc12 78bd
000003a0: 09e5 7d3d d366 67bd 3190 f3bc bd8f 373d
000003b0: fc95 7fbc 5a99 7c3d 0059 7e3d 2835 793d
000003c0: 48f3 643d 3b49 2dbd f22e dbbc 0dec 603c
000003d0: 2af8 72bd 32b7 73bd 6f04 773d 1748 35bd
000003e0: 3a93 76bd 61a7 7e3d 4004 4e3d aaeb 523d
000003f0: 3685 453d a2f9 73bd 8dd5 6e3d e960 7bbd

_func._module._model.0.bias f4 [16]
0.16183542 0.11862357 0.05397804 0.0377076 -0.1753138 0.33724657 0.05674714 0.0035969003
0.17699939 0.19495901 0.08585567 0.13417692 0.096978165 0.20785321 -0.0007480657 -0.24231316
00000000: 2fb8 253e eaf0 f23d 1418 5d3d 4973 1a3d
00000010: 7685 33be 95ab ac3e b06f 683d f9b9 6b3b
00000020: 543f 353e 56a3 473e 19d5 af3d ad65 093e
00000030: 7d9c c63d 79d7 543e d719 44ba f120 78be

_func._module._model.2.weight f4 [32, 16]
0.019623442 0.016748069 -0.03091911 0.011905341 -0.028600318 -0.026527429 -0.027321143 -0.027385246
0.03102736 -0.028164444 0.029060379 0.0040444606 0.030677859 0.029610291 0.030480772 0.01881823
0.027398 -0.0069621 0.02487101 0.027906764 -0.02058115 -0.023778178 -0.021655323 0.023606203
0.018344333 -0.026022283 0.029686246 0.02882444 0.006528415 0.028631764 0.0013266435 0.027645087
0.020646319 0.029876422 0.018398222 -0.027710622 -0.028426778 -0.027063502 -0.022795523 0.01786247
0.03028885 -0.02811165 0.0067411154 -0.0292213 0.030440519 -0.00956892 0.030498354 0.01861108
0.027374102 -0.012382167 0.025025453 0.02776771 -0.02358953 -0.026218666 0.02920129 -0.024928015
0.0127270995 -0.025987385 -0.026932733 -0.020187397 0.011547807 -0.030568244 -0.016547905 0.027888408
-0.027745042 -0.024813298 0.019962313 -0.02808061 0.025906336 -0.009635395 0.0066161538 0.023781335
0.015531108 0.027755981 0.029844668 -0.016837114 0.00658571 0.030528417 -0.024650367 0.021155884
-0.023509042 -0.027428363 -0.0269847 -0.027173365 0.030880433 0.029208377 -0.027707882 0.030710362
-0.02602733 0.030765451 0.029175676 0.030568557 -0.027810782 0.02847749 -0.017031623 -0.02641888
-0.0237333 -0.029586812 -0.021460954 -0.022107894 0.001054722 -0.012246516 -0.0013653963 0.027638013
-0.030649764 0.02831696 -0.027617324 -0.017040106 -0.030274851 -0.029042955 -0.030221535 -0.023432007
-0.02760423 0.0046164077 -0.028131898 -0.027986748 0.0075906147 -0.011569548 0.029189007 0.004217292
0.02042198 0.003993062 -0.028629394 -0.026837733 -0.016752008 -0.028034631 -0.019185238 -0.022408541
-0.023589818 0.030049926 -0.00053707714 0.008810712 -0.0031195988 0.0012242454 -0.009067685 -0.026252756
0.015662774 -0.02800014 -0.009781562 0.018766593 0.030880224 -0.024008079 0.030818285 -0.0009326248
0.027106399 -0.0292662 0.02754943 0.027453795 -0.023884429 -0.025899934 0.028741721 -0.024838602
-0.027509363 -0.02620075 0.020237317 0.0285672 0.008924889 0.013093281 -0.02284209 0.0276284
0.02948229 0.018809669 0.018696126 0.027736321 0.028811738 0.027002892 0.021287171 0.02748225
-0.030950295 0.028323716 -0.0021797656 -0.025310347 -0.030438686 0.001649406 -0.03008509 0.017774437
-0.025964776 0.020718075 -0.027527675 -0.026923649 -0.014662001 0.023369558 -0.026993506 0.019353246
-0.014535577 0.01367478 -0.030767798 -0.01536536 0.007172305 -0.026227359 0.021844432 -0.023353623
-0.0053400206 0.013357979 0.025724454 0.026166573 0.029110504 0.026951868 -0.02654447 0.02714828
-0.030227115 0.028126182 0.02587492 0.027880082 -0.030578066 0.027763397 -0.030441595 0.025444003
-0.026884153 -0.0075171595 -0.02740895 -0.027154291 0.013086575 0.025739888 -0.012538032 0.024777941
0.017103184 0.02698973 -0.01720626 0.015960762 0.023386495 0.0047777756 0.023514096 -0.01976992
-0.029652115 0.030218776 -0.02864556 -0.030624967 0.0011452709 -0.027738111 -0.022510253 -0.027316801
0.0309181 -0.028260287 0.028993513 0.01782502 0.030497778 0.03002821 0.030300085 -0.030477768
0.027720043 -0.026704388 0.028166842 -0.015600937 -0.021773284 -0.00019276892 0.021606466 -0.021293696
0.018818196 0.02134997 0.030216135 0.029001234 0.008080897 0.026980696 0.0034740686 -0.017284032
00000000: 57c1 a03c 3f33 893c 134a fdbc 9f0e 433c
00000010: 374b eabc 0d50 d9bc 97d0 dfbc 0657 e0bc
00000020: 172d fe3c 1fb9 e6bc 0810 ee3c 6587 843b
00000030: 2250 fb3c 4891 f23c d0b2 f93c b028 9a3c
00000040: c571 e03c 5422 e4bb 4abe cb3c ba9c e43c
00000050: cd99 a8bc 74ca c2bc 8166 b1bc cc61 c13c
00000060: db46 963c af2c d5bc 9230 f33c 3b21 ec3c
00000070: 50ec d53b 298d ea3c c5e2 ad3a f377 e23c
00000080: 7822 a93c 66bf f43c deb7 963c 6301 e3bc
00000090: 46df e8bc 47b4 ddbc adbd babc 5154 923c
000000a0: 5320 f83c 674a e6bc 93e4 dc3b 8261 efbc
000000b0: 655e f93c f6c6 1cbc afd7 f93c 4376 983c
000000c0: a73f e03c 93de 4abc 2e02 cd3c 1c79 e33c
000000d0: d43e c1bc 87c8 d6bc 8b37 ef3c d635 ccbc
000000e0: 5385 503c 7fe3 d4bc 09a2 dcbc 0a60 a5bc
000000f0: 0333 3d3c 416a fabc 798f 87bc 3b76 e43c
00000100: 9249 e3bc 4245 cbbc 0188 a33c 4f09 e6bc
00000110: 8639 d43c c7dd 1dbc 52cc d83b 13d1 c23c
00000120: 3076 7e3c 8360 e33c ce7c f43c fded 89bc
00000130: f1cc d73b bb16 fa3c 91ef c9bc 1b4f ad3c
00000140: 0996 c0bc 72b1 e0bc 040f ddbc ad9a debc
00000150: f6f8 fc3c 6846 ef3c a4fb e2bc 4c94 fb3c
00000160: 4437 d5bc d407 fc3c d401 ef3c e96a fa3c
00000170: 70d3 e3bc a049 e93c e785 8bbc 686c d8bc
00000180: 566c c2bc 0b60 f2bc e2ce afbc 9d1b b5bc
00000190: 993e 8a3a 9ca5 48bc 19f7 b2ba 1d69 e23c
000001a0: 3715 fbbc f8f8 e73c ba3d e2bc b197 8bbc
000001b0: f702 f8bc 7eeb edbc 2793 f7bc 7bf4 bfbc
000001c0: 4422 e2bc 3c45 973b de74 e6bc 7744 e5bc
000001d0: b1ba f83b 348e 3dbc c91d ef3c 3631 8a3b
000001e0: ff4b a73c 3bd8 823b 3188 eabc ceda dbbc
000001f0: 823b 89bc e2a8 e5bc 5c2a 9dbc 1e92 b7bc
00000200: 6f3f c1bc 432b f63c a3ca 0cba ce5a 103c
00000210: 2f72 4cbb dc76 a03a a190 14bc 0510 d7bc
00000220: 384f 803c 8d60 e5bc d842 20bc 66bc 993c
00000230: 86f8 fc3c 97ac c4bc a176 fc3c 647b 74ba
00000240: 3d0e de3c abbf efbc 58af e13c c8e6 e03c
00000250: 47a9 c3bc 192c d4bc c273 eb3c 537a cbbc
00000260: 515b e1bc f5a2 d6bc bbc8 a53c c305 ea3c
00000270: b339 123c 3385 563c 561f bbbc f454 e23c
00000280: d884 f13c bc16 9a3c 9e28 993c 4837 e33c
00000290: 9806 ec3c 2b35 dd3c 6f62 ae3c 7522 e13c
000002a0: 798b fdbc 2307 e83c 66da 0ebb a557 cfbc
000002b0: 8d5a f9bc e230 d83a 0275 f6bc b29b 913c
000002c0: 15b4 d4bc f4b8 a93c b881 e1bc fc8e dcbc
000002d0: e438 70bc 8471 bf3c 7c21 ddbc b38a 9e3c
000002e0: a126 6ebc 2f0c 603c c00c fcbc febe 7bbc
000002f0: a805 eb3b c2da d6bc 18f3 b23c 1950 bfbc
00000300: 57fb aebb 6ddb 5a3c 17bc d23c 485b d63c
00000310: 2779 ee3c 2aca dc3c ca73 d9bc 1266 de3c
00000320: db9e f7bc e168 e63c a4f7 d33c c564 e43c
00000330: da7e fabc 1070 e33c a760 f9bc f16f d03c
00000340: 283c dcbc 8152 f6bb bc88 e0bc ad72 debc
00000350: 1369 563c 75dc d23c 516c 4dbc 1cfb ca3c
00000360: fa1b 8c3c 9119 dd3c 24f4 8cbc 25c0 823c
00000370: 0995 bf3c e38e 9c3b a2a0 c03c 87f4 a1bc
00000380: fee8 f2bc 5e8d f73c 18aa eabc 36e1 fabc
00000390: ea1c 963a 093b e3bc 6c67 b8bc 7cc7 dfbc
000003a0: f547 fd3c 1e82 e7bc ce83 ed3c c705 923c
000003b0: 7ad6 f93c b8fd f53c e237 f83c 83ac f9bc
000003c0: 2515 e33c 29c3 dabc 26be e63c 139b 7fbc
000003d0: e35d b2bc 0322 4ab9 0b00 b13c 1e70 aebc
000003e0: 9e28 9a3c 22e6 ae3c d487 f73c ff93 ed3c
000003f0: bd65 043c 9f06 dd3c 33ad 633b 3e97 8dbc

_func._module._model.2.bias f4 [32]
-0.009709889 0.1324593 -0.10802876 0.040447205 -0.10565765 0.3560311 -0.18627079 -0.274008
0.07612695 -0.020730611 -0.077419385 0.11603187 -0.16202086 0.13156258 0.033232242 0.22765675
0.22671163 0.095635824 0.03723953 0.1728937 0.054266922 0.014428373 0.0234312 -0.19675969
-0.16656433 -0.11345084 -0.15846239 -0.12163252 -0.21704958 0.15961872 0.23028809 0.1046671
00000000: 3a16 1fbc 69a3 073e 2f3e ddbd f8ab 253d
00000010: 0a63 d8bd b549 b63e c5bd 3ebe c74a 8cbe
00000020: 72e8 9b3d 3ed3 a9bc 0e8e 9ebd 1ea2 ed3d
00000030: cce8 25be 57b8 063e 881e 083d da1e 693e
00000040: 1827 683e b7dc c33d 7a88 183d 0c0b 313e
00000050: fe46 5e3d fc64 6c3c caf2 bf3c 5f7b 49be
00000060: d78f 2abe ea58 e8bd f743 22be 781a f9bd
00000070: 3f42 5ebe 1773 233e a4d0 6b3e b45b d63d

_readout.weight f4 [1, 16]
-0.23374866 -0.056196585 -0.040088743 0.020653615 -0.14519833 0.253518 0.0031839518 -0.24333683
0.14792076 0.18012981 -0.28586957 -0.11748902 -0.08132444 -0.3681013 -0.19674197 -0.19557045
00000000: cf5b 6fbe 642e 66bd 1834 24bd c531 a93c
00000010: dfae 14be 1ccd 813e d9a9 503b 4a2d 79be
00000020: 8a78 173e f373 383e 7f5d 92be 159e f0bd
00000030: 6e8d a6bd c677 bcbe ba76 49be 9f43 48be
