model_saves/discriminator_backprop.pth (torch, 8699 bytes, 9 tensors)

_initial._model.0.weight f4 [16, 2]
00000000: 2376 5f3d 1507 7fbd 3274 5fbd 0f30 7ebd
00000010: 9877 5f3d 6da5 7fbd 3c74 5f3d 0886 7bbd
00000020: 5577 5fbd 0d83 7ebd d977 5f3d ca31 733d
00000030: 3078 5f3d 7878 783d 4875 5f3d 4968 7bbd
00000040: fd73 5f3d c6f2 783d d177 5fbd efd2 7ebd
00000050: 2c77 5fbd 297a 783d 9074 5fbd 946b 7fbd
00000060: 0b74 5fbd a650 773d 0d74 5fbd eafe 7ebd
00000070: 4976 5fbd 869c 7dbd 99b4 0abd 0759 783d
0.054556023 -0.062262613 -0.05455417 -0.06205755 0.054557413 -0.06241362 0.05455421 -0.06140712
-0.054557163 -0.0621367 0.054557655 0.059373654 0.05455798 0.060661763 0.054555207 -0.06137875
0.054553974 0.0607784 -0.054557625 -0.06221288 -0.05455701 0.060663376 -0.054554522 -0.062358454
-0.054554027 0.060379647 -0.054554034 -0.062254824 -0.054556165 -0.06191685 -0.033863638 0.060631778

_initial._model.0.bias f4 [16]
00000000: 18f9 34be 0aa2 4f3e 38bd cfbe 61b8 203f
00000010: 1259 003e dea0 18bf 32d7 c93e abbe ef3e
00000020: 21cb 9c3e db10 8b3c 12b8 5f3e 32a7 a4be
00000030: 214d b7bd f305 40be 3822 833e a4e0 663e
-0.17673147 0.20276657 -0.4057405 0.6278134 0.12533978 -0.59620464 0.39421993 0.46825156
0.30623725 0.01697581 0.21847561 -0.3215881 -0.08950258 -0.1875227 0.25612044 0.22546631

_initial._model.2.weight f4 [16, 16]
00000000: a516 7fbd 1d52 7ebd f3aa 7fbd efa6 7ebd
00000010: 25e5 7dbd 1bf0 09bd d903 7f3d 6aac 7ebd
00000020: edc2 7e3d 7a93 7cbd bc59 7e3d 048f 7fbd
00000030: ccbc 7b3d a025 7fbd a27c 7ebd 7965 7e3d
00000040: 3304 7fbd e400 7fbd 748d 7fbd 33fe 3d3b
00000050: 0b84 7ebd d873 7f3d b176 7e3d 128d 7fbd
00000060: ea7a 7e3d d7ea 7cbd 7c06 7e3d b46f 7fbd
00000070: 31d0 7b3d fa10 7fbd 7f31 7fbd 5a13 7e3d
00000080: 52b4 7dbd b90c 7ebd e82d b83c 5c96 893c
00000090: a001 7dbd 91b3 40bd 2789 7d3d 1e90 08bc
000000a0: e911 7d3d 19aa 79bd f255 7c3d 30d7 49bc
000000b0: 9f8a 793d 4bcf 7dbd 3432 4bbd 166a 7c3d
000000c0: 31cf 7fbd e866 7fbd 32ed 7fbd 18ec 2d3d
000000d0: cf50 7fbd e926 643d d7c7 113d 9a68 0b3d
000000e0: 0476 753d 33fc 7ebd fc65 7f3d aee5 ab3c
000000f0: 2552 7d3d c5ae 7abd 3bc9 cf3b 3f6c 7f3d
00000100: f85a 613c dccb 7fbd e2fa 2c3d 2d95 7fbd
00000110: 13f6 ffbb f37d 7e3d 20b4 0ebd 2aa5 7fbd
00000120: abe6 7b3d b4f1 5fbd 3952 7d3d 9f50 093d
00000130: 1be1 523d 9c0b 873c 2e1d 8b3c 7d50 9cbc
00000140: 16f9 7bbd 5b80 7cbd 8559 bbbc 7df6 7ebd
00000150: e2b2 7abd 0dd4 66bc 4044 7c3d a88f 7ebd
00000160: 2e9d 7b3d 87f3 74bd f796 7a3d c67d 7dbd
00000170: b57c 763d d325 7cbd 8a37 7dbd a6b2 7a3d
00000180: 1da9 7e3d 6ccd 7e3d 6fce 26bd 0dab eebc
00000190: e82a 7e3d db0e 463d c23e b83c 4347 f7bc
000001a0: 5558 233b 3111 7c3d 6f85 7dbd 1c6b 0bbd
000001b0: ad5d 7bbd 60b9 7e3d b60d 7f3d ba93 7dbd
000001c0: 1690 7cbd 7094 853a f92a 67bb 6a5f 373d
000001d0: 4a5e cbbc d96d 76bd 6d92 7a3d d599 8dbc
000001e0: 9fff 753d c386 60bd faab 143d b92f 56bc
000001f0: 42dd 2f3d e7fe 2dbd d341 483c 1c8e 133d
00000200: b613 19bd 8d7d 7fbd 0fdd 7fbd e991 7fbd
00000210: c353 7fbd c9b1 7e3d 5f18 b33b 49b1 383c
00000220: 3e61 ef3c 90be 7ebd 0aee 7c3d 79d3 7fbd
00000230: 1951 7d3d 39a6 b3bc ff8c 7fbd f770 633d
00000240: 396f 7cbd 1d7c 7abd 93e5 7ebd a20a 7dbd
00000250: 34bf 78bd 6fd4 7c3d 3e70 7d3d a899 7cbd
00000260: a9ac 7c3d e2b4 73bd 9c77 7b3d 0458 7ebd
00000270: 4307 753d 6ca8 7cbd 4534 7bbd 7d97 7b3d
00000280: c3d0 7fbd 35ec 7dbd ab6b 6ebd 922f 00bd
00000290: f6a7 7fbd 0ef5 7b3d 0bb8 7e3d 28d4 1a3d
000002a0: 5b8c 7f3d 7662 7fbd ff5d 7f3d f2ba 3bbd
000002b0: 9fe3 7d3d 0ad3 7fbd d7bf 7fbd 533c e73c
000002c0: a347 7fbd 9a2f 7fbd cdad 7fbd afbd 4dbd
000002d0: a3d1 7ebd b540 7f3d 280b 7f3d 9b93 7fbd
000002e0: 92cd 7e3d 9897 7dbd bd69 7e3d ac7e 7fbd
000002f0: 033f 7c3d 5651 7fbd 0953 7fbd 0e75 7e3d
00000300: 4c04 cfba b616 3bbb bc6a 7f3d 272e 40bd
00000310: d955 713d 0d60 653d 57ba cb3c 6dd6 2bbd
00000320: 1d39 1cbd aa32 7f3d dd09 07bc 162d 7f3d
00000330: e14d 76bd d552 ffbb 4070 c2bc e4f3 7ebd
00000340: be9f 7ebd 8bd8 7ebd 8f4e 7fbd 20b8 7fbd
00000350: 8a34 7ebd 798c 7f3d 4149 7e3d 4892 7fbd
00000360: b9f3 7d3d 3211 7cbd 466c 7d3d d027 7fbd
00000370: a54c 7b3d beaf 7ebd ea18 7fbd 047b 7d3d
00000380: a552 7f3d 62cf 7f3d f588 7f3d a3d9 7f3d
00000390: 2793 7f3d 3a75 7fbd 65e3 7ebd 7ef9 7f3d
000003a0: f3bb 7abd 9caa 7e3d d26f 7ebd ee7c 7f3d
000003b0: c1a5 7dbd d97e 0e3d d2e5 7f3d ba77 7ebd
000003c0: 7988 7f3d 1f1a 7f3d 6cd9 7f3d 937a 0c3b
000003d0: 13d2 7e3d bbc4 333d 8467 7fbd 43fa 19ba
000003e0: b433 7fbd 2ef1 7d3d 94df 7ebd 2ac9 7f3d
000003f0: b57b 7cbd 7190 7f3d fb84 1d3d 49e9 7ebd
-0.062277455 -0.062090028 -0.06241889 -0.06217092 -0.061986107 -0.033676248 0.06225953 -0.062176146
0.062197614 -0.061664082 0.062097296 -0.06239225 0.061459348 -0.06229174 -0.062130578 0.06210849
-0.062259864 -0.06225671 -0.06239076 0.0028990626 -0.062137645 0.062366337 0.06212491 -0.062390395
0.06212894 -0.0617474 0.062017903 -0.062362388 0.061477844 -0.06227205 -0.062303063 0.062030174
-0.061939545 -0.062023852 0.022482827 0.01679533 -0.061769128 -0.047046248 0.061898377 -0.008335141
0.06178466 -0.060953233 0.0616054 -0.012319371 0.060923215 -0.061965268 -0.049608424 0.06162461
-0.062453452 -0.062354 -0.062482066 0.042461485 -0.062332924 0.05570117 0.035590973 0.034035303
0.059927 -0.062252235 0.06235312 0.020983543 0.061845917 -0.06120183 0.006341127 0.06235909
0.013754599 -0.062450275 0.042231448 -0.062398124 -0.0078113168 0.062131833 -0.03483975 -0.062413372
0.06149928 -0.054673865 0.06184599 0.033524152 0.05148421 0.016485028 0.016981687 -0.019081349
-0.061516844 -0.061645847 -0.022869835 -0.06224679 -0.061205752 -0.014088643 0.061588526 -0.06214872
0.061429195 -0.05980256 0.061179128 -0.061887525 0.060177524 -0.06155951 -0.061820544 0.06120553
0.062172998 0.062207624 -0.040724214 -0.029134298 0.062052637 0.04835401 0.022490863 -0.030185347
0.0024924476 0.061539833 -0.06189483 -0.034037694 -0.061368633 0.062188506 0.062268935 -0.06190846
-0.06166085 0.0010191333 -0.0035273416 0.04476873 -0.024825234 -0.060163353 0.0611748 -0.017285267
0.060058232 -0.05481602 0.036296822 -0.013072901 0.042935617 -0.042479422 0.012222725 0.036024198
-0.037372313 -0.062375594 -0.062466677 -0.06239501 -0.06233574 0.062181268 0.0054655517 0.011272737
0.029221173 -0.062193453 0.06175045 -0.062457535 0.06184492 -0.021929847 -0.062390324 0.055527654
-0.061629508 -0.06115352 -0.062230658 -0.06177772 -0.06072922 0.06172603 0.06187462 -0.061669976
0.0616881 -0.059498675 0.061393365 -0.062095657 0.05982138 -0.061684057 -0.061329145 0.061423767
-0.06245495 -0.061992843 -0.05820815 -0.031295367 -0.06241604 0.061513 0.062187236 0.037799984
0.062389713 -0.06234976 0.0623455 -0.04583258 0.061984655 -0.062457122 -0.062438812 0.028227007
-0.062324177 -0.062301256 -0.06242161 -0.050229724 -0.062211644 0.06231757 0.0622665 -0.062396627
0.062207766 -0.06191215 0.06211256 -0.062376663 0.06158353 -0.062333427 -0.062335048 0.06212335
-0.0015794127 -0.0028547472 0.06235765 -0.046919014 0.05891976 0.055999804 0.024869127 -0.04195254
-0.038140405 0.062304176 -0.008242098 0.062298857 -0.060132865 -0.007791857 -0.023735166 -0.06224431
-0.06216406 -0.06221823 -0.06233078 -0.062431455 -0.062061824 0.062389825 0.06208158 -0.062395364
0.06200001 -0.061539836 0.061870836 -0.062293828 0.06135239 -0.06217932 -0.06227962 0.061884895
0.062334675 0.062453635 0.06238647 0.062463414 0.062396195 -0.062367655 -0.06222858 0.062493794
-0.0612144 0.062174425 -0.06211836 0.062375 -0.061925653 0.03478894 0.062475033 -0.0621259
0.06238601 0.06228077 0.06246321 0.0021435365 0.06221206 0.04388879 -0.06235458 -0.0005873779
-0.062305167 0.061997585 -0.06222494 0.062447704 -0.061641414 0.06239361 0.0384569 -0.062234197

_initial._model.2.bias f4 [16]
00000000: 85d7 5f3e 25e1 003d 62f4 2e3e 3849 513e
00000010: f90b f8bd fb83 f0bd a40e 67bc cac0 1ebd
00000020: a480 2abe de34 5abd d385 45bd 5dc3 c9bd
00000030: 514c 553e 7d6e a5bd ce0b 17be a5a7 903d
0.21859558 0.031464715 0.17085412 0.20438087 -0.121116586 -0.11743923 -0.014102612 -0.038758077
-0.16650635 -0.053273074 -0.048223328 -0.09851716 0.20829894 -0.080777146 -0.14750597 0.07063226

_func._module._model.0.weight f4 [16, 17]
00000000: e51b 683d 02dc 583d 3237 64bd 42ba 21bd
00000010: 6911 d9bc 076b 70bd 3db9 7d3d 7f64 7ebd
00000020: c110 163d 8bba b7bc 9540 7f3d 56fd 7fbd
00000030: 234d 1abd 4eb3 e73c 692c 783d 6fdc b8bc
00000040: bb95 79bd 87b6 723d eca0 44bd f1fe 7fbd
00000050: d662 973c ceff 7fbd 0275 7f3d d7fb 7fbd
00000060: 1db3 20bd 0b09 6fbd 1253 72bd 4907 713d
00000070: 40ff 7fbd b0fe 7fbd b6a2 413d a6c8 0b3b
00000080: effb 7f3d 121e 7c3d 7425 5dbd d186 7dbd
00000090: 9c31 b2bb 00eb e9bc 11ad 3c3d 3205 7d3d
000000a0: 8890 783d 2efe 7f3d 6dfc 7f3d dd2a 4a3d
000000b0: 1f8c 7fbd 05fe 7f3d 58f5 673d 72e1 713d
000000c0: 055c 69bd f4ff 9f3c 2b29 7e3d 0bf1 7a3d
000000d0: 44a6 f63b 3cea 7fbd d90d 053b 28ff 7fbd
000000e0: 27cb 3ebd bb59 563d 1a94 7c3d 8613 7dbd
000000f0: e495 db3b 8d02 693d 1da4 10bd 05da 53bd
00000100: 1afe 7f3d e8fe 7fbd 29fc 7f3d 5192 31bd
00000110: b979 7a3d 599f 853c 97ff 7fbd 2dfa 7fbd
00000120: 4192 a33b 5fe4 62bc acf9 7fbd dffa 7f3d
00000130: bbc6 693d 0000 80bd aab4 57bd 3d10 7fbd
00000140: 0e2d 75bd 3dec 55bd 6cfa 7fbd 58a5 c7bb
00000150: ebfc 7f3d b077 3fbd 7c97 79bd 3e10 77bd
00000160: 1cea 113d 6819 363c 23ff 4abd 86da 3cbd
00000170: acb5 f8bb fd7c 273d 7c76 54bd 0e3b 63bd
00000180: 92d3 6dbd 9abb 11bd 3427 b4bc 5fca 3c3d
00000190: 5c8a 3fbd c5b8 16bd 87a6 7f3d 0142 543d
000001a0: d7bf 7f3d a9c1 7f3d f9fe 7f3d ca92 6a3d
000001b0: f405 14bd 93ab 78bd b326 34bd e866 583d
000001c0: ce21 8fbc 3995 313c e4ce 1c3d f466 73bd
000001d0: 28be 65bd 7a93 6e3d 38fe 7fbd 1481 fbbc
000001e0: ddea 7f3d 65ec 6ebd b6fa 7fbd 1087 7f3d
000001f0: fdd9 783d e2e8 7c3d 1742 b8bc 61af eebc
00000200: a4e4 7d3d 64ff 7f3d d8fe 7f3d e4d2 7f3d
00000210: 1643 763d 4fa2 7f3d 54f5 663c c2bb 153c
00000220: 8978 7d3d 4a03 683d 82ff 7f3d 2d34 7f3d
00000230: f3fc 7f3d 14ed 7fbd 8128 7b3d 0c48 acbb
00000240: c728 7f3d 8c6e 333c bf9c 3d3d 25d0 7f3d
00000250: 1945 673d f1af 7dbd bc39 b63b b4a5 7cbd
00000260: 24b1 703c 0000 80bd ef1b 793d ffff 7f3d
00000270: 4493 653d 80ff 7fbd 8cfa 7fbd 0000 803d
00000280: f6ff 7fbd 0000 80bd 9175 06bd 89e3 19bd
00000290: 9bb9 0abd 0000 803d fd6a 083c 2119 653d
000002a0: 9a81 29bd e989 a63c 9285 7dbd d817 7f3d
000002b0: c893 acbc 0bba b23c f2b2 78bd 61e1 2e3d
000002c0: 3b65 6a3d bed8 633d a485 78bd aed5 70bd
000002d0: 3189 243d 1456 273d 8043 3dbd ecff 7fbd
000002e0: 6157 7d3d ffd3 81bc c93e 2ebd 2654 463c
000002f0: 1778 82bb 7aff 7fbd a7fb 7fbd caed 7fbd
00000300: 3331 aabc 5bf2 e73c 3afb 7f3d e4ba ae3c
00000310: d964 933b b4c2 66bd 1ac5 7dbd e17c 7fbd
00000320: d0fc 7f3d 6cb8 a6bc 2a86 633d acfc 7f3d
00000330: fd16 5c3d fc59 91bc e764 19bd 35bc 563d
00000340: 70f2 7c3d c69a 11bd f769 8ebc e86d 9f3c
00000350: d9fe 7f3d 9710 be3c 7e8f 77bd ffff 7f3d
00000360: 2540 b43b 475d 7ebd b590 f93b 77c2 7bbd
00000370: 39cf 13bd b32d 753d 2cfe 7f3d 2bda 7f3d
00000380: 2946 783d 5ef2 7f3d 81ab 0c3d 42ec 7f3d
00000390: 1c54 673d f1fc 17bd b8fe 7f3d c2c6 7c3d
000003a0: f470 65bd 4736 753d 5a42 f63c 1a60 7f3d
000003b0: 9c54 1c3d 05fc 7fbd 4e95 7ebd 91a7 7e3d
000003c0: 72f7 7f3d 14d9 7f3d 68ce 70bd fc26 1ebd
000003d0: d856 d43c 347a 7fbd 2515 3fbd d321 0c3d
000003e0: 28df 70bd 2d81 7abd aa32 0dbb 4ee7 7fbd
000003f0: 4157 0e3c 5ff0 7fbd 5f13 7e3d 2ea0 7c3d
0.056667227 0.05294419 -0.0557167 -0.03948427 -0.02649756 -0.05869582 0.061944235 -0.06210756
0.03663707 -0.022427818 0.06231745 -0.06249746 -0.03767122 0.028283741 0.060589228 -0.022566048
-0.06093381 0.059256103 -0.04800503 -0.06249899 0.018479746 -0.062499814 0.062367447 -0.062496033
-0.039233316 -0.058358233 -0.059161253 0.05884484 -0.062499285 -0.06249875 0.047274314 0.0021329313
0.062496122 0.061552115 -0.053990796 -0.06189615 -0.005438043 -0.02855444 0.046063486 0.061772533
0.06068471 0.062498264 0.06249659 0.049357284 -0.06238949 0.06249811 0.056630462 0.059052892
-0.056972522 0.019531228 0.06205098 0.061265033 0.0075271446 -0.062479243 0.0020302443 -0.062499195
-0.04658046 0.052331667 0.06166468 -0.061786197 0.006701218 0.0568872 -0.03531276 -0.05172159
0.06249819 -0.062498957 0.062496338 -0.04335243 0.06115124 0.016311334 -0.06249961 -0.062494446
0.0049918 -0.013848393 -0.062493965 0.06249511 0.05707429 -0.0625 -0.05266253 -0.062271345
-0.05985742 -0.052227248 -0.06249468 -0.0060927086 0.06249706 -0.046745002 -0.060935482 -0.060318224
0.035623655 0.011114456 -0.049559724 -0.046106838 -0.0075900164 0.040890682 -0.051870808 -0.05547624
-0.058063097 -0.0355793 -0.02199135 0.046091434 -0.04676281 -0.036797304 0.062414672 0.05182076
0.062438812 0.062440548 0.06249902 0.057268895 -0.03613849 -0.0607105 -0.04398222 0.052832514
-0.017472174 0.0108388 0.038283244 -0.059424356 -0.05608955 0.058246113 -0.0624983 -0.030701198
0.062479842 -0.058330912 -0.062494956 0.062384665 0.060754765 0.06174553 -0.022492452 -0.029136362
0.061985627 0.06249942 0.062498897 0.06245698 0.060122572 0.06241065 0.014096577 0.009139003
0.06188253 0.05664376 0.06249953 0.062305618 0.06249709 -0.062481955 0.061317924 -0.005257612
0.062294748 0.010951649 0.046292063 0.06245436 0.05646238 -0.06193537 0.0055610817 -0.061681464
0.014690671 -0.0625 0.060817655 0.062499996 0.056048647 -0.062499523 -0.0624948 0.0625
-0.062499963 -0.0625 -0.032826964 -0.03757051 -0.033868413 0.0625 0.008326289 0.055932168
-0.041383363 0.020329433 -0.06189496 0.0622786 -0.021066561 0.021817228 -0.06071753 0.042695407
0.057225447 0.055626623 -0.060674325 -0.05879753 0.0401699 0.040853575 -0.04620695 -0.062499925
0.06185091 -0.015848158 -0.042540345 0.0121050235 -0.003981601 -0.0624995 -0.062495854 -0.062482633
-0.020775413 0.028313806 0.062495448 0.02132935 0.004498106 -0.056338027 -0.06195555 -0.062374953
0.06249696 -0.020351611 0.05554787 0.062496826 0.05373286 -0.017743103 -0.037449744 0.052425582
0.061754644 -0.035547994 -0.017384512 0.019461587 0.0624989 0.02320127 -0.06043958 0.062499996
0.0055008107 -0.062100675 0.0076161274 -0.061464753 -0.036086295 0.059858035 0.062498257 0.06246392
0.060613785 0.062487 0.034343246 0.062481172 0.056476697 -0.037106458 0.062498778 0.061712988
-0.056015924 0.059866216 0.030060936 0.06234751 0.038166627 -0.062496204 -0.062154107 0.062171523
0.06249184 0.06246288 -0.058790594 -0.038611397 0.025920317 -0.0623724 -0.046651024 0.034211945
-0.05880657 -0.061158348 -0.002154509 -0.06247645 0.008687795 -0.062485095 0.062030192 0.061676197

_func._module._model.0.bias f4 [16]
00000000: 020e a2bd 16a6 7f3e f7f6 a73c bd9b 13be
00000010: 90b4 4cbd 31b7 a83c ff26 393e 1d3e b33d
00000020: 4c91 37be 05a7 363e 9275 7c3d 1af9 823d
00000030: de9a 823e 087e f73d d74c 413e 3a56 763e
-0.07912828 0.249657 0.020503504 -0.14414878 -0.049976885 0.020595165 0.18081282 0.087520815
-0.1792652 0.1783715 0.06163556 0.063951686 0.2550878 0.120845854 0.18876968 0.2405633

_func._module._model.2.weight f4 [32, 16]
00000000: 01ac ee3c 01fa fa3c 77fe ffbc f6e6 d3bc
00000010: 3a4a be3c 49ea ffbc f2f2 ff3c 291c febc
00000020: 8376 fd3c 8ea6 933c 05a9 ffbc 628b abbb
00000030: 9418 e43c a3a5 66bc d065 b93c e609 dc3c
00000040: 9643 d8bc af15 ffbc 5780 a1bc 24f9 ffbc
00000050: 546f ffbc f09a 28ba cd17 f33c 53cc ff3c
00000060: cd55 ff3c d5de c5bc c7e9 febc 6849 febc
00000070: ba27 e33c 0cd0 f63c 7e91 63bc 9947 d8bc
00000080: f5c4 e9bc 46c5 ffbc 6afe f33c c541 fabc
00000090: b7ae febc e01f fabc f126 ff3c 94bf 853c
000000a0: 86fe ff3c 43d1 f63c 083d f33c afe8 febc
000000b0: 5df7 ff3c f8f9 ff3c ec16 f03c 9714 93bc
000000c0: fcf6 ffbc 050e fdbc 2852 cbbb 149f 7d3c
000000d0: 01a5 b93c d2cb 7c3c 2375 f53c 2503 29bc
000000e0: f305 f63c aac2 9d3b c2b6 533c 6ffc a4bc
000000f0: 059c f73c 2dea f5bc 6eb3 fcbc 77f7 f03c
00000100: d33a 41bc 5358 9c3c b0d9 f3bc 3d91 febc
00000110: 73f7 ffbc 3c97 fabc f53e b1bc 2260 42bc
00000120: 8afc ff3c 3acc 58bc 5606 f2bc 4ef8 ffbc
00000130: 7664 d93c 366e a1bc 5e7d f03c ed67 c4bc
00000140: d7d8 bb3c 18e3 e2bc 5e5a ffbc 45bb ffbc
00000150: 8c5e 053b f331 683c 42d9 f53c 7bb9 e03c
00000160: 14c6 f03c 9dfc ffbc 1831 ffbc 44fc ffbc
00000170: 580f e1bc 2b14 ee3c d5f2 2a3b 1e7e e23c
00000180: 7ef6 eb3c 9079 ffbc 992f d2bc 3055 f7bc
00000190: a0ef fabc 313a 953c 02f8 ff3c b8fd ff3c
000001a0: beff ff3c 9280 ae3c cfb5 ffbc c9ae fdbc
000001b0: 9c58 96bc defa ff3c 30e4 f5bc d2f8 ff3c
000001c0: ac8f e93c 71d4 a43c 4a96 b6bc 1590 03bc
000001d0: d73f 26bc 0eb2 9ebc 06a4 e83c f0da ff3c
000001e0: 98c7 fd3c 67dc ffbc 3830 febc 7874 7cbc
000001f0: 707e 8f3c f0c4 f83c 96dc fbbc 614a 1b3c
00000200: 8e97 71bc e6f7 a6bc 576c e23c 3298 fe3c
00000210: 13f9 ff3c e213 d1bc f1e8 633c 4b47 fd3c
00000220: 59f8 eabc 8f55 35bc 1e7e f83c 1892 ea3c
00000230: fd0f 9dbc 99d1 9ebc 19ad aebc 5fcf 5dbc
00000240: ff1d e93b 2ddc 613b d1a0 f23c 9f1a 91bc
00000250: 2f3e d83c b4b4 4ebc 8ee9 42bc ed4e aebc
00000260: bbf8 ffbc b22e d03c 53b5 a1bc 3284 ba3c
00000270: 5b39 f43c eb0a ffbc 3d57 98bc a33a 89bb
00000280: 68d4 41bc 2749 e5bc 6bc9 a0bc 62c2 f33c
00000290: 8b5e 12ba 1fe7 53bc 3170 fb3c 6f9d 58bb
000002a0: 46af fb3c a402 ee3c b615 fabc d55a bc3c
000002b0: f67e bebc 5505 35bc e41d cabc e5d0 c63c
000002c0: 8805 b03c 7021 e9bc b05c 853c 2294 ac3c
000002d0: 49d9 fcbc 1953 1f3c 6cd9 fe3c 6874 ff3c
000002e0: 95f0 ef3c 86d5 ab3b fa25 573c e439 5b3b
000002f0: acbb ff3c e21f 19bc 4945 babc 15fe fe3c
00000300: c90d f63c b0b4 cb3a add1 0fbc d121 ff3c
00000310: d4d9 ff3c db36 7cbc 1f71 e13c 9662 6e3c
00000320: e996 fcbc 19f5 b63c 4bf3 ffbc 1037 7fbc
00000330: 3f23 ea3c 6f5d f5bb 5213 d03c 9d6a e93c
00000340: 6ada 663b 12ba f43c 8284 a3bc 6196 d73c
00000350: 85bf 4e3c 70c3 14bc f1a6 fb3a 07f1 6ebc
00000360: e2f8 8239 b1fb ff3c 754e ff3c d157 083c
00000370: e469 bd3b 8ea5 b73c a266 d139 d2ff eebc
00000380: 2d03 33bc f9ff ffbc 70df f63c 86fb ffbc
00000390: 366a 703b dbf1 ffbc 60ee ff3c 7cb8 f03b
000003a0: b8bf 6a3c 534d 153c a264 d53c 45d5 82bc
000003b0: 2fff ff3c 5f3f 26bb e00d 96bc 7e96 fe3c
000003c0: d440 8ebc 4129 96bc c3fe a6bb 72ff cabc
000003d0: 2fcc fe3c 17b5 5bbc ecca f83b 3e88 35bc
000003e0: 2bfd ffbc ec37 063a d373 c6bc 6db2 13bc
000003f0: 87cb ef3c 22d9 2cbc 7db9 d4bc 95fe fb3c
0.029134752 0.03063679 -0.031249268 -0.025866967 0.023228753 -0.031239646 0.031243775 -0.031019287
0.0309403 0.018023755 -0.031208524 -0.0052351216 0.027843751 -0.014077577 0.022631556 0.026860189
-0.026399415 -0.03113827 -0.019714518 -0.03124673 -0.031181015 -0.0006431779 0.029674435 0.031225359
0.031168843 -0.024154106 -0.031117333 -0.031040862 0.027728904 0.030128501 -0.0138896685 -0.026401328
-0.0285363 -0.031221997 0.0297844 -0.03054894 -0.03108917 -0.030532777 0.031146498 0.016326703
0.031249296 0.03012908 0.029692188 -0.031116812 0.031245882 0.031247124 0.029307805 -0.017954154
-0.031245701 -0.030890474 -0.006204862 0.015479822 0.022661688 0.015429454 0.029963082 -0.010315691
0.030032134 0.0048144655 0.012921991 -0.020139901 0.030225763 -0.03001889 -0.030847277 0.029414875
-0.01179381 0.019085085 -0.029766887 -0.031075114 -0.031245923 -0.030589692 -0.021636466 -0.01186374
0.03124835 -0.013232285 -0.029544037 -0.03124633 0.026537161 -0.019705873 0.029356655 -0.023975337
0.022930546 -0.027696177 -0.03117102 -0.031217227 0.0020350544 0.014172065 0.030010823 0.027432194
0.029391326 -0.031248385 -0.03115134 -0.03124822 -0.027473137 0.029062351 0.002608468 0.027648028
0.02880406 -0.031185895 -0.025657462 -0.030191988 -0.03063184 0.018216224 0.031246189 0.031248912
0.031249877 0.021301541 -0.031214623 -0.030967133 -0.0183528 0.031247552 -0.030016035 0.031246576
0.02851089 0.020120831 -0.02228846 -0.008029957 -0.010147057 -0.019372012 0.028398525 0.031232327
0.030978963 -0.031233026 -0.031028852 -0.015408628 0.017516345 0.030367345 -0.030744832 0.0094781825
-0.014745606 -0.020381879 0.027639551 0.031078432 0.031246698 -0.025522176 0.013910518 0.030917784
-0.028682875 -0.011067762 0.030333575 0.028634116 -0.019172663 -0.019387053 -0.021322774 -0.013538211
0.0071141715 0.003446351 0.029617699 -0.01771289 0.026396839 -0.012616325 -0.011896504 -0.02127787
-0.031246534 0.025412891 -0.019739782 0.022768114 0.029812505 -0.031133136 -0.018596286 -0.0041878982
-0.011830427 -0.027988983 -0.019627294 0.029755775 -0.0005583546 -0.0129335215 0.030693145 -0.0033052822
0.030723225 0.029053994 -0.03052793 0.02299253 -0.023253899 -0.011048635 -0.024672456 0.02426953
0.021487013 -0.028458327 0.016279548 0.021066729 -0.030865328 0.009724402 0.031109534 0.031183437
0.029289523 0.00524396 0.013131613 0.0033451254 0.031217419 -0.00934598 -0.022738116 0.031127015
0.03003587 0.001554152 -0.008778018 0.031144055 0.031231798 -0.015393938 0.02751976 0.014549872
-0.030833678 0.022333669 -0.03124394 -0.015577093 0.02858126 -0.007487945 0.025399838 0.02849322
0.00352254 0.029873881 -0.019960646 0.026316823 0.012618904 -0.009079799 0.0019199533 -0.014583833
0.00024980964 0.031247946 0.03116534 0.008321718 0.0057804454 0.02241781 0.00039940054 -0.029174719
-0.01092605 -0.031249987 0.03013584 -0.031247865 0.00366844 -0.031243255 0.031241596 0.007346211
0.014327936 0.009112674 0.026048962 -0.015970835 0.03124961 -0.0025367362 -0.018317163 0.03107762
-0.017364897 -0.018330218 -0.005096288 -0.024780009 0.031103222 -0.013409874 0.0075925495 -0.011079846
-0.03124865 0.00051200273 -0.024225151 -0.009014708 0.029271854 -0.010549815 -0.025967354 0.030761043

_func._module._model.2.bias f4 [32]
00000000: 2a46 05be 1355 903b c002 7dbd 08b0 f83d
00000010: 65d1 6abe 68e8 b53d 9b28 fb3d 4bff 84bd
00000020: 4cda 853d a389 ad3c c228 43be eaae a4bd
00000030: 83d8 363d 971c 16be b5ea 2b3e ff19 6abd
00000040: cb60 1bbe ab00 6e3e 03c1 803d e93b 90bd
00000050: e2db ec3d e9af f1bc eb8d 20bd 9019 0bbe
00000060: 1af8 073d 6c2b d83d a396 0ebe dbea a6bd
00000070: a68f 623e 9d96 4a3d f12b cbbd 77d4 0bbd
-0.13015047 0.004404673 -0.0617702 0.1214295 -0.2293144 0.088822186 0.12263604 -0.06494006
0.065357774 0.021183794 -0.19058517 -0.08041175 0.044640075 -0.14659344 0.16788752 -0.057153698
-0.15173642 0.23242442 0.06286814 -0.07042677 0.11565377 -0.029502826 -0.039197844 -0.1358397
0.033195592 0.10555157 -0.13924651 -0.08150264 0.2212511 0.049460042 -0.099204905 -0.03413817

_readout.weight f4 [1, 16]
00000000: d0e6 70be 3876 813e a0dc 51be fd38 52bd
00000010: bdf1 af3e 7f4c 0e3d 7233 86be a6ab 273f
00000020: c70c c83e 1e01 acbe 9fe7 053e 69cf 97be
00000030: 9825 b73d 3d75 a6bd bb2f 693e 214a 8d3e
-0.23525548 0.25285506 -0.20494318 -0.05132388 0.3436412 0.03474092 -0.26211125 0.6549629
0.39072248 -0.33594602 0.13076638 -0.2965043 0.08942717 -0.0812783 0.22772114 0.27595618
