model_saves/discriminator_backprop.pth (torch, 8699 bytes, 9 tensors)

_initial._model.0.weight f4 [16, 2]
-0.05455729 0.032941114 0.05455399 0.026020145 0.054558408 -0.062367417 -0.054556202 -0.058576517
-0.05455436 0.027334198 0.054554224 -0.062319472 0.054555636 0.061716903 -0.054558244 -0.06245144
0.05455607 -0.062439725 -0.054556694 -0.06234255 -0.054555126 0.062397048 -0.054554757 -0.026016722
0.054556526 0.02244644 -0.041113283 0.06204008 -0.054553974 0.0623908 0.054555327 -0.05415775
00000000: 7777 5fbd 43ed 063d 0174 5f3d 3328 d53c
00000010: a378 5f3d fa74 7fbd 5376 5fbd eeed 6fbd
00000020: 6574 5fbd f8eb df3c 4074 5f3d b442 7fbd
00000030: bb75 5f3d ddca 7c3d 7778 5fbd 15cd 7fbd
00000040: 3076 5f3d ccc0 7fbd d776 5fbd e75a 7fbd
00000050: 3275 5fbd 0c94 7f3d cf74 5fbd 0521 d5bc
00000060: aa76 5f3d 99e1 b73c 6766 28bd bd1d 7e3d
00000070: fd73 5fbd 7f8d 7f3d 6875 5f3d 84d4 5dbd

_initial._model.0.bias f4 [16]
-0.50467926 -0.051075947 0.65345496 -0.086919375 0.4973017 0.0583645 0.055963207 0.29776153
0.63904244 0.4002336 0.48431832 -0.55429465 0.6389982 -0.06172738 -0.021739766 0.5128326
00000000: a932 01bf 0335 51bd d348 273f c902 b2bd
00000010: 549e fe3e 9d0f 6f3d ad39 653d 3374 983e
00000020: 4998 233f 6beb cc3e 92f8 f73e 41e6 0dbf
00000030: 6395 233f d9d5 7cbd 9817 b2bc ff48 033f

_initial._model.2.weight f4 [16, 16]
0.048069615 -0.053789075 -0.06027354 -0.053615075 0.04807465 -0.057948038 0.024595618 0.04014922
-0.060328584 -0.06120126 -0.052490413 0.032270465 -0.04730501 -0.05696679 -0.05871004 0.042149335
-0.061987977 0.03189689 0.06196961 0.060107186 -0.03108412 0.06108305 0.0074836034 -0.020589694
0.061961666 0.061777733 0.0268318 -0.028765405 -0.05635409 -0.062210683 -0.062176794 -0.037864823
0.059270114 0.061077833 -0.06185898 0.002203849 -0.03883273 -0.061252866 0.01858193 0.019260488
-0.061855063 -0.061763227 0.0013683463 0.040426113 -0.02239393 0.06171029 0.0058724703 -0.033715826
0.03237524 -0.057929553 0.061711486 -0.028049234 -0.0015949575 -0.026938595 0.04221785 0.06211337
0.061730374 0.061996367 -0.059311982 -0.037295196 -0.054196127 -0.055310726 -0.05582234 0.060307708
0.043278873 -0.045420025 -0.034210138 0.059602913 0.013184143 0.061119523 -0.061558317 0.061936498
0.020625189 -0.03236318 -0.06040219 -0.050132673 0.03874703 -0.060037754 -0.062062696 -0.039259262
0.062197663 -0.032121643 -0.061491027 -0.006074565 0.05425398 -0.057581022 0.06078567 0.030905915
0.024451138 -0.061008953 0.060483083 0.056637354 -0.040327642 -0.006679651 0.06146689 -0.05849354
-0.022688538 -0.018590683 -0.003567828 0.030762706 -0.044779263 0.013098998 0.060990255 0.03075469
-0.06188353 -0.06161739 0.050430756 -0.050423004 -0.04128311 0.061977483 0.061683126 -0.059202313
0.0039315606 -0.05175344 -0.056963973 -0.062106017 -0.044569064 -0.062007666 -0.04870737 -0.061433386
-0.0573815 0.016401576 -0.01635097 -0.06060958 0.058715634 -0.05300548 0.03439432 -0.027895926
0.044209972 -0.009772199 0.056441583 0.058320105 0.022058012 -0.03944172 0.057246365 0.061351486
0.03696665 -0.04950686 0.05221221 -0.044036556 0.047628954 -0.034433667 0.058644388 0.056540154
-0.051167056 -0.052719146 -0.048152436 -0.028042128 -0.05928857 -0.029223679 -0.03756436 -0.0387099
-0.048116483 0.06209198 -0.05835854 -0.041095786 0.04417503 -0.0406597 -0.05075367 -0.047248792
0.049079966 0.053345885 -0.06105969 -0.033741977 -0.04622017 -0.059190422 -0.051258158 -0.06176435
0.044982426 -0.027896285 0.050720833 -0.060401656 -0.04342891 -0.056091104 0.044973873 0.043823525
0.00085481734 -0.060180057 -0.019541278 -0.012416409 0.03753011 0.030140977 -0.015677849 0.061949756
0.06207446 0.062021147 -0.061284453 0.05291474 0.030979065 -0.062324084 -0.017891522 0.037143674
0.043565694 0.034562163 0.0075841625 0.054765176 -0.022828065 0.058041524 -0.06063465 0.06046552
-0.04104169 0.061257385 -0.060664598 0.05146136 0.048304465 0.009378933 0.018775156 0.059479922
0.05890866 0.060323164 0.019787844 0.027190221 0.043403197 0.024545185 -0.038977183 -0.0623315
-0.062188886 0.016021298 -0.039389465 0.04367317 -0.044161484 -0.04295172 0.059556708 -0.06188014
0.056152776 0.012066365 0.016576294 0.036277816 0.042515174 0.031767834 0.061988678 0.022459853
-0.06160457 -0.051964577 0.05089129 -0.04883501 0.04279467 -0.0407709 0.06211019 -0.05657727
-0.035836667 0.046667904 0.018585633 -0.06058854 -0.05046977 -0.054391928 0.016788207 0.025260273
-0.05276142 0.019755786 0.04776839 0.043903958 -0.048484113 0.033550024 0.04234584 -0.055971265
00000000: a5e4 443d ef51 5cbd 63e1 76bd 7b9b 5bbd
00000010: ede9 443d ec5a 6dbd c07c c93c 8273 243d
00000020: 1b1b 77bd 2cae 7abd 3000 57bd 092e 043d
00000030: e6c2 41bd 0256 69bd f079 70bd c8a4 2c3d
00000040: 1be7 7dbd 50a6 023d d9d3 7d3d f432 763d
00000050: 20a4 febc 3832 7a3d 0439 f53b b8ab a8bc
00000060: 84cb 7d3d a60a 7d3d 5dce db3c 6da5 ebbc
00000070: 8cd3 66bd a1d0 7ebd 18ad 7ebd 2518 1bbd
00000080: 38c5 723d c02c 7a3d d85f 7dbd 736e 103b
00000090: 120f 1fbd 49e4 7abd 2239 983c 2cc8 9d3c
000000a0: bc5b 7dbd 70fb 7cbd 155a b33a da95 253d
000000b0: 7a73 b7bc eec3 7c3d da6d c03b 9b19 0abd
000000c0: e69b 043d 8a47 6dbd 2fc5 7c3d 82c7 e5bc
000000d0: e50d d1ba 54ae dcbc a0ec 2c3d 976a 7e3d
000000e0: fdd8 7c3d e7ef 7d3d 1ff1 72bd d9c2 18bd
000000f0: c2fc 5dbd 808d 62bd f7a5 64bd 3705 773d
00000100: 3045 313d 590a 3abd ee1f 0cbd 2f22 743d
00000110: 4e02 583c 7758 7a3d 9324 7cbd 20b1 7d3d
00000120: 28f6 a83c 418f 04bd 4968 77bd eb57 4dbd
00000130: 35b5 1e3d 26ea 75bd 7435 7ebd 52ce 20bd
00000140: fac2 7e3d fc91 03bd 04de 7bbd 250d c7bb
00000150: 6c39 5e3d 14da 6bbd 65fa 783d 672e fd3c
00000160: c14d c83c 86e4 79bd 1cbd 773d 92fc 673d
00000170: 992e 25bd f9e0 dabb b5c4 7b3d ec96 6fbd
00000180: 50dd b9bc 7d4b 98bc 39d2 69bb 1202 fc3c
00000190: 766a 37bd 2e9d 563c ebd0 793d 42f1 fb3c
000001a0: 9679 7dbd 8462 7cbd 7b90 4e3d 5a88 4ebd
000001b0: 7a18 29bd 1adc 7d3d 72a7 7c3d 207e 72bd
000001c0: 52d4 803b 6afb 53bd 0e53 69bd e162 7ebd
000001d0: 0d8e 36bd c0fb 7dbd 6181 47bd 93a1 7bbd
000001e0: dd08 6bbd 995c 863c 78f2 85bc c041 78bd
000001f0: ce7f 703d 461c 59bd 0fe1 0c3d ff85 e4bc
00000200: 8415 353d 931b 20bc 4a2f 673d 10e1 6e3d
00000210: 01b3 b43c a48d 21bd 2a7b 6a3d b24b 7b3d
00000220: 586a 173d b5c7 4abd 78dc 553d ad5f 34bd
00000230: 9416 433d 510a 0dbd 1935 703d a696 673d
00000240: 8c94 51bd 08f0 57bd 7d3b 45bd 9bb8 e5bc
00000250: 92d8 72bd 7f66 efbc 16dd 19bd 468e 1ebd
00000260: ca15 45bd 2954 7e3d 5d09 6fbd 0e54 28bd
00000270: e0f0 343d c98a 26bd 15e3 4fbd f387 41bd
00000280: 1308 493d 3781 5a3d ba19 7abd 0735 0abd
00000290: 5c51 3dbd a871 72bd 13f4 51bd 9dfc 7cbd
000002a0: 7e3f 383d c086 e4bc a6c0 4f3d ba67 77bd
000002b0: 83e2 31bd c9bf 65bd 8636 383d 4c80 333d
000002c0: d215 603a 5d7f 76bd 0815 a0bc 326e 4bbc
000002d0: 2cb9 193d 36ea f63c d56e 80bc 07bf 7d3d
000002e0: ca41 7e3d e309 7e3d 6805 7bbd 20bd 583d
000002f0: cfc7 fd3c 8a47 7fbd 3e91 92bc f723 183d
00000300: f171 323d 0e91 0d3d 9184 f83b 7351 603d
00000310: ec01 bbbc f3bc 6d3d 0a5c 78bd b1aa 773d
00000320: 551b 28bd 06e9 7a3d 717b 78bd 26c9 523d
00000330: e7da 453d 19aa 193c 5bce 993c 38a1 733d
00000340: 354a 713d 6c15 773d 1e1a a23c 07be de3c
00000350: 8dc7 313d fc12 c93c 8aa6 1fbd 514f 7fbd
00000360: c6b9 7ebd 193f 833c d956 21bd a3e2 323d
00000370: ace2 34bd 25ee 2fbd bcf1 733d 0876 7dbd
00000380: 7400 663d 01b2 453c 02cb 873c 0c98 143d
00000390: 6424 2e3d fd1e 023d d7e7 7d3d bafd b73c
000003a0: 1355 7cbd cfd8 54bd 6373 503d 3807 48bd
000003b0: 7749 2f3d 63ff 26bd 4167 7e3d 91bd 67bd
000003c0: 78c9 12bd d826 3f3d e640 983c b02b 78bd
000003d0: 64b9 4ebd 12ca 5ebd 6c87 893c a2ee ce3c
000003e0: 5c1c 58bd e3d6 a13c caa8 433d a3d4 333d
000003f0: 4797 46bd c06b 093d d572 2d3d 2042 65bd

_initial._model.2.bias f4 [16]
0.20032784 -0.022690924 0.2387965 -0.07833563 -0.09775604 0.15244365 0.0021292919 0.16212918
-0.116998814 0.034703117 -0.016079152 0.0284629 -0.052335616 -0.17114006 -0.11224613 0.08648204
00000000: be22 4d3e 51e2 b9bc 1287 743e 6e6e a0bd
00000010: 5234 c8bd 301a 1c3e 978b 0b3b 3105 263e
00000020: 139d efbd db24 0e3d 6db8 83bc 072b e93c
00000030: df5d 56bd 573f 2fbe 4de1 e5bd 7f1d b13d

_func._module._model.0.weight f4 [16, 17]
-0.054879297 0.040505767 0.059465975 0.05082492 0.05358028 0.027203733 0.058032703 -0.021246212
-0.04876633 -0.009101216 -0.056714192 -0.0056552812 -0.028747005 0.05039703 0.057889204 0.055143204
-0.05425213 -0.015559097 0.061326023 0.03851388 0.062121633 -0.062024508 0.06071914 0.02663839
0.03867277 0.062038492 -0.03836279 -0.019176913 0.06145885 0.057919186 -0.028775293 -0.053539567
0.05739386 0.062071256 -0.055362586 -0.005815764 0.059622664 0.03681649 0.050927512 0.0036029723
-0.0071318178 0.029721752 -0.050559897 -0.05602029 -0.055872176 -0.0074779377 -0.05506381 0.0565617
0.056272484 0.05965429 -0.05451825 -0.053212296 0.022718355 0.04752743 -0.025554355 0.013949395
0.0056439075 -0.048490983 -0.034167808 -0.0466216 -0.057488702 -0.058383122 -0.013019775 0.058874816
0.059901305 0.008197077 0.055828404 -0.050558113 0.049658623 -0.06183908 0.0423524 0.056732267
0.061432324 0.0076507516 0.061713263 0.01341376 -0.0514753 -0.032657344 0.06016125 -0.06193739
-0.051626306 -0.059054356 -0.03244652 0.031676408 0.029035361 0.05141787 -0.0063741133 -0.06041922
0.054609913 0.054498933 -0.022026828 0.061292417 0.059433773 0.013660115 0.054079805 0.044014145
-0.031787317 -0.02403068 -0.057424195 -0.05194268 -0.05537313 -0.026535746 0.006654971 0.01434538
0.046291504 -0.059345525 -0.0137993395 -0.05339681 -0.05284262 -0.05318849 -0.053922527 -0.045332912
-0.05143742 -0.047621004 0.017988132 -0.060874842 -0.05779126 0.047416665 -0.0473724 0.05150804
-0.062320475 -0.05814706 -0.055587053 -0.02567347 -0.0336082 0.058265675 0.058490682 -0.061854515
0.058020465 0.05927739 -0.06100879 0.029782511 -0.060144 -0.051496655 -0.024125494 -0.057449013
0.06180901 0.05897307 0.055605702 0.038955122 -0.02846192 0.059463866 -0.060410857 -0.060557026
0.022517163 -0.046602905 -0.05880643 0.059361268 -0.024859274 0.047951933 -0.007918113 0.032314017
0.06113193 0.04719875 -0.061249193 0.048951752 0.0578212 0.061023004 -0.0597698 0.014460439
0.060873155 -0.06050049 0.05589863 0.059647 -0.061753955 -0.059864067 -0.058545172 -0.055299565
-0.027224328 -0.061689787 -0.032598384 0.060109712 -0.058440734 0.053616565 -0.059527677 -0.05827561
0.058655716 0.05973601 0.060036972 -0.03464301 -0.056374826 0.056886893 -0.056629952 -0.05260608
0.05152134 0.015540551 0.057989303 -0.018476216 -0.031492766 -0.05914764 0.047627404 -0.009413181
-0.040971786 0.050085753 0.058318287 0.052878782 -0.040453967 -0.051410522 0.05379234 -0.057043638
-0.05599708 0.000950695 0.032382052 -0.043854788 0.06181416 0.058621988 0.05545378 -0.040225048
-0.0076522054 0.059751686 -0.058590356 -0.058972463 0.059543326 -0.046590704 -0.0573927 0.058636326
0.05093559 0.046299066 -0.042362366 -0.0044849264 0.061081067 0.009610579 0.043975685 0.014744782
0.049492843 -0.051843297 -0.050211765 -0.02503412 0.032378398 0.060557023 0.0059315832 -0.061380602
0.061169192 -0.05218018 -0.023118628 0.04776019 -0.018649906 0.061360914 0.06169318 0.060485255
0.05772369 -0.041015156 -0.027986133 0.017254053 -0.05923738 -0.060591426 0.061072975 -0.038855664
-0.05728469 0.06150356 0.051357046 0.0475973 0.04705592 -0.06099846 0.059963167 -0.05492482
00000000: 1dc9 60bd 60e9 253d 9892 733d cb2d 503d
00000010: ff76 5b3d 5dda de3c b3b3 6d3d 890c aebc
00000020: 34bf 47bd 441d 15bc 244d 68bd f04f b9bb
00000030: d77e ebbc 1e6d 4e3d 3b1d 6d3d d7dd 613d
00000040: 7b37 5ebd 95eb 7ebc ff30 7b3d bbc0 1d3d
00000050: 4173 7e3d 690d 7ebd a2b4 783d c138 da3c
00000060: 5767 1e3d 131c 7e3d 4d22 1dbd e718 9dbc
00000070: 46bc 7b3d ab3c 6d3d 2aba ebbc 4e4c 5bbd
00000080: d315 6b3d 6e3e 7e3d e1c3 62bd 2a92 bebb
00000090: e536 743d e3cc 163d 5e99 503d d81f 6c3b
000000a0: 06b2 e9bb 087b f33c e517 4fbd 8875 65bd
000000b0: 39da 64bd 7d09 f5bb 978a 61bd 3ead 673d
000000c0: fa7d 663d 0f58 743d 874e 5fbd 23f5 59bd
000000d0: d81b ba3c 1fac 423d 5e57 d1bc 018c 643c
000000e0: 87f0 b83b 7b9e 46bd 8bf3 0bbd 4af6 3ebd
000000f0: 4679 6bbd 2423 6fbd e550 55bc b826 713d
00000100: 125b 753d 084d 063c 53ac 643d 0616 4fbd
00000110: d766 4b3d fa4a 7dbd b679 2d3d 1860 683d
00000120: 76a0 7b3d 28b3 fa3b 0cc7 7c3d 63c5 5b3c
00000130: c4d7 52bd b5c3 05bd a56b 763d 10b2 7dbd
00000140: 1b76 53bd fbe2 71bd a4e6 04bd 1fbf 013d
00000150: 91db ed3c 8b9b 523d f0dd d0bb 257a 77bd
00000160: a5ae 5f3d 463a 5f3d 9b71 b4bc c20d 7b3d
00000170: d470 733d adce 5f3c c982 5d3d 2d48 343d
00000180: 6b33 02bd fddb c4bc a235 6bbd d9c1 54bd
00000190: efce 62bd 7e61 d9bc f111 da3b e208 6b3c
000001a0: 299c 3d3d 4b14 73bd a016 62bc 9db6 5abd
000001b0: 8171 58bd 2ddc 59bd dedd 5cbd 01af 39bd
000001c0: 0bb0 52bd 3e0e 43bd d95b 933c e657 79bd
000001d0: 87b6 6cbd fa37 423d 9009 42bd 18fa 523d
000001e0: c143 7fbd 9d2b 6ebd 40af 63bd 2b51 d2bc
000001f0: c0a8 09bd fda7 6e3d ed93 6f3d 295b 7dbd
00000200: dea6 6d3d d9cc 723d 5ae4 79bd 74fa f33c
00000210: 8e59 76bd 28ee 52bd d4a2 c5bc a84f 6bbd
00000220: 722b 7d3d bf8d 713d cec2 633d 688f 1f3d
00000230: f928 e9bc 6290 733d 6071 77bd a50a 78bd
00000240: ea75 b83c b0e2 3ebd 03df 70bd cd24 733d
00000250: ada5 cbbc 3f69 443d f9ba 01bc b45b 043d
00000260: 7a65 7a3d 7a53 413d 6fe0 7abd a281 483d
00000270: ecd5 6c3d 42f3 793d 2ed1 74bd 7aeb 6c3c
00000280: 2156 793d 5dcf 77bd f6f5 643d 6a50 743d
00000290: b7f1 7cbd 0634 75bd 10cd 6fbd cc81 62bd
000002a0: 8e05 dfbc 6eae 7cbd e285 05bd 9a35 763d
000002b0: 8d5f 6fbd 0b9d 5b3d 4bd3 73bd 68b2 6ebd
000002c0: fa40 703d bfad 743d 54e9 753d d4e5 0dbd
000002d0: 4ae9 66bd 3b02 693d cff4 67bd 7979 57bd
000002e0: 0a08 533d cc9d 7e3c 3186 6d3d 6f5b 97bc
000002f0: 8ffe 00bd cc44 72bd f414 433d be39 1abc
00000300: 08d2 27bd b826 4d3d 28df 6e3d 6c97 583d
00000310: 0fb3 25bd d793 52bd 5b55 5c3d 97a6 69bd
00000320: 325d 65bd 1038 793a 0ba3 043d 14a1 33bd
00000330: d830 7d3d 9c1d 703d 8123 633d 05c3 24bd
00000340: 5abf fabb 2fbe 743d 71fc 6fbd 1c8d 71bd
00000350: b4e3 733d e5d5 3ebd 9c14 6bbd a52c 703d
00000360: d6a1 503d 17a4 3d3d 2984 2dbd 4af6 92bb
00000370: 2430 7a3d b175 1d3c d91f 343d 1994 713c
00000380: 02b9 4a3d a359 54bd daaa 4dbd 5b14 cdbc
00000390: 369f 043d a40a 783d ba5d c23b 3a6a 7bbd
000003a0: 8c8c 7a3d e2ba 55bd 4763 bdbc 30a0 433d
000003b0: b0c7 98bc 9555 7b3d fdb1 7c3d 63bf 773d
000003c0: ad6f 6c3d 82ff 27bd 2d43 e5bc 5f58 8d3c
000003d0: e5a2 72bd b72e 78bd a827 7a3d 1e27 1fbd
000003e0: 5aa3 6abd 28eb 7b3d c45b 523d 63f5 423d
000003f0: b5bd 403d 85d9 79bd f09b 753d d9f8 60bd

_func._module._model.0.bias f4 [16]
0.14433295 0.123332694 0.033981573 0.031166833 -0.17390436 0.32453805 0.05845268 0.0024840438
0.18130834 0.19075918 0.078722365 0.12672564 0.104920335 0.20426615 0.007319541 -0.24334623
00000000: 04cc 133e da95 fc3d 4330 0b3d 9651 ff3c
00000010: fc13 32be da29 a63e 146c 6f3d 57cb 223b
00000020: e5a8 393e 6056 433e 3139 a13d 5ec4 013e
00000030: 79e0 d63d 252b 513e c3d8 ef3b c12f 79be

_func._module._model.2.weight f4 [32, 16]
0.015603401 0.013751883 -0.030123994 0.015653932 -0.029558169 -0.027097877 -0.02387784 -0.021695731
0.030056668 -0.028638603 0.025373628 -0.0013056502 0.030579695 0.026342882 0.03053101 0.014570419
0.01688157 -0.008450186 0.018176828 0.025139479 -0.008576583 -0.018749885 -0.0078082895 0.02801918
0.020935336 -0.018882053 0.015538109 0.019871961 0.010519274 0.02695057 0.005630844 0.023347527
0.015511138 0.029472198 0.014883978 -0.028145593 -0.027953979 -0.017514024 -0.026003756 0.024702534
0.030604623 -0.026481435 0.01160052 -0.029721936 0.030515881 -0.0016625521 0.03037693 0.014658885
0.012867452 -0.021166436 0.013478368 0.024284642 -0.012088546 -0.015587559 0.030565877 -0.0015645147
0.011219062 -0.016982002 -0.029569142 -0.025107136 0.011836853 -0.030556625 -0.015877143 0.018141799
-0.01991609 -0.024709955 0.02673453 -0.021713123 0.021071743 -0.021743594 0.013576481 0.013815395
0.01573782 0.019875169 0.029811261 -0.011718993 0.008076863 0.027044674 -0.022728804 0.026907155
-0.017612323 -0.024101984 -0.020517088 -0.024510667 0.027865704 0.018474001 -0.014982382 0.02546704
-0.022532642 0.02912556 0.018637577 0.029807245 -0.022989592 0.028394565 -0.012824543 -0.020854468
-0.022040097 -0.023621485 -0.019663509 -0.026802156 0.012600559 -0.008440141 -0.009924762 0.025148245
-0.029226124 0.02943355 -0.020963412 -0.010949946 -0.030388009 -0.0239242 -0.030448431 -0.021486245
-0.019024177 0.0064775776 -0.024004873 -0.027594911 -0.0033815373 -0.014055434 0.0102246115 -0.012805364
0.015145905 0.0014511801 -0.0043764007 -0.014965295 -0.023847584 -0.026637902 -0.026368273 -0.020890405
-0.027950564 0.03002819 -0.00572577 0.0053358334 -0.0038366572 0.014528787 -0.015841465 -0.014207972
0.020094516 -0.0232416 -0.0021705918 0.014385753 0.029802622 -0.016431771 0.029472116 -0.0058982978
0.010456209 -0.030208379 0.01508896 0.021577585 -0.014311888 -0.013001943 0.03036361 -0.0008471658
-0.028013097 -0.019594105 0.0029813345 0.01437544 0.0062625706 0.0038700772 -0.025207657 0.016842479
0.030107263 0.016847817 0.024530223 0.028875588 0.028953118 0.022037864 0.02128404 0.016525336
-0.030745927 0.027089274 -0.005796047 -0.017303664 -0.030830145 -0.0014580433 -0.030662663 0.024102718
-0.0155907385 0.019972363 -0.019508282 -0.024535574 -0.024077766 0.017625237 -0.029817108 -0.0010960306
-0.016536258 0.0057302057 -0.026076946 -0.010580871 0.0040829517 -0.026261123 0.018714758 -0.019284574
0.0021260735 0.007074878 0.02861814 0.028120877 0.028571311 0.017973965 -0.024520041 0.01660814
-0.030481461 0.026057161 0.024055893 0.029279673 -0.030322462 0.02028231 -0.030073699 0.02834072
-0.013205089 0.0075836936 -0.01825306 -0.016813248 0.0066754785 0.016562631 -0.020487884 0.004087329
0.019562932 0.024971088 0.0062021967 0.02522819 0.023882352 0.011747234 0.023513377 -0.013444735
-0.030009639 0.025482021 -0.028762411 -0.02519632 -0.008475213 -0.028800763 -0.019180156 -0.022972714
0.028958037 -0.028927086 0.025619349 0.0132452 0.03030537 0.02568802 0.03031863 -0.029591644
0.018293919 -0.029225828 0.021995846 -0.013929811 -0.009764928 0.004176896 0.027983902 -0.0014769363
0.019064019 0.025467446 0.01983546 0.021070598 0.009749519 0.023725923 0.0053906464 -0.019873224
00000000: 68a5 7f3c 944f 613c 98c6 f6bc ad3c 803c
00000010: f923 f2bc 5efc ddbc 769b c3bc 3fbb b1bc
00000020: 6739 f63c 819b eabc 5bdc cf3c 5a22 abba
00000030: 4582 fa3c 07cd d73c 2b1c fa3c c4b8 6e3c
00000040: 384b 8a3c a672 0abc 92e7 943c 4ff1 cd3c
00000050: cc84 0cbc 5c99 99bc aedc ffbb 7b88 e53c
00000060: 9580 ab3c 89ae 9abc 8d93 7e3c 86ca a23c
00000070: 0859 2c3c 71c7 dc3c f182 b83b 5043 bf3c
00000080: 6e22 7e3c ae6f f13c eedb 733c 9691 e6bc
00000090: beff e4bc 9279 8fbc d405 d5bc f85c ca3c
000000a0: 8cb6 fa3c 98ef d8bc 1c10 3e3c 6b7b f3bc
000000b0: 71fc f93c fee9 d9ba 0ad9 f83c d22b 703c
000000c0: 01d2 523c 3c65 adbc 5fd4 5c3c 96f0 c63c
000000d0: 090f 46bc f662 7fbc 4a65 fa3c 6710 cdba
000000e0: 28d0 373c d71d 8bbc fc3a f2bc 7bad cdbc
000000f0: 5cef 413c e351 fabc c810 82bc 1c9e 943c
00000100: 1127 a3bc 886c cabc 6002 db3c b8df b1bc
00000110: a69e ac3c 9f1f b2bc e36f 5e3c f759 623c
00000120: 9aec 803c 40d1 a23c bf36 f43c 0501 40bc
00000130: d254 043c cb8c dd3c c231 babc 656c dc3c
00000140: b847 90bc 8671 c5bc 7413 a8bc 98ca c8bc
00000150: 9e46 e43c ca56 973c aa78 75bc 41a0 d03c
00000160: 6096 b8bc ba98 ee3c d5ad 983c 532e f43c
00000170: ab54 bcbc b89b e83c 081e 52bc fdd6 aabc
00000180: 6f8d b4bc d881 c1bc 5e15 a1bc 3290 dbbc
00000190: 9372 4e3c 8448 0abc 789b 22bc b103 ce3c
000001a0: a06b efbc a11e f13c 76bb abbc 6767 33bc
000001b0: 46f0 f8bc affc c3bc fd6e f9bc ec03 b0bc
000001c0: 97d8 9bbc dc41 d43b dea5 c4bc b90e e2bc
000001d0: c89c 5dbb c348 66bc 2185 273c 97cd 51bc
000001e0: 8826 783c 8635 be3a e967 8fbb ff30 75bc
000001f0: 025c c3bc bb37 dabc 4702 d8bc 5b22 abbc
00000200: 95f8 e4bc aefd f53c 3d9f bbbb 37d8 ae3b
00000210: 6d70 7bbb 260a 6e3c f6c5 81bc 8ec8 68bc
00000220: 419d a43c 2b65 bebc 7d40 0ebb 39b2 6b3c
00000230: a124 f43c ec9b 86bc 826f f13c 8246 c1bb
00000240: 8550 2b3c 9077 f7bc af37 773c 7ac3 b03c
00000250: 697c 6abc 1a06 55bc 1bbd f83c 5614 5eba
00000260: b97b e5bc d183 a0bc 7e62 433b f786 6b3c
00000270: 4036 cd3b 1fa1 7d3b 4a80 cebc 3df9 893c
00000280: 82a3 f63c 6f04 8a3c 9bf3 c83c 7f8c ec3c
00000290: 172f ed3c c088 b43c de5b ae3c 2460 873c
000002a0: e2de fbbc 53ea dd3c c4ec bdbb 6ac0 8dbc
000002b0: 808f fcbc d11b bfba 4430 fbbc 1073 c53c
000002c0: 4c70 7fbc 159d a33c d5cf 9fbc d4fe c8bc
000002d0: bc3e c5bc cd62 903c 0243 f4bc afa8 8fba
000002e0: 0c77 87bc 73c4 bb3b 529f d5bc 645b 2dbc
000002f0: 48ca 853b 9121 d7bc b14f 993c affa 9dbc
00000300: 9855 0b3b 61d4 e73b 9770 ea3c c15d e63c
00000310: 620e ea3c 233e 933c 41de c8bc cb0d 883c
00000320: 42b4 f9bc d475 d53c dd10 c53c eddb ef3c
00000330: d066 f8bc 1627 a63c 1e5d f6bc cc2a e83c
00000340: 285a 58bc a280 f83b 7187 95bc f0bb 89bc
00000350: f9bd da3b 5bae 873c 35d6 a7bc 00ef 853b
00000360: 7142 a03c 2b90 cc3c cc3b cb3b 59ab ce3c
00000370: eca4 c33c 7877 403c 209f c03c 4e47 5cbc
00000380: c6d6 f5bc acbf d03c 269f ebbc 8368 cebc
00000390: 9fdb 0abc 94ef ebbc b41f 9dbc 4631 bcbc
000003a0: 6839 ed3c 7ff8 ecbc abdf d13c 6502 593c
000003b0: f842 f83c af6f d23c c75e f83c 2d6a f2bc
000003c0: 21dd 953c 016b efbc a230 b43c dd39 64bc
000003d0: 14fd 1fbc 58de 883b 7f3e e53c c295 c1ba
000003e0: 252c 9c3c 1ba1 d03c fa7d a23c 3f9c ac3c
000003f0: 72bc 1f3c de5c c23c 05a4 b03b 2ccd a2bc

_func._module._model.2.bias f4 [32]
-0.006404665 0.13132492 -0.1011528 0.0443246 -0.11331587 0.3492845 -0.18746398 -0.26992726
0.08249874 -0.015460374 -0.087069795 0.1160146 -0.17081264 0.12941447 0.035049215 0.22534597
0.22213554 0.09483141 0.03500699 0.17429772 0.056793567 0.013301072 0.03182657 -0.18455945
-0.15694211 -0.111875795 -0.15924878 -0.12499167 -0.21334754 0.1633936 0.23192874 0.10310291
00000000: 39de d1bb 0a7a 063e 3329 cfbd b68d 353d
00000010: 2712 e8bd 6bd5 b23e 8ff6 3fbe e833 8abe
00000020: 19f5 a83d 824d 7dbc a651 b2bd 1099 ed3d
00000030: 82e9 2ebe 3a85 043e c48f 0f3d 18c1 663e
00000040: 8077 633e f836 c23d 7d63 0f3d 1a7b 323e
00000050: 5fa0 683d bdec 593c 945c 023d 27fd 3cbe
00000060: 6fb5 20be 231f e5bd 1d12 23be a2fb ffbd
00000070: c777 5abe a750 273e ba7e 6d3e 9e27 d33d

_readout.weight f4 [1, 16]
-0.23388232 -0.054368224 -0.04003764 0.021633888 -0.14370255 0.25075 0.00089255604 -0.24361782
0.15066193 0.17496751 -0.2820315 -0.11794027 -0.08200242 -0.36696893 -0.19154409 -0.19464739
00000000: d97e 6fbe 37b1 5ebd 82fe 23bd 8d39 b13c
00000010: c326 13be 4e62 803e 6cfa 693a f376 79be
00000020: 1f47 1a3e af2a 333e 6f66 90be ab8a f1bd
00000030: e3f0 a7bd 5ae3 bbbe 2224 44be a551 47be
