model_saves/discriminator_midAdjoint.pth (torch, 8723 bytes, 9 tensors)

_initial._model.0.weight f4 [16, 2]
000000 33 f9 64 bd 19 6b 0c 3d a8 f5 64 3d 17 f7 dc 3c
       -0.055901717 0.034281824 0.05589834 0.02697329
000010 66 fa 64 3d f4 2f 7f bd 08 f8 64 bd fd e4 67 bd
       0.05590286 -0.06230159 -0.055900604 -0.056614865
000020 0e f6 64 bd 14 e5 b7 3c e9 f5 64 3d 8d e4 7e bd
       -0.05589872 0.0224481 0.05589858 -0.06222968
000030 6c f7 64 3d 84 31 7b 3d 39 fa 64 bd e3 b4 7f bd
       0.055900022 0.06132652 -0.055902693 -0.062428366
000040 e4 f7 64 3d a7 a3 7f bd 8f f8 64 bd 48 b8 7f bd
       0.05590047 -0.06241193 -0.055901106 -0.062431604
000050 e0 f6 64 bd ae 60 7f 3d 7b f6 64 bd 7c 4d f1 bc
       -0.0558995 0.06234806 -0.055899125 -0.029455893
000060 61 f8 64 3d 38 81 db 3c 72 8d 2c bd 13 2d 7d 3d
       0.055900935 0.026795015 -0.04212708 0.061810564
000070 a4 f5 64 bd 85 55 7f 3d 17 f7 64 3d c9 ea 55 bd
       -0.055898324 0.062337417 0.055899706 -0.05222586

_initial._model.0.bias f4 [16]
000000 e1 60 04 bf 74 5c 56 bd 1a 19 2b 3f 4e 51 b6 bd
       -0.51710325 -0.052334264 0.66835177 -0.089022264
000010 28 6d 02 3f a6 c6 71 3d 88 f1 6a 3d e0 bb 9b 3e
       0.5094781 0.059027337 0.05735925 0.30416775
000020 71 02 27 3f 1b e4 d0 3e be df fd 3e 93 5e 11 bf
       0.652381 0.4079903 0.49584764 -0.56784934
000030 3e 5a 27 3f a4 d1 81 bd 73 eb b9 bc a3 32 06 3f
       0.65372074 -0.06338814 -0.022695279 0.52421016

_initial._model.2.weight f4 [16, 16]
000000 02 ff 4d 3d d2 67 5e bd e1 49 76 bd b6 f1 54 bd
       0.050292023 -0.05429823 -0.06012905 -0.051988326
000010 3d 4e 49 3d 19 d4 67 bd 37 4a e0 3c 9c 56 2d 3d
       0.04914688 -0.056598756 0.027379138 0.042318925
000020 ea 6e 76 bd 66 55 79 bd 0e 4c 53 bd e4 ad 0a 3d
       -0.06016437 -0.060872458 -0.051586203 0.03385724
000030 2f 9b 46 bd f9 0c 62 bd 99 17 6a bd ec 59 32 3d
       -0.04848784 -0.055188153 -0.05715141 0.043542787
000040 39 0a 7e bd 17 92 0b 3d 4e 95 7d 3d 0a 67 78 3d
       -0.062021468 0.03407487 0.061909966 0.06064514
000050 6f 1c fa bc b8 44 7a 3d 47 b4 3a 3c 6b 95 bd bc
       -0.030531136 0.06110069 0.0113955205 -0.023142537
000060 79 8a 7d 3d 3f 8e 7c 3d 02 85 fb 3c 43 2b ef bc
       0.061899636 0.061659094 0.030703072 -0.029195433
000070 81 6c 6a bd 0c 64 7e bd 9c 30 7e bd f8 c0 29 bd
       -0.057232384 -0.06210713 -0.062058076 -0.041443795
000080 bd 1e 74 3d 8d 0f 7e 3d 74 56 7e bd 9f 83 26 3b
       0.059599627 0.06202655 -0.062094167 0.0025408042
000090 88 9b 20 bd c0 f6 7d bd 05 98 91 3c ed cc ad 3c
       -0.039210826 -0.062002897 0.017772684 0.02121588
0000a0 ab 54 7e bd 4f 11 7e bd 9a 51 71 3a f5 ce 26 3d
       -0.062092464 -0.062028226 0.000920558 0.040724713
0000b0 6c fb b2 bc cc 36 7d 3d e8 c6 98 3b 0e aa 04 bd
       -0.021848403 0.061819836 0.0046623833 -0.03238874
0000c0 aa cf 05 3d 38 65 72 bd 78 9c 7b 3d 9e df 00 bd
       0.032668747 -0.05917856 0.061428517 -0.031463258
0000d0 ed 9d 7d ba 1a c3 f7 bc 59 74 2d 3d 0a d4 7d 3d
       -0.0009674717 -0.030244399 0.042347286 0.061969794
0000e0 1a b6 7b 3d 5a 29 7d 3d 07 69 76 bd 25 8e 1f bd
       0.061452962 0.061807014 -0.060158756 -0.03895392
0000f0 9c 4a 5f bd 71 c6 6a bd 31 93 6c bd b7 ca 73 3d
       -0.054514512 -0.057318155 -0.05775756 0.059519496
000100 bf 8c 3e 3d 09 34 37 bd 13 0e 21 bd dd b4 74 3d
       0.046520945 -0.04472736 -0.039320063 0.059742797
000110 88 ec 6f 3c 58 9c 78 3d ab 3e 7a bd 05 31 7d 3d
       0.014643796 0.060695976 -0.06109492 0.061814327
000120 85 3f 87 3c 14 1a 15 bd db 26 73 bd d0 f8 4f bd
       0.01650978 -0.036401823 -0.059363227 -0.050774395
000130 fe eb 21 3d 9d e6 70 bd bd 57 7d bd a1 e0 33 bd
       0.0395317 -0.05881368 -0.061851252 -0.043915395
000140 9a 22 7f 3d 68 19 0c bd 14 30 7c bd b5 cd e8 bb
       0.062288858 -0.034203917 -0.06156929 -0.0071046003
000150 1f 72 60 3d 86 c2 71 bd e6 11 76 3d a0 5f 02 3d
       0.054796334 -0.059023403 0.060075663 0.031829476
000160 d9 be d7 3c 0d 53 7a bd 06 ac 74 3d 9b c7 69 3d
       0.02633612 -0.06111436 0.059734367 0.057075124
000170 b2 c0 26 bd bd 83 2b bc 6a 2f 7a 3d 3e 8b 6d bd
       -0.040711112 -0.010468421 0.061080374 -0.05799412
000180 5f 76 d0 bc ce 40 a8 bc 74 b0 08 ba 86 99 00 3d
       -0.025447069 -0.020538714 -0.0005214282 0.03139641
000190 2d 43 3d bd ba e9 64 3c 47 0b 77 3d 6e ff 06 3d
       -0.046206642 0.01397174 0.06031349 0.03295844
0001a0 15 a4 7d bd 9a 5a 7c bd b0 57 46 3d 29 17 57 bd
       -0.06192406 -0.061609842 0.04842347 -0.05251232
0001b0 37 2d 2a bd 96 0c 7d 3d c7 42 7b 3d 9e 42 6d bd
       -0.041547026 0.06177958 0.06134298 -0.05792486
0001c0 ef e8 ac 3b 8f 3b 55 bd 71 fb 69 bd c6 89 7e bd
       0.0052767913 -0.052058753 -0.05712456 -0.06214311
0001d0 79 67 37 bd 27 29 7e bd 7c 37 3f bd b0 24 7b bd
       -0.044776414 -0.062050965 -0.046683773 -0.061314285
0001e0 ec 9e 6b bd e5 77 90 3c d2 9b 6f bc 8e 1a 7b bd
       -0.057524607 0.017635295 -0.014624553 -0.06130462
0001f0 41 12 75 3d 23 81 50 bd 02 a1 1a 3d ea 13 e3 bc
       0.05983186 -0.050904404 0.037751205 -0.027719457
000200 61 f1 36 3d b8 43 27 bc df d5 65 3d ea 0f 6b 3d
       0.04466379 -0.0102090165 0.056112166 0.057388224
000210 b2 14 b9 3c 5c fd 2c bd 13 69 69 3d 37 f6 79 3d
       0.022592876 -0.04223381 0.056984972 0.061025824
000220 23 bf 14 3d 3a c6 54 bd 5b 44 56 3d ac f3 3a bd
       0.036315095 -0.051946856 0.052311283 -0.04564254
000230 5c d4 48 3d 8d 15 16 bd 82 fe 6e 3d de bd 66 3d
       0.049030647 -0.036641646 0.058348186 0.056333415
000240 6c ab 57 bd 62 51 5c bd d7 87 50 bd 5d 16 03 bd
       -0.052653715 -0.05378855 -0.050910797 -0.03200375
000250 f0 7b 75 bd db 49 07 bd cc ec 20 bd 31 be 2c bd
       -0.05993265 -0.03302942 -0.039288327 -0.04217357
000260 47 7f 50 bd 54 81 7d 3d 99 42 73 bd d6 8e 2f bd
       -0.05090263 0.061890915 -0.059389684 -0.04286083
000270 2f 4e 3a 3d b5 d9 2e bd be 7b 58 bd d6 1c 4d bd
       0.045484718 -0.04268809 -0.052852385 -0.05007633
000280 8e fc 51 3d 94 04 62 3d 99 0c 79 bd b2 b4 01 bd
       0.051266246 0.055180147 -0.06080303 -0.031666465
000290 bc dc 3e bd 1c de 6c bd 07 83 4a bd 52 69 7c bd
       -0.046597227 -0.057829008 -0.049441364 -0.06162388
0002a0 39 15 3e 3d 98 df da bc 72 a4 58 3d 8b 99 79 bd
       0.04640696 -0.026717946 0.052891202 -0.060937446
0002b0 d1 8b 35 bd b4 e2 5d bd b6 96 45 3d 72 a9 39 3d
       -0.044322792 -0.05417128 0.048239432 0.04532761
0002c0 43 ce 2e 3b 94 89 77 bd 30 b1 c5 bc d6 f4 5d bc
       0.0026673235 -0.06043394 -0.024132341 -0.013547143
0002d0 ec 24 1e 3d 95 40 f0 3c 21 fa 53 bc 13 c5 7d 3d
       0.03860943 0.02932767 -0.012938053 0.061955523
0002e0 52 13 7e 3d 8d 10 7e 3d e4 03 79 bd 41 cc 60 3d
       0.062030144 0.062027503 -0.060794726 0.05488229
0002f0 1b 7b fd 3c 78 19 7f bd a3 0e 78 bc 92 08 0d 3d
       0.03094249 -0.06228015 -0.015140208 0.034432
000300 ea a3 3d 3d 14 da 15 3d 90 01 b6 3b fe 25 66 3d
       0.0462989 0.03658493 0.0055543855 0.056188576
000310 0c 7f b9 bc 31 cd 71 3d 87 ae 74 bd ea 26 78 3d
       -0.022643588 0.059033576 -0.059736755 0.060583986
000320 ae 62 33 bd 5f fe 79 3d 8f 0e 75 bd 6c 73 5a 3d
       -0.04379528 0.061033603 -0.059828337 0.05333273
000330 a0 ed 48 3d ba d3 54 3c ef 92 b8 3c e7 66 70 3d
       0.04905474 0.012989933 0.022531 0.058691885
000340 e6 a6 74 3d 23 cc 7a 3d ed 8f bf 3c df 08 fa 3c
       0.05972948 0.061229836 0.023384059 0.030521808
000350 af 28 35 3d 4f 24 e6 3c bc 5c 24 bd 2c f9 7e bd
       0.044228252 0.028093485 -0.0401275 -0.062249348
000360 e5 17 7e bd 25 99 a0 3c a7 2c 26 bd 73 6a 37 3d
       -0.062034506 0.019604275 -0.040569928 0.044779252
000370 cf 27 38 bd 5b ce 34 bd c5 3a 78 3d 1a 33 7c bd
       -0.04495984 -0.04414211 0.060602922 -0.06157217
000380 ca f5 68 3d c8 36 40 3c 17 c8 9e 3c 31 fe 1b 3d
       0.056875028 0.011731811 0.01938252 0.038084213
000390 6f f3 2f 3d e3 5b 0a 3d bd 15 7e 3d 4c 8d ca 3c
       0.042956766 0.033779036 0.06203245 0.024725579
0003a0 66 e6 7c bd e8 10 52 bd 6e d0 4d 3d 06 ee 4c bd
       -0.061743163 -0.051285654 0.050247602 -0.050031684
0003b0 10 5e 32 3d 94 97 31 bd 56 cc 7e 3d 40 4a 65 bd
       0.043546736 -0.043357447 0.06220659 -0.055979013
0003c0 1a dd 0e bd df 69 48 3d 0d f1 96 3c 19 dd 75 bd
       -0.034878828 0.04892909 0.018425489 -0.06002531
0003d0 7f bd 4e bd 52 f1 5c bd 1c e6 a6 3c 45 53 d6 3c
       -0.050473686 -0.05394108 0.020373397 0.026162753
0003e0 5c cd 5b bd 53 14 a6 3c cc 00 50 3d 5f db 3a 3d
       -0.053662643 0.020273363 0.05078201 0.045619365
0003f0 84 d8 49 bd d9 dd 19 3d 8b 18 3e 3d fd 1d 69 bd
       -0.04927875 0.037565086 0.046410125 -0.056913365

_initial._model.2.bias f4 [16]
000000 fe 12 4f 3e c2 d2 cc bc 49 b5 7c 3e fe 05 a2 bd
       0.20222089 -0.02500284 0.2467853 -0.07911299
000010 4e 16 d1 bd 47 10 22 3e 86 72 bf 3b a4 d5 27 3e
       -0.102093324 0.15826522 0.0058425097 0.16390091
000020 46 dc f2 bd 7e da 0e 3d 0e 51 88 bc 55 85 d2 3c
       -0.1185842 0.03487634 -0.016640212 0.025698343
000030 d4 c0 64 bd 87 0e 30 be 84 cd e8 bd 2f 1b b1 3d
       -0.055847958 -0.17193042 -0.11367324 0.08647763

_func._module._model.0.weight f4 [16, 17]
000000 b0 71 67 bd 0b 7d 2c 3d 2f 5c 79 3d 11 0f 3a 3d
       -0.056504905 0.042111438 0.06087893 0.045424525
000010 ef 6f 64 3d 5d 04 d5 3c 7a 15 68 3d d8 56 af bc
       0.05577081 0.026003057 0.056661107 -0.021403715
000020 9c e4 4f bd 0f 06 5f bc a5 54 73 bd 09 b5 d8 bb
       -0.05075513 -0.013612284 -0.059406895 -0.006613378
000030 e3 95 cf bc 8e 18 68 3d e0 c4 77 3d ce 92 5b 3d
       -0.025340026 0.056664042 0.06049049 0.0536068
000040 a1 aa 64 bd e0 72 87 bc 60 fd 79 3d 10 50 1f 3d
       -0.055826787 -0.016534269 0.061032653 0.038894713
000050 d0 c0 7d 3d 2e 74 7d bd ac 9f 7c 3d 7c a9 d1 3c
       0.06195146 -0.061878376 0.061675712 0.025593512
000060 83 32 19 3d 22 9d 7d 3d 25 9e 28 bd dc 41 b1 bc
       0.037401687 0.06191743 -0.041166443 -0.02163785
000070 2d 93 7d 3d fd 5f 71 3d 47 33 dc bc 66 90 4a bd
       0.061907936 0.058929432 -0.02687992 -0.049454115
000080 a9 2d 6c 3d ba f7 7d 3d 52 8c 71 bd a7 83 10 bc
       0.057660732 0.06200383 -0.05897171 -0.008820451
000090 66 71 75 3d b2 ef 02 3d 2a 43 64 3d 7a 0b 81 3b
       0.0599226 0.031966873 0.055728115 0.0039381357
0000a0 37 be 09 bc 84 07 e1 3c bd 6f 62 bd 81 8d 70 bd
       -0.008407167 0.027469404 -0.055282343 -0.0587287
0000b0 99 a1 6d bd b5 dd 1a bc 6d ab 5d bd c2 96 70 3d
       -0.05801544 -0.009452273 -0.054118562 0.058737524
0000c0 88 0d 6f 3d 50 27 73 3d 76 1f 6f bd 88 80 60 bd
       0.058362514 0.059363663 -0.058379613 -0.054810077
0000d0 81 8c b6 3c 6c 76 44 3d f8 76 c4 bc 68 24 72 3c
       0.022283794 0.0479645 -0.02398251 0.014779188
0000e0 0a 24 c1 3b e9 90 44 bd 8e 5e 0b bd 3a 45 41 bd
       0.005894189 -0.04798976 -0.03402572 -0.04718516
0000f0 3b 54 6f bd cd 1a 6f bd 58 79 5d bc 36 bb 6f 3d
       -0.058429938 -0.05837517 -0.0135177 0.058528148
000100 16 58 79 3d a5 bd 41 3c 44 35 69 3d fc ae 52 bd
       0.06087502 0.011825 0.056935564 -0.05143641
000110 aa 4b 56 3d df 59 7d bd ec c0 30 3d 71 64 5e 3d
       0.052318253 -0.061853286 0.043152735 0.054295007
000120 78 53 7c 3d da be 2c 3c 4d 30 7b 3d 7e 66 d9 3b
       0.06160304 0.010543549 0.06132536 0.0066345325
000130 37 41 51 bd e4 1a 07 bd 95 0a 75 3d ef 69 7e bd
       -0.051087584 -0.03298463 0.059824545 -0.062112745
000140 0a de 3d bd a7 c0 6d bd fc 8f 07 bd 32 cc c8 3c
       -0.04635433 -0.058045056 -0.0330963 0.02451143
000150 7e 42 fd 3c 75 25 64 3d 4e cb c6 ba d1 46 73 bd
       0.030915495 0.055699784 -0.0015166791 -0.059393708
000160 45 5e 5c 3d 40 df 52 3d 11 b7 92 bc d6 17 79 3d
       0.05380084 0.05148244 -0.017909558 0.060813747
000170 05 c3 6e 3d 1d 25 8e 3c 2f c2 63 3d b3 2f 32 3d
       0.058291454 0.017351681 0.05560511 0.04350252
000180 59 30 e0 bc 9d 7f a0 bc 1f bf 65 bd 10 e5 5e bd
       -0.027366804 -0.0195921 -0.05609047 -0.05441767
000190 d2 6b 6b bd 7f 20 b7 bc e4 2e c0 3b 38 10 83 3c
       -0.057475872 -0.022354363 0.005864965 0.015998945
0001a0 41 08 4a 3d 63 20 6d bd f2 51 70 bc 2e 1e 58 bd
       0.049324278 -0.057892215 -0.014667975 -0.052763157
0001b0 0d 29 5a bd 67 67 58 bd fb f7 56 bd ad e8 40 bd
       -0.053261805 -0.052832987 -0.052482586 -0.047096897
0001c0 57 9d 53 bd 93 5d 42 bd e4 d5 9a 3c 6a b3 76 bd
       -0.051663723 -0.04745252 0.01890082 -0.060229696
0001d0 de c4 69 bd e6 99 4a 3d 78 80 41 bd 3e 3a 59 3d
       -0.057072513 0.049463175 -0.047241658 0.05303406
0001e0 ff f9 7e bd 72 41 65 bd 7c 3a 5a bd 50 e7 00 bd
       -0.062250134 -0.055970617 -0.05327843 -0.031470597
0001f0 2d 7c f6 bc e8 ec 69 3d 20 79 6f 3d 28 dc 7c bd
       -0.030088509 0.057110697 0.058465123 -0.061733395
000200 fc a5 69 3d f6 a0 6e 3d 16 3f 7a bd 97 2e 0d 3d
       0.05704306 0.058258973 -0.06109532 0.03446826
000210 46 bd 71 bd 97 08 5d bd ed 73 9f bc 80 da 65 bd
       -0.059018396 -0.05396327 -0.019464457 -0.05611658
000220 7f ea 7b 3d 65 bf 76 3d 19 cb 66 3d b2 79 23 3d
       0.06150293 0.06024112 0.056346033 0.03991098
000230 84 cc ee bc 44 79 73 3d 73 f0 75 bd 10 7a 75 bd
       -0.029150255 0.05944182 -0.060043763 -0.05993086
000240 14 bb be 3c 0a 87 41 bd 0b db 70 bd ef 56 74 3d
       0.023282565 -0.047247924 -0.058802646 0.05965322
000250 9c 43 d9 bc 40 6f 43 3d c8 a9 06 bc b0 e1 14 3d
       -0.026521496 0.04771352 -0.00821919 0.036348045
000260 74 63 7c 3d c8 b7 51 3d 0e b5 7b bd af f6 35 3d
       0.061618283 0.051200658 -0.061451964 0.04442471
000270 7a 6e 64 3d 0a 56 7b 3d 42 18 72 bd 4f f5 8c 3b
       0.05576942 0.06136135 -0.059105165 0.004301704
000280 f1 0b 77 3d 3b fa 79 bd 16 58 68 3d 66 f7 71 3d
       0.060314123 -0.061029654 0.05672463 0.05907383
000290 7b a1 7c bd 72 72 70 bd 4b da 6b bd b7 f6 66 bd
       -0.061677437 -0.058702894 -0.057581227 -0.05638763
0002a0 12 1e 23 bd f2 2e 7d bd 07 f2 fd bc bb 38 77 3d
       -0.0398236 -0.06181235 -0.030999197 0.060356837
0002b0 16 23 6d bd 11 b8 6a 3d f2 31 77 bd f3 f3 67 bd
       -0.05789479 0.057304446 -0.060350366 -0.056629132
0002c0 75 c7 6e 3d 49 32 73 3d e1 05 79 3d 7f 21 06 bd
       0.058295686 0.059374128 0.060796622 -0.032746788
0002d0 a3 1a 67 bd 41 c0 6d 3d df af 68 bd 60 3c 5e bd
       -0.056421887 0.058044676 -0.05680835 -0.054256797
0002e0 d5 d8 53 3d 0e 72 87 3c a0 f8 71 3d 2f 7e 95 bc
       0.05172046 0.016533878 0.059074998 -0.018248646
0002f0 0e f2 e1 bc 4e 68 6b bd 9a de 5b 3d 43 24 44 bc
       -0.027581241 -0.05747252 0.053679086 -0.011971536
000300 0b 6a 19 bd 05 ec 43 3d e0 13 6a 3d ca 1e 69 3d
       -0.037454646 0.047832508 0.05714786 0.05691413
000310 0a 18 33 bd c9 f5 5f bd c5 b0 68 3d 2c 9c 60 bd
       -0.043724097 -0.05467776 0.056809206 -0.054836437
000320 55 48 59 bd 0e 44 29 3b f5 55 18 3d 39 76 2d bd
       -0.053047497 0.0025827917 0.03719135 -0.042349074
000330 a7 24 7c 3d 74 90 73 3d 76 f6 65 3d 66 53 23 bd
       0.061558392 0.059463933 0.056143247 -0.039874457
000340 c6 0a 03 bc 7b 99 76 3d 2e b8 70 bd 21 f3 6d bd
       -0.007998174 0.060204964 -0.058769397 -0.058093194
000350 08 6c 75 3d 7f 2b 48 bd 50 82 6f bd 88 a5 73 3d
       0.05991748 -0.048869606 -0.058473885 0.059484035
000360 51 48 4e 3d c2 e5 41 3d 57 fe 2b bd ef 55 dc ba
       0.050361935 0.047338255 -0.041990604 -0.0016810278
000370 44 d0 79 3d c2 6f 17 3c 5d 4a 34 3d 5e 3a 65 3c
       0.060989633 0.009242954 0.04401623 0.013990967
000380 7b 81 57 3d 94 e5 55 bd ba 50 52 bd 4f 55 c1 bc
       0.052613717 -0.052220896 -0.051346518 -0.023600249
000390 d9 1f 0d 3d 2a a2 79 3d 9a b5 f9 3b 99 37 79 bd
       0.0344542 0.060945667 0.0076205255 -0.060844038
0003a0 22 0b 78 3d f3 98 5b bd 64 48 ca bc 8d 2f 3b 3d
       0.060557492 -0.05361266 -0.024692722 0.045699645
0003b0 46 e1 8f bc de 61 7b 3d 62 3c 7c 3d a6 a8 77 3d
       -0.017563473 0.06137263 0.061581023 0.06046357
0003c0 b6 1f 69 3d 43 97 27 bd 57 74 e3 bc 2a 71 83 3c
       0.056915008 -0.04091574 -0.027765436 0.016045172
0003d0 ed 90 71 bd 1d 47 75 bd 74 5a 79 3d d5 ad 26 bd
       -0.058976103 -0.059882272 0.06087728 -0.040693123
0003e0 59 ab 6d bd e9 b7 7b 3d 35 17 4e 3d df a0 45 3d
       -0.058024738 0.061454687 0.0503151 0.04824912
0003f0 31 11 41 3d 5c 12 77 bd fe 4a 71 3d d2 5f 6c bd
       0.047135536 -0.060320243 0.05890941 -0.05770857

_func._module._model.0.bias f4 [16]
000000 ec a1 19 3e 6c 07 fa 3d b0 7f 27 3d e6 f6 02 3d
       0.15003175 0.12208447 0.040893257 0.031973742
000010 1b 18 33 be 18 1d aa 3e ce 76 6e 3d 83 a4 22 3b
       -0.17489664 0.33225322 0.05821877 0.0024817295
000020 54 12 38 3e 12 e8 45 3e 15 47 a7 3d b1 7e 05 3e
       0.17975742 0.19326809 0.08167855 0.1303661
000030 6e 0c cf 3d 85 eb 52 3e e9 1d 71 3b 4b c9 7b be
       0.10109793 0.20597656 0.003679151 -0.24588506

_func._module._model.2.weight f4 [32, 16]
000000 a6 cf 93 3c e1 c2 81 3c 09 13 f9 bc 7b 56 7c 3c
       0.01804335 0.015839996 -0.030404584 0.015401478
000010 40 c7 ed bc bd 5c da bc e9 d0 c8 bc fa 0e d0 bc
       -0.029025674 -0.02665555 -0.024513679 -0.025397766
000020 af a7 f5 3c f2 45 e4 bc 28 b5 e0 3c fb e9 26 3b
       0.029987184 -0.027865384 0.027430132 0.0025469053
000030 3b c1 f8 3c 6c 2d e4 3c 71 c8 f7 3c b0 81 8a 3c
       0.030365577 0.02785369 0.030246945 0.016907543
000040 f1 76 b1 3c 15 23 0e bc ff 5c b1 3c 19 a1 dc 3c
       0.021663161 -0.008675356 0.02165079 0.026932286
000050 02 39 5a bc 67 a9 a9 bc f3 3f 55 bc d9 4c d8 3c
       -0.013319256 -0.02071066 -0.013015735 0.026403831
000060 a8 38 9e 3c b1 14 be bc 14 95 9f 3c 73 97 ab 3c
       0.019314125 -0.023203226 0.019480266 0.02094624
000070 f5 34 0e 3c e8 84 d9 3c fd 06 6d 3b 33 02 d1 3c
       0.008679618 0.026552632 0.0036167495 0.025513744
000080 fe b0 9a 3c b4 e4 f3 3c a5 da 8c 3c 9d dd db bc
       0.018883225 0.02977214 0.017194102 -0.026839072
000090 ed 51 da bc 61 b2 b2 bc 69 cf c7 bc 67 b7 b1 3c
       -0.026650393 -0.021813573 -0.024390893 0.021693898
0000a0 e0 71 fb 3c 83 79 cc bc 88 c1 45 3c 71 b3 ed bc
       0.030693948 -0.024960285 0.012070067 -0.029016228
0000b0 84 37 fc 3c d7 41 75 bb 85 3f fc 3c d8 4d 8b 3c
       0.03078819 -0.0037423277 0.030792007 0.017004892
0000c0 c4 68 a3 3c 16 b6 99 bc d5 df a1 3c b9 c9 d4 3c
       0.019947417 -0.018763583 0.019760052 0.025975095
0000d0 f8 b8 8a bc ab 68 a8 bc c1 9b f7 3c de 97 60 bc
       -0.016933903 -0.020557722 0.030225636 -0.013708083
0000e0 97 38 47 3c 24 10 b6 bc 1a ae eb bc 27 c2 c5 bc
       0.012159488 -0.022224493 -0.028769542 -0.02414043
0000f0 14 ed 4c 3c 1c 5d f9 bc 63 3f 7b bc 65 35 bd 3c
       0.012507696 -0.030439906 -0.015334937 0.02309675
000100 ac 12 b8 bc ba 6a c9 bc b6 1e c9 3c 09 8a a9 bc
       -0.022469841 -0.024587024 0.024550777 -0.020695703
000110 34 6a a8 3c a6 db 8f bc d9 59 59 3c 1b 10 93 3c
       0.020558454 -0.017560791 0.01326605 0.017952016
000120 68 a2 80 3c 45 77 ad 3c 3d ef ee 3c 73 70 5e bc
       0.015702441 0.021175036 0.029166812 -0.013576615
000130 d4 d6 fa 3b 09 3d df 3c 57 d4 be bc 86 70 cd 3c
       0.007655004 0.027250784 -0.02329461 0.02507807
000140 f9 e4 a9 bc 6a 1a d0 bc 43 d3 bd bc f0 a8 c2 bc
       -0.020739065 -0.02540322 -0.023172027 -0.023762196
000150 d0 98 d6 3c eb 39 a7 3c 0d a4 90 bc bd d4 bf 3c
       0.026195914 0.02041336 -0.01765635 0.023416871
000160 44 9e c5 bc 30 e5 e5 3c a7 f5 a0 3c 09 5c ee 3c
       -0.024123318 0.028063387 0.019648386 0.02909662
000170 a9 a8 c9 bc df d5 df 3c 9f be 6e bc e7 94 ba bc
       -0.024616556 0.027323661 -0.014571815 -0.02277608
000180 07 da b7 bc 12 be d5 bc b8 e3 a1 bc c0 db cf bc
       -0.02244283 -0.02609161 -0.019761905 -0.02537334
000190 4b 70 11 3c 4f 9a 28 bc 19 4c f1 bb 23 05 dc 3c
       0.00887687 -0.010290696 -0.007363808 0.026857918
0001a0 cf d7 ed bc ff b6 ec 3c 00 35 d1 bc d4 47 67 bc
       -0.02903357 0.028895853 -0.025537968 -0.014116246
0001b0 ea d2 f5 bc b4 b4 d2 bc a7 55 f6 bc 81 ab b2 bc
       -0.030007798 -0.025720932 -0.03007014 -0.021810295
0001c0 57 fc b8 bc 81 dc ca 3b 86 3c d5 bc 9e 09 e9 bc
       -0.022581263 0.006190837 -0.026029836 -0.028446969
0001d0 7a 52 44 3a 4e 5c 60 bc 41 1b 90 3c 4c d6 a7 bb
       0.00074890966 -0.013693882 0.01759112 -0.0051219817
0001e0 a9 e7 89 3c e7 48 32 3b 90 e0 55 bc 83 9b 89 bc
       0.016834097 0.0027204098 -0.013054028 -0.016797787
0001f0 bb 63 b2 bc 72 63 dc bc 59 1f c5 bc 1a ce ae bc
       -0.02177607 -0.026902888 -0.0240628 -0.021338511
000200 97 61 d8 bc 54 d3 f5 3c 4d 0a 6b bb 30 db 00 3c
       -0.026413722 0.030007996 -0.0035864294 0.007864758
000210 90 71 4f bb 54 47 13 3c d6 c5 54 bc 31 a2 a1 bc
       -0.0031653382 0.008989174 -0.012986621 -0.01973066
000220 24 1e a2 3c ab af bc bc a9 a4 69 bb 5d d1 8d 3c
       0.019789763 -0.023032984 -0.0035651124 0.017311746
000230 6a 3a f6 3c 03 3b 8f bc 02 72 f3 3c 95 4a 80 bb
       0.03005715 -0.017484194 0.02971745 -0.003915141
000240 1a f9 9b 3c b3 21 f7 bc d7 27 b5 3c 11 6c c8 3c
       0.01903968 -0.030167436 0.022113724 0.024465593
000250 a5 56 83 bc 8a f1 96 bc 1b 2b f5 3c c9 00 4e bc
       -0.016032526 -0.018425722 0.02992778 -0.012573429
000260 cd 1e ee bc ce ca b9 bc 24 28 fc 3b a4 30 9f 3c
       -0.029067421 -0.022679713 0.007695215 0.019432373
000270 40 ab ad 3b ec 29 a6 3b 26 be d6 bc 19 df b9 3c
       0.0052999556 0.0050709154 -0.026213717 0.022689389
000280 84 d1 f3 3c 3d 52 87 3c eb d3 b1 3c 92 a3 e3 3c
       0.02976299 0.016518706 0.021707496 0.027787957
000290 02 f0 e5 3c 1d 5c bf 3c 63 86 ab 3c e1 21 b6 3c
       0.028068546 0.023359353 0.020938104 0.022232952
0002a0 53 9c fd bc 3f b9 d1 3c ff 43 b2 bb 4b 96 bc bc
       -0.03095833 0.025601028 -0.0054402347 -0.023020884
0002b0 ca 54 fc bc f3 c6 a2 ba a6 65 fa bc d4 d8 af 3c
       -0.03080215 -0.0012418911 -0.030566048 0.021465696
0002c0 5f 6d ab bc b4 4c a0 3c 92 b9 c3 bc 53 12 d2 bc
       -0.020926176 0.019567825 -0.023892198 -0.025643503
0002d0 5a 16 a9 bc d3 10 a5 3c a3 8f ee bc 89 87 17 3c
       -0.02064054 0.020149624 -0.029121226 0.009248623
0002e0 22 82 87 bc 64 fb 2a 3c 42 e8 d7 bc 85 11 3f bc
       -0.016541544 0.010435913 -0.026355866 -0.011661892
0002f0 b3 45 8b 3b 81 7c d9 bc 26 fa 9a 3c fa c9 b3 bc
       0.004250252 -0.026548626 0.018918108 -0.021946896
000300 8a 1c d3 ba d2 38 08 3c 0d 90 e2 3c 65 08 e5 3c
       -0.0016106528 0.008314328 0.02765658 0.027958104
000310 65 63 e1 3c b7 5c af 3c 62 b1 d1 bc b3 79 b6 3c
       0.027513215 0.021406515 -0.025597278 0.022274828
000320 b8 f8 fa bc d3 a1 c6 3c c6 bd b7 3c bc 25 e8 3c
       -0.030636176 0.024247086 0.022429358 0.028338306
000330 bd 85 fb bc fe a3 b4 3c 16 ff f9 bc 44 fe e0 3c
       -0.03070342 0.022050854 -0.030517142 0.027464993
000340 da 68 a7 bc 97 36 cc 38 c8 26 c1 bc 89 9f a7 bc
       -0.02043574 9.737646e-05 -0.023578063 -0.020461814
000350 fb 42 01 3c 4e af a4 3c c8 db 88 bc ae 23 7c 3c
       0.007889505 0.020103123 -0.016706362 0.015389366
000360 c6 7d 88 3c 4e 98 c8 3c 60 4b b0 bb 1e 79 b9 3c
       0.016661536 0.024486687 -0.005380079 0.022640761
000370 5d 51 b1 3c 3c 07 ea 3b e9 3c ae 3c c2 0c 8b bc
       0.021645242 0.0071419757 0.021269279 -0.016973857
000380 fb c5 f5 bc 05 ef e3 3c 83 7e f0 bc e9 68 d6 bc
       -0.030001631 0.027823934 -0.0293572 -0.026173072
000390 f0 e2 a1 bb 0e 5c e6 bc 9b b9 a0 bc 3a fc cf bc
       -0.004940383 -0.028120067 -0.019619754 -0.025388826
0003a0 df 82 ed 3c bb 86 e7 bc ae cb e1 3c a5 63 89 3c
       0.028993068 -0.028262487 0.027562942 0.016771147
0003b0 37 9a f6 3c 8f b2 e1 3c 0c db f5 3c 31 d8 f9 bc
       0.030102832 0.027550964 0.030011676 -0.030498596
0003c0 cc 0e ba 3c 8d 6c ec bc 9c 08 cf 3c 36 c1 4b bc
       0.022712134 -0.028860355 0.02527266 -0.012436202
0003d0 18 34 6c bc 74 33 20 3b d5 f4 d7 3c 1f 26 39 bc
       -0.014416717 0.002444473 0.026361862 -0.011300593
0003e0 f6 b6 97 3c 4c 2a bd 3c 86 15 b4 3c f6 23 b2 3c
       0.01851986 0.023091458 0.02198292 0.021745663
0003f0 10 34 13 3c 59 27 c4 3c 66 e0 93 3b 85 52 95 bc
       0.008984581 0.023944544 0.0045128344 -0.018227825

_func._module._model.2.bias f4 [32]
000000 75 59 01 bc 6b 4f 07 3e 5b 0c d6 bd 8a 54 30 3d
       -0.007894863 0.1321389 -0.10451575 0.043049373
000010 dc d4 e3 bd e0 09 b4 3e b1 d6 3f be 46 83 8b be
       -0.11124584 0.35163784 -0.18734242 -0.2724859
000020 30 b3 a4 3d 43 a6 96 bc 52 ba a7 bd 51 41 ed 3d
       0.0804199 -0.018389827 -0.08189835 0.11584724
000030 02 1b 2b be e3 29 05 3e d0 f5 0d 3d 13 f1 67 3e
       -0.16709521 0.1300426 0.034658253 0.22650556
000040 b4 16 66 3e 47 d1 c1 3d 9f e8 14 3d 1f 54 31 3e
       0.22469598 0.094637446 0.036354657 0.17317246
000050 e8 34 64 3d 3b cc 65 3c 33 ef ee 3c f1 0e 43 be
       0.055714518 0.014025743 0.029166793 -0.19048668
000060 54 64 25 be 9e fb e6 bd af 30 23 be 5c a3 fd bd
       -0.16151553 -0.11278461 -0.1593654 -0.12384674
000070 95 3a 5d be 97 02 26 3e 0f 52 6d 3e bc ea d4 3d
       -0.21604379 0.16211925 0.23175834 0.103963345

_readout.weight f4 [1, 16]
000000 ad 6f 6f be af e4 5e bd 46 37 22 bd 0c 16 ae 3c
       -0.23382445 -0.05441731 -0.039603494 0.021250747
000010 3d a8 13 be 90 e9 80 3e f5 c1 d7 3a f9 0d 79 be
       -0.14419647 0.25178194 0.0016461002 -0.24321736
000020 12 68 1a 3e eb d7 34 3e e1 66 90 be af 1e f1 bd
       0.15078762 0.17660491 -0.2820349 -0.117734306
000030 00 28 a8 bd a6 37 bc be 1d 50 44 be a6 86 47 be
       -0.082107544 -0.36761206 -0.19171186 -0.19484958
