model_saves/discriminator_midAdjoint.pth (torch, 8723 bytes, 9 tensors)

_initial._model.0.weight f4 [16, 2]
0	0x3d64f7d7	0.05590042
1	0xbd800000	-0.0625
2	0xbd64f5da	-0.055898525
3	0xbd7ffffe	-0.062499993
4	0x3d64f954	0.05590184
5	0xbd800000	-0.0625
6	0x3d64f5e5	0.055898566
7	0xbd7edc60	-0.062221885
8	0xbd64f911	-0.05590159
9	0xbd800000	-0.0625
10	0x3d64f997	0.05590209
11	0x3d7ebcb3	0.062191676
12	0x3d64f9f0	0.05590242
13	0x3d7fb2ad	0.062426258
14	0x3d64f6f6	0.055899583
15	0xbd7f5a99	-0.06234226
16	0x3d64f5a4	0.055898324
17	0x3d7fbf67	0.062438395
18	0xbd64f98f	-0.05590206
19	0xbd800000	-0.0625
20	0xbd64f8e6	-0.05590143
21	0x3d7fb208	0.062425643
22	0xbd64f63a	-0.055898882
23	0xbd800000	-0.0625
24	0xbd64f5b2	-0.055898376
25	0x3d7f8616	0.062383734
26	0xbd64f5b4	-0.055898383
27	0xbd800000	-0.0625
28	0xbd64f7fe	-0.055900566
29	0xbd7fffa0	-0.062499642
30	0xbd0e1e6c	-0.03469698
31	0x3d7fae58	0.062422127

_initial._model.0.bias f4 [16]
0	0xbe356005	-0.1771241
1	0x3e4f7677	0.20260035
2	0xbed00da0	-0.40635395
3	0x3f20b861	0.6278134
4	0x3e0021a7	0.12512837
5	0xbf18f472	-0.59747994
6	0x3ec9820c	0.3935703
7	0x3eefac96	0.4681136
8	0x3e9c6bd4	0.30551016
9	0x3c88c43e	0.016695138
10	0x3e5ef85c	0.21774429
11	0xbea4edec	-0.3221277
12	0xbdb91568	-0.09037286
13	0xbe406cb0	-0.18791461
14	0x3e830b19	0.25594404
15	0x3e6627a4	0.22476059

_initial._model.2.weight f4 [16, 16]
0	0xbd7fc44e	-0.06244307
1	0xbd7ec1f4	-0.062196687
2	0xbd7ffcb1	-0.062496845
3	0xbd7e7eb4	-0.062132552
4	0xbd7eb59c	-0.062184915
5	0xbd0a4675	-0.0337586
6	0x3d7ff9fb	0.06249426
7	0xbd7ea64d	-0.062170316
8	0x3d7ff4a5	0.06248917
9	0xbd7eac5f	-0.062176105
10	0x3d7fe901	0.06247807
11	0xbd7ff77a	-0.06249187
12	0x3d7f165c	0.062277183
13	0xbd7fcae0	-0.062449336
14	0xbd7ec6d3	-0.062201332
15	0x3d7fea87	0.062479522
16	0xbd7fffd7	-0.062499847
17	0xbd7fff24	-0.06249918
18	0xbd7fff88	-0.062499553
19	0x3b7d7380	0.003867358
20	0xbd7ffeea	-0.062498964
21	0x3d7fed0b	0.06248192
22	0x3d7f853a	0.062382914
23	0xbd7ffec0	-0.062498808
24	0x3d7ff72c	0.06249158
25	0xbd7ffe6b	-0.06249849
26	0x3d7ff34c	0.062487885
27	0xbd7fffd4	-0.062499836
28	0x3d7fd3d5	0.06245788
29	0xbd7fffe7	-0.062499907
30	0xbd7fff32	-0.062499233
31	0x3d7ff3be	0.06248831
32	0xbd7fee5d	-0.06248318
33	0xbd7ff1df	-0.062486526
34	0x3cbdd746	0.02317394
35	0x3c8ffb53	0.017575895
36	0xbd7fe9d3	-0.06247885
37	0xbd41be95	-0.047300894
38	0x3d7fce4d	0.062452603
39	0xbbf14aeb	-0.0073636672
40	0x3d7fc506	0.062443756
41	0xbd7fd0a4	-0.062454835
42	0x3d7fb5ba	0.062429167
43	0xbc3b17f3	-0.011419284
44	0x3d7f78af	0.062370952
45	0xbd7fef4b	-0.062484067
46	0xbd453951	-0.048150364
47	0x3d7fb74e	0.062430672
48	0xbd800000	-0.0625
49	0xbd7fffed	-0.06249993
50	0xbd7fffcf	-0.062499817
51	0x3d3140dc	0.043274745
52	0xbd800000	-0.0625
53	0x3d64c929	0.055855904
54	0x3d087974	0.03331895
55	0x3d107787	0.03527024
56	0x3d70cd14	0.058789328
57	0xbd800000	-0.0625
58	0x3d800000	0.0625
59	0x3cc14bcb	0.023595711
60	0x3d7ff259	0.06248698
61	0xbd784b8c	-0.060618922
62	0x3c0e487e	0.008684276
63	0x3d800000	0.0625
64	0x3cb169b9	0.021656858
65	0xbd7fb4a2	-0.062428124
66	0x3d3cf453	0.046131443
67	0xbd7f73a8	-0.062366158
68	0x3b0398b8	0.002008004
69	0x3d7ec06c	0.062195227
70	0xbd21c36a	-0.039493002
71	0xbd7f849e	-0.062382333
72	0x3d79da97	0.06099948
73	0xbd4feabd	-0.050760973
74	0x3d7bfbc7	0.06151941
75	0x3d1d057f	0.03833532
76	0x3d3c6673	0.04599614
77	0x3cc4d781	0.024028542
78	0x3cbcf504	0.023066051
79	0xbcd24e68	-0.025672153
80	0xbd7f6b69	-0.062358294
81	0xbd7f4460	-0.062321067
82	0xbcb9de88	-0.022689119
83	0xbd7f7d1a	-0.062375166
84	0xbd7f0bd0	-0.062267125
85	0xbc660871	-0.0140400985
86	0x3d7f8635	0.06238385
87	0xbd7f7cf9	-0.062375043
88	0x3d7f6f8f	0.06236225
89	0xbd7e6dfb	-0.062116604
90	0x3d7f486a	0.06232492
91	0xbd7fac81	-0.062420372
92	0x3d7e9821	0.0621568
93	0xbd7f72e1	-0.062365416
94	0xbd7f5a8b	-0.062342208
95	0x3d7f4c8b	0.062328856
96	0x3d7ffe3f	0.062498327
97	0x3d7ffeee	0.06249898
98	0xbd2afc82	-0.041744716
99	0xbcf7dc67	-0.030256463
100	0x3d7ffe19	0.062498186
101	0x3d47db1f	0.048792955
102	0x3cbfee2a	0.023428995
103	0xbd015982	-0.031579502
104	0x3b6c7fe9	0.0036086983
105	0x3d7ffaf4	0.062495187
106	0xbd7fe527	-0.062474396
107	0xbd10d8f5	-0.035363156
108	0xbd7fca27	-0.062448647
109	0x3d7ffe4e	0.062498383
110	0x3d7fff2b	0.062499207
111	0xbd7fe5b2	-0.062474914
112	0xbd7ad849	-0.06124142
113	0x3c15ddba	0.009147102
114	0x3bc11c97	0.0058933008
115	0x3d39a5ce	0.04532414
116	0xbc4d45c1	-0.012528838
117	0xbd71a514	-0.05899532
118	0x3d77dbb5	0.060512263
119	0xbc773d82	-0.015090348
120	0x3d70ff72	0.05883736
121	0xbd50ca23	-0.050974023
122	0x3cc11c0e	0.023572948
123	0xbb0c695a	-0.00214251
124	0x3d07cbe3	0.033153426
125	0xbd04fe5c	-0.03246914
126	0x3c980045	0.018554816
127	0x3cbec606	0.023287784
128	0xbd09f996	-0.03368529
129	0xbd800000	-0.0625
130	0xbd7fffd8	-0.06249985
131	0xbd7ffa03	-0.06249429
132	0xbd800000	-0.0625
133	0x3d7faebe	0.062422507
134	0x3b5c94a0	0.0033657923
135	0x3c4df7ca	0.012571285
136	0x3cdc083f	0.0268594
137	0xbd800000	-0.0625
138	0x3d7cb025	0.061691422
139	0xbd7ffff6	-0.062499963
140	0x3d7ff0b3	0.062485408
141	0xbc96953c	-0.018381707
142	0xbd7fffe5	-0.0624999
143	0x3d583fa8	0.052795082
144	0xbd7e5823	-0.062095772
145	0xbd7daa69	-0.061930094
146	0xbd7f6288	-0.062349826
147	0xbd7e9935	-0.06215783
148	0xbd7d1cea	-0.061795153
149	0x3d7eb1d7	0.06218132
150	0x3d7f36ba	0.06230805
151	0xbd7e6e0f	-0.06211668
152	0x3d7efcf3	0.06225295
153	0xbd7bd36c	-0.061480924
154	0x3d7ea314	0.062167242
155	0xbd7f210c	-0.062287375
156	0x3d7cf931	0.061761085
157	0xbd7e6e43	-0.062116873
158	0xbd7dec68	-0.061993033
159	0x3d7eab2f	0.062174972
160	0xbd800000	-0.0625
161	0xbd7d4918	-0.061837286
162	0xbd65ea52	-0.05613167
163	0xbcf7be2a	-0.030242044
164	0xbd800000	-0.0625
165	0x3d7bba5e	0.06145703
166	0x3d7e9bb1	0.062160198
167	0x3d20ebc4	0.039287344
168	0x3d800000	0.0625
169	0xbd800000	-0.0625
170	0x3d800000	0.0625
171	0xbd314572	-0.04327912
172	0x3d7ffa29	0.06249443
173	0xbd800000	-0.0625
174	0xbd800000	-0.0625
175	0x3ccf4169	0.025299745
176	0xbd7ffffc	-0.062499985
177	0xbd7fff3f	-0.06249928
178	0xbd7fff6c	-0.06249945
179	0xbd49f789	-0.049308334
180	0xbd7fff4d	-0.062499333
181	0x3d7fde1f	0.06246769
182	0x3d7ffe28	0.06249824
183	0xbd7ffd5a	-0.062497474
184	0x3d7ffcdd	0.06249701
185	0xbd7fff6f	-0.06249946
186	0x3d7ffa22	0.062494405
187	0xbd7fd809	-0.062461887
188	0x3d7fdd37	0.062466826
189	0xbd7ffffd	-0.06249999
190	0xbd7fff47	-0.06249931
191	0x3d7ffa55	0.062494595
192	0xbbac219e	-0.005253031
193	0xbbce3419	-0.0062928316
194	0x3d7f8ee6	0.062392138
195	0xbd45d553	-0.048299145
196	0x3d6a5f2c	0.05721967
197	0x3d670230	0.05639857
198	0x3cdba0f9	0.026810156
199	0xbd333783	-0.043754112
200	0xbd130856	-0.03589662
201	0x3d800000	0.0625
202	0xbbb4d36e	-0.0055183684
203	0x3d7f3c93	0.062313627
204	0xbd74377b	-0.059623223
205	0xbc3949da	-0.0113091115
206	0xbcda4544	-0.026644357
207	0xbd7fffbe	-0.062499754
208	0xbd7ffd62	-0.062497504
209	0xbd7ffdfd	-0.06249808
210	0xbd7ffca8	-0.06249681
211	0xbd7ffd44	-0.062497392
212	0xbd7ffdbf	-0.06249785
213	0x3d7fb5bd	0.06242918
214	0x3d7febfb	0.062480908
215	0xbd7ffdab	-0.062497776
216	0x3d7fe88a	0.062477626
217	0xbd7ffadb	-0.062495094
218	0x3d7fe2c7	0.06247213
219	0xbd7ffd1f	-0.062497254
220	0x3d7fc88e	0.062447123
221	0xbd7ffd5e	-0.06249749
222	0xbd7ffe00	-0.062498093
223	0x3d7fe35f	0.062472697
224	0x3d800000	0.0625
225	0x3d800000	0.0625
226	0x3d7fffd8	0.06249985
227	0x3d7fca51	0.062448803
228	0x3d800000	0.0625
229	0xbd7f354c	-0.062306687
230	0xbd7ffbfe	-0.062496178
231	0x3d7fffca	0.0624998
232	0xbd7a0369	-0.06103841
233	0x3d800000	0.0625
234	0xbd7ffa72	-0.062494703
235	0x3d7ffff7	0.062499966
236	0xbd7ff79a	-0.06249199
237	0x3d0258c4	0.031822935
238	0x3d7fffff	0.062499996
239	0xbd7ffa87	-0.06249478
240	0x3d7ffffd	0.06249999
241	0x3d7fff41	0.06249929
242	0x3d7fff9d	0.06249963
243	0x3aa2e036	0.0012426439
244	0x3d7fff8f	0.06249958
245	0x3d340fab	0.043960255
246	0xbd7ffff1	-0.062499944
247	0xbaf0ced7	-0.001837219
248	0xbd7fffab	-0.062499683
249	0x3d7fffec	0.062499925
250	0xbd7fff4c	-0.06249933
251	0x3d7fffdb	0.062499862
252	0xbd7fe4a9	-0.062473927
253	0x3d7ffffd	0.06249999
254	0x3d14a762	0.03629244
255	0xbd7fff5b	-0.062499385

_initial._model.2.bias f4 [16]
0	0x3e5f8989	0.21829809
1	0x3d006a47	0.031351354
2	0x3e2f153b	0.17097943
3	0x3e508ceb	0.20366256
4	0xbdf8db28	-0.12151176
5	0xbdf054d2	-0.11734928
6	0xbc693cb0	-0.01423566
7	0xbd33018a	-0.04370264
8	0xbe2b1d0b	-0.16710298
9	0xbd5ba619	-0.0536252
10	0xbd47c4a1	-0.048771504
11	0xbdca3e1d	-0.098751284
12	0x3e55848e	0.20851347
13	0xbda531af	-0.08066117
14	0xbe170bab	-0.14750545
15	0x3d91665b	0.07099601

_func._module._model.0.weight f4 [16, 17]
0	0x3d6658d3	0.056237053
1	0x3d454a27	0.04816642
2	0xbd640418	-0.055667967
3	0xbd20e2a0	-0.039278626
4	0xbcdc3493	-0.026880538
5	0xbd6facea	-0.058514513
6	0x3d7f70bb	0.062363368
7	0xbd7ebaba	-0.062189795
8	0x3d165e40	0.036710978
9	0xbcef5c49	-0.02921881
10	0x3d7ee1b3	0.062226962
11	0xbd7ffd56	-0.06249746
12	0xbd1428a1	-0.03617156
13	0x3ce33d84	0.027739294
14	0x3d773684	0.060354725
15	0xbcbc410b	-0.022980234
16	0xbd766125	-0.060151238
17	0x3d720cc3	0.0590942
18	0xbd26f169	-0.04075757
19	0xbd7ffef1	-0.06249899
20	0x3c98f09c	0.018669419
21	0xbd7fffce	-0.062499814
22	0x3d7ffed1	0.06249887
23	0xbd7ffbd7	-0.062496033
24	0xbd1f470d	-0.03888612
25	0xbd6a12b4	-0.057146743
26	0xbd6b7caa	-0.057491936
27	0x3d6aa361	0.057284717
28	0xbd7fff40	-0.062499285
29	0xbd7ffeb0	-0.06249875
30	0x3d3d9875	0.046287972
31	0x3b93f6b0	0.0045154914
32	0x3d7ffbef	0.062496122
33	0x3d7a2e15	0.061079103
34	0xbd60bf21	-0.054869775
35	0xbd7c4a65	-0.061594386
36	0xbb710e5a	-0.0036782236
37	0xbcdf7237	-0.027276142
38	0x3d3ad21b	0.04561053
39	0x3d7b8889	0.061409507
40	0x3d7bd9b3	0.06148691
41	0x3d7ffe2e	0.062498264
42	0x3d7ffc6d	0.06249659
43	0x3d5f4fd5	0.054519493
44	0xbd7f542b	-0.06233613
45	0x3d7ffe05	0.06249811
46	0x3d66b067	0.056320574
47	0x3d6db3dc	0.058032855
48	0xbd63c3d6	-0.055606686
49	0x3c97035a	0.018434215
50	0x3d7d3f29	0.061827812
51	0x3d7b7eb3	0.061400127
52	0x3c9e54c9	0.019327538
53	0xbd7ffef5	-0.062499005
54	0x3b074fe7	0.002064699
55	0xbd7fff28	-0.062499195
56	0xbd40104a	-0.046890534
57	0x3d582197	0.05276641
58	0x3d7ced7c	0.06174992
59	0xbd7b9e62	-0.061430342
60	0x3c4438b0	0.011976406
61	0x3d66bcf4	0.056332543
62	0xbd0da8ef	-0.034584936
63	0xbd54ba1d	-0.051935304
64	0x3d7ffe1a	0.06249819
65	0xbd7ffee8	-0.062498957
66	0x3d7ffc29	0.062496338
67	0xbd38cd79	-0.04511783
68	0x3d7a5e8b	0.06112532
69	0x3ccba7db	0.024860313
70	0xbd7fff97	-0.06249961
71	0xbd7ffa2d	-0.062494446
72	0x3bb2130f	0.005434401
73	0xbc6775db	-0.01412722
74	0xbd7ff9ac	-0.062493965
75	0x3d7ffadf	0.06249511
76	0x3d69c7b9	0.057075236
77	0xbd800000	-0.0625
78	0xbd5b6916	-0.053567015
79	0xbd7f5afd	-0.062342633
80	0xbd7a2856	-0.061073624
81	0xbd54d66a	-0.051962294
82	0xbd7ffa6c	-0.06249468
83	0xbbc9de39	-0.006160524
84	0x3d7ffceb	0.06249706
85	0xbd47acc8	-0.04874876
86	0xbd7698e8	-0.060204417
87	0xbd72987c	-0.05922745
88	0x3d255ada	0.040369846
89	0x3c181af3	0.009283769
90	0xbd48ec15	-0.04905327
91	0xbd393173	-0.045213174
92	0xbd0048c6	-0.031319402
93	0x3d1caa0e	0.038248114
94	0xbd438a79	-0.04773948
95	0xbd73ad9d	-0.059491742
96	0xbd70262a	-0.058630146
97	0xbd19df31	-0.037566368
98	0xbcab0bb5	-0.020879606
99	0x3d3cafd3	0.046066117
100	0xbd49a632	-0.04923076
101	0xbd135ae8	-0.035975367
102	0x3d7f9a50	0.062403023
103	0x3d3e6321	0.046481255
104	0x3d7ffeba	0.062498786
105	0x3d7ffa44	0.06249453
106	0x3d7ffef9	0.06249902
107	0x3d6b9c9d	0.057522405
108	0xbd1601bb	-0.036622744
109	0xbd78629b	-0.060640913
110	0xbd365f2a	-0.04452435
111	0x3d46602f	0.04843157
112	0xbc8c9726	-0.017161917
113	0x3c2aa7e5	0.010416006
114	0x3d1d0356	0.03833326
115	0xbd72a985	-0.059243698
116	0xbd6af191	-0.057359282
117	0x3d6fa57c	0.058507428
118	0xbd7ffe38	-0.0624983
119	0xbd00363d	-0.031301726
120	0x3d7fe7a6	0.062476777
121	0xbd6ec0de	-0.0582894
122	0xbd7ffab6	-0.062494956
123	0x3d7f4cb2	0.062329
124	0x3d784ed1	0.06062204
125	0x3d7baa32	0.061441608
126	0xbcbf9f24	-0.023391314
127	0xbcf8e9db	-0.030384948
128	0x3d7cd727	0.061728623
129	0x3d7fff64	0.06249942
130	0x3d7ffed8	0.062498897
131	0x3d7fd747	0.062461164
132	0x3d75e455	0.060032208
133	0x3d7f7351	0.062365834
134	0x3c63af2b	0.013896744
135	0x3c3ab38e	0.011395348
136	0x3d7c3837	0.06157705
137	0x3d5c04f8	0.053715676
138	0x3d7fff82	0.06249953
139	0x3d7f7a7a	0.062372662
140	0x3d7ffcf3	0.06249709
141	0xbd7fed14	-0.062481955
142	0x3d7c7651	0.061636273
143	0xbba50026	-0.005035418
144	0x3d7ec292	0.062197275
145	0x3b465604	0.0030263672
146	0x3d3eb2e5	0.046557326
147	0x3d7ffbf2	0.062496133
148	0x3d6db437	0.058033194
149	0xbd7e820d	-0.062135745
150	0x3baf74e1	0.005354509
151	0xbd7db6b1	-0.061941806
152	0x3c879e9d	0.016555125
153	0xbd800000	-0.0625
154	0x3d75aa52	0.059976883
155	0x3d7fffff	0.062499996
156	0x3d585ce5	0.052822966
157	0xbd7fff80	-0.062499523
158	0xbd7ffa8c	-0.0624948
159	0x3d800000	0.0625
160	0xbd7ffff6	-0.062499963
161	0xbd800000	-0.0625
162	0xbd339e09	-0.043851886
163	0xbcdb2744	-0.026752122
164	0xbca02cce	-0.019552615
165	0x3d800000	0.0625
166	0x3d1011cd	0.035173226
167	0x3d57a5ad	0.052648235
168	0xbcfc84c1	-0.03082502
169	0x39b3634c	0.00034215522
170	0xbd7c48c7	-0.061592843
171	0x3d7ea44e	0.062168412
172	0xbcb3309d	-0.021873767
173	0x3c9fa46b	0.01948758
174	0xbd750c8b	-0.059826415
175	0x3d378947	0.044808652
176	0x3d5f97da	0.054588176
177	0x3d67aac7	0.05655935
178	0xbd74c8dc	-0.059761867
179	0xbd77e885	-0.060524482
180	0x3d386903	0.045022022
181	0x3d371aed	0.044703413
182	0xbd57577e	-0.052573673
183	0xbd7fffec	-0.062499925
184	0x3d7c02fc	0.061526284
185	0xbc4ca11c	-0.012489583
186	0xbd3b0ae3	-0.04566468
187	0x3c3ca44f	0.011513784
188	0x3c2f1454	0.010685999
189	0xbd7fff7a	-0.0624995
190	0xbd7ffba7	-0.062495854
191	0xbd7ffcba	-0.06249688
192	0xbcb2b6a6	-0.02181561
193	0x3cf00e15	0.02930359
194	0x3d7ffb3a	0.062495448
195	0x3cac9e12	0.021071468
196	0x3c4ce386	0.012505418
197	0xbd6aa28f	-0.057283934
198	0xbd7f3f95	-0.062316496
199	0xbd7f99e3	-0.062402617
200	0x3d7ffcd0	0.06249696
201	0xbc98a328	-0.018632486
202	0x3d6039cf	0.05474263
203	0x3d7ffcac	0.062496826
204	0x3d6b726d	0.05748217
205	0xbce9510a	-0.028481025
206	0xbd22fcf5	-0.03979202
207	0x3d538bed	0.051647115
208	0x3d7dd796	0.061973177
209	0xbd1537c7	-0.036430147
210	0xbcd46153	-0.025925314
211	0x3c882af2	0.01662204
212	0x3d7ffed9	0.0624989
213	0x3bc98c5e	0.0061507663
214	0xbd73574c	-0.059409425
215	0x3d7fffff	0.062499996
216	0xbbb0b4f6	-0.005392666
217	0xbd7dc69d	-0.06195699
218	0xbb50843f	-0.0031817106
219	0xbd79a3c9	-0.060947213
220	0xbd1d6d37	-0.038434234
221	0x3d74d170	0.059770048
222	0x3d7ffe2c	0.062498257
223	0x3d7fff7d	0.062499512
224	0x3d77669a	0.060400583
225	0x3d7ff25e	0.062487
226	0x3d0eaf3c	0.034835085
227	0x3d7ff70c	0.06249146
228	0x3d696617	0.056982126
229	0xbd183a7d	-0.037165154
230	0x3d7ffeb8	0.062498778
231	0x3d7bffda	0.061523296
232	0xbd653379	-0.05595729
233	0x3d7985f1	0.060918752
234	0x3cf5ebdf	0.030019699
235	0x3d7f1118	0.06227216
236	0x3d1c9822	0.038231023
237	0xbd7ffc05	-0.062496204
238	0xbd7de037	-0.061981406
239	0x3d7dfbae	0.0620076
240	0x3d7ff772	0.06249184
241	0x3d7fc58d	0.06244426
242	0xbd69359a	-0.056935884
243	0xbd0417fb	-0.032249432
244	0x3c7e88fc	0.015535589
245	0xbd7f37b8	-0.062308997
246	0xbd204ff5	-0.039138753
247	0x3cb359de	0.021893438
248	0xbd694ec3	-0.05695988
249	0xbd77c1d7	-0.060487594
250	0xbc37bd11	-0.011214511
251	0xbd7fdcf8	-0.06246659
252	0xbafa957b	-0.0019118035
253	0xbd7ff05f	-0.062485095
254	0x3d7d1ce6	0.061795138
255	0x3d7d10d5	0.06178363

_func._module._model.0.bias f4 [16]
0	0xbda1afd5	-0.078948654
1	0x3e8026a4	0.2502948
2	0x3ca920b8	0.020645484
3	0xbe13e029	-0.14440979
4	0xbd4d58b0	-0.050133407
5	0x3ca3b2e1	0.019982757
6	0x3e389856	0.18026862
7	0x3db08238	0.08618587
8	0xbe382ba0	-0.17985392
9	0x3e3c33cf	0.18379138
10	0x3d8dc9ee	0.06923281
11	0x3d829c4e	0.06377469
12	0x3e80fd00	0.25193024
13	0x3df6d957	0.12053173
14	0x3e4f5c15	0.2024997
15	0x3e75a707	0.23989497

_func._module._model.2.weight f4 [32, 16]
0	0x3ce6be0a	0.02816679
1	0x3cfbef98	0.030753896
2	0xbcfffe77	-0.031249268
3	0xbcd5b37c	-0.026086561
4	0x3cbf6e9d	0.023368174
5	0xbcffe878	-0.03123878
6	0x3cfff2f2	0.031243775
7	0xbcffc0ef	-0.031219928
8	0x3cfc32eb	0.030785998
9	0x3c900fc7	0.017585648
10	0xbcff8400	-0.031190872
11	0xbb972480	-0.0046125054
12	0x3ce0b8fe	0.027431961
13	0xbc77f849	-0.015134879
14	0x3cb5c628	0.022189215
15	0x3cd680c2	0.026184443
16	0xbccb04b7	-0.024782522
17	0xbcfea1da	-0.031083036
18	0xbc649174	-0.013950694
19	0xbcfff924	-0.03124673
20	0xbcff271e	-0.031146582
21	0xbb0307c4	-0.0019993642
22	0x3cfa7fe8	0.030578569
23	0x3cffb44f	0.031213908
24	0x3cffbb15	0.031217137
25	0xbcac55e6	-0.021037053
26	0xbcfff8c4	-0.03124655
27	0xbcfd6e76	-0.030936461
28	0x3ce9abed	0.028524363
29	0x3cfc3dae	0.03079113
30	0xbc2f31fa	-0.010693068
31	0xbcce2cb5	-0.025167802
32	0xbcf375e9	-0.02971931
33	0xbcfff993	-0.031246936
34	0x3cf31b8f	0.029676227
35	0xbcfd987c	-0.0309565
36	0xbcff8d5b	-0.031195333
37	0xbcf73187	-0.030174984
38	0x3cfebba1	0.031095328
39	0x3c305aae	0.010763807
40	0x3cfffe86	0.031249296
41	0x3cf382b8	0.029725417
42	0x3cf3ab11	0.029744657
43	0xbcffe6a7	-0.031237913
44	0x3cfff75d	0.031245882
45	0x3cfff9f8	0.031247124
46	0x3cec8723	0.028873032
47	0xbc9c9d88	-0.019118086
48	0xbcfff6fc	-0.031245701
49	0xbcfb95de	-0.03071111
50	0xbb6d3d43	-0.0036199845
51	0x3c966411	0.018358262
52	0x3cceff61	0.025268259
53	0x3c6a7abf	0.0143114915
54	0x3cfc4c0d	0.030797983
55	0xbc634195	-0.013870616
56	0x3cfc27c1	0.030780675
57	0x3c052218	0.008125804
58	0x3c608403	0.013703349
59	0xbc8dc8e9	-0.017307715
60	0x3cfc1454	0.030771412
61	0xbcf1b805	-0.029506693
62	0xbcfb0eb7	-0.030646665
63	0x3cf9a901	0.030476095
64	0xbc4adc93	-0.012381691
65	0x3ca013e5	0.019540736
66	0xbcf44b89	-0.029821174
67	0xbcffa5bc	-0.031206958
68	0xbcfff773	-0.031245923
69	0xbcf80c01	-0.030279161
70	0xbcbc9967	-0.023022367
71	0xbca14b50	-0.019689232
72	0x3cfffc8a	0.03124835
73	0xbc62431d	-0.013809946
74	0xbcf36c06	-0.029714596
75	0xbcfff84e	-0.03124633
76	0x3cd46218	0.025925681
77	0xbcad144e	-0.021127846
78	0x3cebc972	0.02878258
79	0xbccc2af0	-0.024922818
80	0x3cccb24c	0.024987362
81	0xbcd5b76b	-0.026088437
82	0xbcff082d	-0.031131828
83	0xbcff9c06	-0.031202327
84	0x3b9de166	0.0048181294
85	0x3c568bc2	0.013094844
86	0x3cfc742a	0.03081711
87	0x3ce660fd	0.02812242
88	0x3cf8c7ae	0.030368652
89	0xbcfffc9d	-0.031248385
90	0xbcfff8db	-0.031246593
91	0xbcfffc44	-0.03124822
92	0xbcd6a9b8	-0.026203975
93	0x3cf77d23	0.030211037
94	0x3bcd3459	0.006262344
95	0x3cef3cf4	0.02920387
96	0x3ce1f359	0.027581858
97	0xbcfffa9e	-0.031247433
98	0xbcc5bd87	-0.024138225
99	0xbcfccbcb	-0.030858895
100	0xbcfe41d5	-0.03103725
101	0x3c9a9526	0.018869948
102	0x3cfff802	0.031246189
103	0x3cfffdb8	0.031248912
104	0x3cffffbe	0.031249877
105	0x3caa57c4	0.020793803
106	0xbcffa3f4	-0.031206109
107	0xbcff90b9	-0.031196939
108	0xbca0d3ac	-0.019632183
109	0x3cfffade	0.031247552
110	0xbcfa26d3	-0.030536091
111	0x3cfff8d2	0.031246576
112	0x3cf42e00	0.02980709
113	0x3cbcf2e1	0.023065032
114	0xbc91e1d1	-0.017807873
115	0xbba96e62	-0.0051706294
116	0xbbf65484	-0.0075173993
117	0xbcac1998	-0.021008298
118	0x3cf302a1	0.02966434
119	0x3cffc790	0.031223089
120	0x3cff9586	0.031199228
121	0xbcfffba4	-0.031247921
122	0xbcfff581	-0.031244995
123	0xbc4bfff4	-0.012451161
124	0x3c94dc0e	0.018171337
125	0x3cfd600c	0.030929588
126	0xbcf9f40b	-0.030511877
127	0x3c2f2e13	0.010692137
128	0xbc9cba5f	-0.019131837
129	0xbc9a99fc	-0.018872254
130	0x3cd4df69	0.025985437
131	0x3cfde4db	0.030992916
132	0x3cfff913	0.031246698
133	0xbcc67a7b	-0.024228325
134	0x3c7c5e64	0.015403364
135	0x3cfc714f	0.030815748
136	0xbce0748c	-0.027399324
137	0xbc3a08fa	-0.011354679
138	0x3cfc9025	0.030830452
139	0x3cdfdb32	0.0273262
140	0xbca06da2	-0.019583527
141	0xbcae5473	-0.021280503
142	0xbcb1bdec	-0.021697007
143	0xbc73cc79	-0.014880293
144	0x3c12ccb3	0.008959937
145	0x3c5074cb	0.012723158
146	0x3cec765d	0.028865034
147	0xbc3bbd38	-0.0114586875
148	0x3ced2797	0.028949542
149	0xbc805f6e	-0.015670504
150	0xbbb41b8f	-0.0054964493
151	0xbcc22242	-0.023697976
152	0xbcfff8bb	-0.031246534
153	0x3cd10440	0.025514722
154	0xbcafab8c	-0.021444105
155	0x3ce60624	0.0280791
156	0x3ceef7c8	0.029170886
157	0xbcfe9232	-0.03107557
158	0xbc996d5e	-0.018728908
159	0xbb5212ac	-0.0032054586
160	0xbc5cd37c	-0.013478156
161	0xbcedbff3	-0.029022193
162	0xbc625c46	-0.013815945
163	0x3ceda4da	0.029009271
164	0xbabc2b94	-0.0014356249
165	0xbc379d6c	-0.011206966
166	0x3cf92951	0.030415209
167	0xb7c0a576	-2.2965232e-05
168	0x3cf98789	0.030460136
169	0x3cf227db	0.02956002
170	0xbcf7227a	-0.030167807
171	0x3cb7ad69	0.022421556
172	0xbccaabd9	-0.024740146
173	0xbc5673cd	-0.0130891325
174	0xbcc5e8bf	-0.024158834
175	0x3cb77f17	0.022399468
176	0x3cb59860	0.022167385
177	0xbce79a80	-0.028271914
178	0x3c882498	0.016619012
179	0x3cb43d53	0.022001898
180	0xbcfb46f7	-0.030673487
181	0x3c2ab713	0.010419625
182	0x3cfeec32	0.031118486
183	0x3cff7605	0.031184206
184	0x3cf7be5b	0.030242136
185	0x3c24bfb3	0.01005547
186	0x3c7febc5	0.015620177
187	0x3b80797a	0.003920731
188	0x3cffea68	0.031239703
189	0xbc275645	-0.010213439
190	0xbc984134	-0.018585779
191	0x3cfff0ae	0.031242695
192	0x3cfb9a88	0.030713335
193	0x3a73fae3	0.00093070994
194	0xbc5f9b6d	-0.013647896
195	0x3cffd7d3	0.031230843
196	0x3cfff789	0.031245964
197	0xbc82a886	-0.015949499
198	0x3cea2e07	0.0285864
199	0x3c6117fc	0.0137386285
200	0xbcfb628d	-0.030686641
201	0x3cbb3876	0.022854071
202	0xbcfff34b	-0.03124394
203	0xbc8596eb	-0.016307315
204	0x3cecb82d	0.028896416
205	0xbbd72007	-0.0065650973
206	0x3cd46df1	0.02593133
207	0x3ceef56a	0.029169757
208	0x3adfdaf6	0.0017078805
209	0x3cef180c	0.029186271
210	0xbc83e3f4	-0.016099907
211	0x3cc5378b	0.024074337
212	0x3c25be1d	0.010116127
213	0xbc006d23	-0.00783852
214	0x3a70fdf1	0.00091931137
215	0xbc361216	-0.01111271
216	0xbad14ac8	-0.0015967721
217	0x3cfffbb1	0.031247946
218	0x3cfff76a	0.031245906
219	0x3bc4bb4c	0.006003773
220	0x3b9e2cdc	0.004827125
221	0x3cb14194	0.021637715
222	0xbb448806	-0.0029988303
223	0xbcf8d09d	-0.030372912
224	0xbc888a73	-0.01666758
225	0xbcfffff9	-0.031249987
226	0x3cf24f6b	0.029578885
227	0xbcfffb86	-0.031247865
228	0x3a899632	0.0010497032
229	0xbcfff1db	-0.031243255
230	0x3cffee60	0.031241596
231	0x3b190343	0.0023347891
232	0x3bc03efb	0.005866883
233	0x3c1b8f09	0.009494551
234	0x3ce1e65a	0.02757566
235	0xbc3b2b41	-0.011423887
236	0x3cffff2f	0.03124961
237	0xbc16d1da	-0.009205306
238	0xbc93716c	-0.01799842
239	0x3cfde20d	0.030991578
240	0xbc9945c2	-0.01871002
241	0xbc42cd5e	-0.011889784
242	0xbc577037	-0.013149313
243	0xbcb33c44	-0.021879323
244	0x3cff2775	0.031146744
245	0xbc871575	-0.016489724
246	0x3c48dfa4	0.012260351
247	0xbc89f7a7	-0.016841723
248	0xbcfffd2b	-0.03124865
249	0xba8bceb1	-0.0010666457
250	0xbcdb2e62	-0.026755515
251	0xbc003e13	-0.0078273
252	0x3ceac11e	0.028656539
253	0xbc3743af	-0.011185571
254	0xbce3f8b5	-0.027828554
255	0x3cfaeee3	0.030631488

_func._module._model.2.bias f4 [32]
0	0xbe053e3d	-0.13012023
1	0x3b0718c5	0.002061413
2	0xbd7cf1d6	-0.06175407
3	0x3df33730	0.118757606
4	0xbe6a91f4	-0.22907239
5	0x3db03809	0.08604438
6	0x3dfaf3c5	0.122535266
7	0xbd88ca4c	-0.0667921
8	0x3d851c25	0.06499509
9	0x3cb6c39c	0.02231007
10	0xbe43fe60	-0.19140005
11	0xbdad8e8f	-0.084744565
12	0x3d35ff3c	0.044432864
13	0xbe138d4a	-0.14409366
14	0x3e29db8b	0.16587655
15	0xbd5fe178	-0.054658383
16	0xbe1b7c14	-0.15184051
17	0x3e6b9b3d	0.23008437
18	0x3d808940	0.06276178
19	0xbd9748f1	-0.07386959
20	0x3decdaf8	0.115652025
21	0xbd016174	-0.03158708
22	0xbd2110c2	-0.039322622
23	0xbe0db69d	-0.13839193
24	0x3d06bfc5	0.03289773
25	0x3ddaa269	0.106755085
26	0xbe0e78d8	-0.13913286
27	0xbdac1173	-0.08401766
28	0x3e6260b6	0.22107205
29	0x3d5147e3	0.051093947
30	0xbdcbc179	-0.09949011
31	0xbd043dcd	-0.0322855

_readout.weight f4 [1, 16]
0	0xbe664c10	-0.22489953
1	0x3e7cdc82	0.24693492
2	0xbe4a8cbe	-0.19780251
3	0xbd5932fb	-0.053027134
4	0x3ea4e7ee	0.32208198
5	0x3d20abfb	0.039226513
6	0xbe80cb26	-0.2515499
7	0x3f218f7a	0.6310955
8	0x3eb03619	0.34416273
9	0xbe982858	-0.2971828
10	0x3dea4c77	0.11440366
11	0xbe91c019	-0.2846687
12	0x3da356c0	0.079755306
13	0xbd940393	-0.07227244
14	0x3e5e000d	0.21679707
15	0x3e87e7b1	0.26543954
