model_saves/discriminator_reverseHeun.pth (torch, 8735 bytes, 9 tensors)

_initial._model.0.weight f4 [16, 2]
0.057993013 -0.0625 -0.05799105 -0.0625 0.057994492 -0.0625 0.05799109 -0.061951272
-0.057994235 -0.0625 0.057994746 0.0625 0.057995092 0.0625 0.057992145 -0.062198184
0.057990838 0.0625 -0.057994716 -0.0625 -0.05799407 0.0625 -0.057991415 -0.0625
-0.057990897 0.0625 -0.057990905 -0.0625 -0.05799317 -0.062499996 -0.035995744 0.0625
00000000: 158a 6d3d 0000 80bd 0688 6dbd 0000 80bd
00000010: a28b 6d3d 0000 80bd 1188 6d3d 9ec0 7dbd
00000020: 5d8b 6dbd 0000 80bd e68b 6d3d 0000 803d
00000030: 438c 6d3d 0000 803d 2c89 6d3d 86c3 7ebd
00000040: cd87 6d3d 0000 803d de8b 6dbd 0000 80bd
00000050: 318b 6dbd 0000 803d 6888 6dbd 0000 80bd
00000060: dd87 6dbd 0000 803d df87 6dbd 0000 80bd
00000070: 3f8a 6dbd ffff 7fbd 4670 13bd 0000 803d

_initial._model.0.bias f4 [16]
-0.17923878 0.20133364 -0.40923035 0.62756777 0.123725034 -0.602276 0.3912405 0.4675177
0.3029439 0.01499954 0.21511345 -0.32460824 -0.09365086 -0.19003646 0.2548489 0.22215548
00000000: 5f8a 37be 682a 4e3e a486 d1be 48a8 203f
00000010: 8d63 fd3d c32e 1abf ad50 c83e 7b5e ef3e
00000020: 761b 9b3e a1c0 753c b346 5c3e 0d33 a6be
00000030: 06cc bfbd eb98 42be 8e7b 823e ba7c 633e

_initial._model.2.weight f4 [16, 16]
-0.062386606 -0.06189568 -0.062496845 -0.06177092 -0.061871976 -0.034569733 0.062496204 -0.061844803
0.062492188 -0.061853852 0.062469196 -0.06249187 0.062116038 -0.0624004 -0.06190542 0.062472537
-0.06249999 -0.062499974 -0.062499553 0.007757176 -0.0625 0.062497664 0.062279608 -0.062499717
0.062499985 -0.0625 0.06249999 -0.062499836 0.0625 -0.06249999 -0.06249997 0.06249999
-0.06249999 -0.06249996 0.027133409 0.021036707 -0.062499996 -0.048850372 0.06249985 -0.0030291344
0.06249994 -0.0625 0.062499985 -0.0064571523 0.0625 -0.062499985 -0.041551705 0.062499985
-0.0625 -0.0625 -0.062499817 0.04727317 -0.0625 0.054491494 0.025840893 0.040471748
0.055079732 -0.0625 0.0625 0.031085884 0.0625 -0.058738377 0.017041974 0.0625
0.04046102 -0.062357347 0.054290503 -0.062232934 0.026701683 0.061910715 -0.05024469 -0.062265955
0.059499174 -0.039022066 0.060538955 0.04879852 0.029492237 0.041832462 0.03870339 -0.041966584
-0.0623527 -0.06224382 -0.01970554 -0.06227173 -0.062195737 -0.014278492 0.06248107 -0.06228557
0.06247596 -0.062098105 0.062465753 -0.0624287 0.062394965 -0.062361345 -0.062262535 0.062466983
0.06249999 0.06249998 -0.046126947 -0.034538057 0.0625 0.050974865 0.028883602 -0.03683045
0.010047994 0.0625 -0.062499993 -0.04092079 -0.0625 0.06249999 0.062499966 -0.062499993
-0.05998287 0.033904836 0.027439434 0.051574297 0.02534893 -0.05806425 0.058524527 -0.005380292
0.055174734 -0.03944803 -0.015244868 0.024953693 0.003806836 -0.0024382516 0.038124178 -0.015574291
-0.022094231 -0.0625 -0.06249985 -0.06249939 -0.0625 0.062497586 -0.0039880853 0.017619027
0.018387314 -0.0625 0.060884286 -0.062499963 0.0625 -0.007274634 -0.0625 0.04345686
-0.061743222 -0.061527092 -0.062207285 -0.06194433 -0.06129513 0.06216264 0.06219653 -0.061864004
0.062119335 -0.06078443 0.06200426 -0.062088873 0.061629195 -0.06178019 -0.061638083 0.062013794
-0.0625 -0.061175738 -0.05030632 -0.025948627 -0.0625 0.06052962 0.061821863 0.04479886
0.0625 -0.0625 0.0625 -0.03578656 0.0625 -0.0625 -0.0625 0.014909337
-0.062499985 -0.062499955 -0.06249945 -0.04549 -0.0625 0.062497634 0.062499873 -0.062499672
0.06249996 -0.0625 0.06249998 -0.06242648 0.0625 -0.06249999 -0.062499955 0.06249998
-0.017458718 -0.017000984 0.062285922 -0.0529038 0.051939882 0.05834195 0.034357812 -0.04958208
-0.027111817 0.0625 0.005289809 0.06212861 -0.056751423 -0.022974888 -0.035736274 -0.0625
-0.062499292 -0.062498882 -0.062497865 -0.062497392 -0.062499255 0.06236888 0.062498905 -0.06249794
0.06249918 -0.06249972 0.062499456 -0.062498394 0.062499654 -0.06249923 -0.062498722 0.062499415
0.0625 0.0625 0.06249985 0.06240003 0.0625 -0.062116936 -0.06249999 0.0624998
-0.059586767 0.0625 -0.0625 0.062499966 -0.0625 0.021333322 0.062499996 -0.0625
0.06249999 0.062499955 0.06249963 -0.0027657636 0.062499993 0.045631137 -0.062499944 -0.006914141
-0.06249998 0.0625 -0.06249999 0.062499862 -0.0625 0.06249999 0.028423695 -0.06249999
00000000: 1989 7fbd 5386 7dbd b1fc 7fbd 8103 7dbd
00000010: 786d 7dbd fe98 0dbd 05fc 7f3d fa50 7dbd
00000020: cff7 7f3d 775a 7dbd b3df 7f3d 7af7 7fbd
00000030: 636d 7e3d 9097 7fbd 8a90 7dbd 34e3 7f3d
00000040: fdff 7fbd f9ff 7fbd 88ff 7fbd e92f fe3b
00000050: 0000 80bd 8dfd 7f3d e718 7f3d b4ff 7fbd
00000060: fcff 7f3d 0000 80bd fdff 7f3d d4ff 7fbd
00000070: 0000 803d fdff 7fbd f8ff 7fbd fdff 7f3d
00000080: fdff 7fbd f5ff 7fbd e246 de3c 2c55 ac3c
00000090: ffff 7fbd 5417 48bd d8ff 7f3d 7184 46bb
000000a0: f0ff 7f3d 0000 80bd fcff 7f3d 8596 d3bb
000000b0: 0000 803d fcff 7fbd 1f32 2abd fcff 7f3d
000000c0: 0000 80bd 0000 80bd cfff 7fbd 83a1 413d
000000d0: 0000 80bd 7932 5f3d 48b0 d33c b4c5 253d
000000e0: 499b 613d 0000 80bd 0000 803d d3a7 fe3c
000000f0: 0000 803d a797 70bd 9c9b 8b3c 0000 803d
00000100: 74ba 253d 6b6a 7fbd b85f 5e3d f6e7 7ebd
00000110: 7dbd da3c 1796 7d3d 60cd 4dbd 960a 7fbd
00000120: 68b5 733d 9ad5 1fbd b2f7 773d f5e0 473d
00000130: b499 f13c 8458 2b3d 7287 1e3d 27e5 2bbd
00000140: 8b65 7fbd 60f3 7ebd 836d a1bc a410 7fbd
00000150: f5c0 7ebd 56f0 69bc 27ec 7f3d 271f 7fbd
00000160: cbe6 7f3d 955a 7ebd 17dc 7f3d 3db5 7fbd
00000170: dd91 7f3d 9c6e 7fbd 0007 7fbd 61dd 7f3d
00000180: fdff 7f3d fbff 7f3d 9cef 3cbd c777 0dbd
00000190: 0000 803d 05cb 503d 4e9d ec3c 87db 16bd
000001a0: 57a0 243c 0000 803d feff 7fbd 8f9c 27bd
000001b0: 0000 80bd fdff 7f3d f7ff 7f3d feff 7fbd
000001c0: 99b0 75bd ccdf 0a3d aac8 e03c 923f 533d
000001d0: 8fa8 cf3c c7d4 6dbd 6ab7 6f3d 294d b0bb
000001e0: e7fe 613d 4294 21bd 9cc5 79bc b06b cc3c
000001f0: 1c7c 793b 13cb 1fbb 1928 1c3d 502b 7fbc
00000200: f6fe b4bc 0000 80bd d8ff 7fbd 5cff 7fbd
00000210: 0000 80bd 78fd 7f3d 7cae 82bb c755 903c
00000220: fea0 963c 0000 80bd cd61 793d f6ff 7fbd
00000230: 0000 803d 0e60 eebb 0000 80bd d2ff 313d
00000240: 76e6 7cbd d503 7cbd 11cd 7ebd 56b9 7dbd
00000250: 9a10 7bbd 419e 7e3d cac1 7e3d 1c65 7dbd
00000260: d870 7e3d 18f9 78bd 2ef8 7d3d e750 7ebd
00000270: e56e 7c3d 390d 7dbd 3778 7cbd 2d02 7e3d
00000280: 0000 80bd 6993 7abd 000e 4ebd 3792 d4bc
00000290: 0000 80bd e8ed 773d ec38 7d3d 027f 373d
000002a0: 0000 803d 0000 80bd 0000 803d ee94 12bd
000002b0: 0000 803d 0000 80bd 0000 80bd 4b46 743c
000002c0: fcff 7fbd f4ff 7fbd 6cff 7fbd b953 3abd
000002d0: 0000 80bd 85fd 7f3d deff 7f3d a8ff 7fbd
000002e0: f5ff 7f3d 0000 80bd fbff 7f3d e9b2 7fbd
000002f0: 0000 803d fdff 7fbd f4ff 7fbd fbff 7f3d
00000300: 9605 8fbc a645 8bbc 861f 7f3d a8b1 58bd
00000310: eabe 543d f8f7 6e3d c7ba 0c3d 9416 4bbd
00000320: 9a19 debc 0000 803d 2256 ad3b 927a 7e3d
00000330: 2e74 68bd d535 bcbc 3360 12bd 0000 80bd
00000340: 42ff 7fbd d4fe 7fbd c3fd 7fbd 44fd 7fbd
00000350: 38ff 7fbd 8376 7f3d dafe 7f3d d7fd 7fbd
00000360: 24ff 7f3d b5ff 7fbd 6eff 7f3d 51fe 7fbd
00000370: a3ff 7f3d 31ff 7fbd a9fe 7fbd 63ff 7f3d
00000380: 0000 803d 0000 803d d8ff 7f3d 2d97 7f3d
00000390: 0000 803d 546e 7ebd fdff 7fbd caff 7f3d
000003a0: 4111 74bd 0000 803d 0000 80bd f7ff 7f3d
000003b0: 0000 80bd 38c3 ae3c ffff 7f3d 0000 80bd
000003c0: fdff 7f3d f4ff 7f3d 9dff 7f3d d041 35bb
000003d0: feff 7f3d b7e7 3a3d f1ff 7fbd 0590 e2bb
000003e0: fbff 7fbd 0000 803d fdff 7fbd dbff 7f3d
000003f0: 0000 80bd fdff 7f3d cfd8 e83c fdff 7fbd

_initial._model.2.bias f4 [16]
0.21708193 0.03087147 0.17079726 0.2023825 -0.12062672 -0.11807606 -0.014348535 -0.05189679
-0.16844082 -0.054294575 -0.049858194 -0.09938072 0.20939253 -0.08075948 -0.1468688 0.07164235
00000000: ba4a 5e3e 2ae6 fc3c 7ae5 2e3e 5c3d 4f3e
00000010: 240b f7bd ddd1 f1bd 1e16 6bbc ba91 54bd
00000020: c07b 2cbe fd63 5ebd 1b38 4cbd 1e88 cbbd
00000030: ff6a 563e 3a65 a5bd c664 16be 39b9 923d

_func._module._model.0.weight f4 [16, 17]
0.056731217 0.037798475 -0.056943607 -0.03984598 -0.025679136 -0.059056707 0.06249639 -0.061914828
0.038245402 -0.048414342 0.06195501 -0.062497463 -0.03561951 0.02562696 0.05882792 -0.022960572
-0.059286278 0.059305415 -0.019015236 -0.06249899 0.018870488 -0.062499814 0.06249888 -0.062496033
-0.03821903 -0.054989837 -0.05581479 0.055072106 -0.062499285 -0.062498752 0.043782942 0.00835268
0.062496122 0.059659716 -0.05602477 -0.060688764 -0.0007313374 -0.02535166 0.044536345 0.06032053
0.062285285 0.062498264 0.06249659 0.05959143 -0.06217381 0.06249811 0.05554981 0.057169948
-0.054595392 0.017096687 0.06116031 0.061655097 0.050134525 -0.062499005 0.0022375337 -0.062499195
-0.048614934 0.05366966 0.06202181 -0.060396485 0.018291462 0.055632222 -0.032648258 -0.051356066
0.062498204 -0.062498964 0.06249634 -0.04833217 0.061261807 0.04324082 -0.06249961 -0.062494446
0.00684597 -0.014662746 -0.062493965 0.06249511 0.05746411 -0.0625 -0.055941284 -0.06220558
-0.062400967 -0.05180959 -0.06249468 -0.0062946803 0.06249706 -0.050528023 -0.059225757 -0.05595494
0.049816955 0.00811541 -0.041684635 -0.044376545 -0.053709023 0.03532216 -0.04216967 -0.0615643
-0.05501376 -0.038577378 -0.017181378 0.04575842 -0.05354885 -0.037981033 0.062481195 0.030462462
0.062498786 0.06249453 0.06249902 0.05942324 -0.037704293 -0.060284067 -0.045302067 0.04430282
-0.017658446 0.009082981 0.037359502 -0.057885516 -0.05996038 0.059446808 -0.0624983 -0.03266033
0.0624524 -0.059813116 -0.062494956 0.06215891 0.061798263 0.06133707 -0.024723206 -0.032453984
0.061116736 0.06249943 0.062498897 0.062497597 0.06100981 0.06223293 0.013673008 0.015909595
0.060762912 0.0449314 0.062499534 0.06247266 0.06249709 -0.06246679 0.062342614 -0.0045853225
0.061897438 -0.010169388 0.048821036 0.062496133 0.060274627 -0.06245411 0.00544278 -0.06240559
0.019728785 -0.0625 0.057453908 0.062499996 0.043145966 -0.062499523 -0.0624948 0.0625
-0.062499963 -0.0625 -0.054284725 -0.022673583 0.016037622 0.0625 0.057192557 0.042796418
-0.0014628061 -0.033274643 -0.060685914 0.061837085 -0.024240674 0.0153491525 -0.05715293 0.049327202
0.046676375 0.05876937 -0.057024125 -0.062407535 0.060059145 0.050330207 -0.059962083 -0.062499925
0.060552638 -0.0072559 -0.05146942 0.0106506385 0.034158103 -0.0624995 -0.062495854 -0.06249688
-0.024017863 0.030976696 0.062495448 0.020722955 0.026691683 -0.059395254 -0.06249548 -0.062496666
0.062496964 -0.015705934 0.053390715 0.062496826 0.062137395 -0.048434604 -0.042707697 0.052680183
0.061459765 -0.03256839 -0.04409471 0.010367094 0.062498912 -0.0010864937 -0.056318913 0.0625
-0.028020678 -0.06141543 -0.032064836 -0.05939494 -0.0393661 0.059763048 0.062498257 0.06249952
0.05969547 0.06248221 0.036112897 0.062492695 0.058207862 -0.037117563 0.062498778 0.06062432
-0.056177787 0.061986286 0.03032621 0.062047224 0.038604464 -0.062496204 -0.06146297 0.0615153
0.06249184 0.062387004 -0.05139717 -0.024217356 0.0037517764 -0.062118452 -0.029254176 0.0055757095
-0.05141979 -0.05847525 -0.021314722 -0.06243497 -0.014112772 -0.062473927 0.061090417 0.06198976
00000000: fe5e 683d 93d2 1a3d b33d 69bd 8a35 23bd
00000010: 0d5d d2bc 72e5 71bd 37fc 7f3d 679a 7dbd
00000020: 36a7 1c3d 1e4e 46bd 89c4 7d3d 57fd 7fbd
00000030: c3e5 11bd a1ef d13c 8cf5 703d cf17 bcbc
00000040: 2bd6 72bd 3cea 723d d7c5 9bbc f1fe 7fbd
00000050: 4896 9a3c ceff 7fbd d3fe 7f3d d7fb 7fbd
00000060: 8f8b 1cbd 063d 61bd 0d9e 64bd 4a93 613d
00000070: 40ff 7fbd b1fe 7fbd be55 333d aed9 083c
00000080: effb 7f3d bf5d 743d 3b7a 65bd c894 78bd
00000090: 39b7 3fba 49ae cfbc be6b 363d a912 773d
000000a0: db1e 7f3d 2efe 7f3d 6dfc 7f3d 2516 743d
000000b0: f7a9 7ebd 05fe 7f3d 3388 633d 092b 6a3d
000000c0: 6b9f 5fbd 5a0e 8c3c 3c83 7a3d 0e8a 7c3d
000000d0: dc59 4d3d f5fe 7fbd 96a3 123b 28ff 7fbd
000000e0: 7420 47bd b8d4 5b3d 950a 7e3d 4e62 77bd
000000f0: fad7 953c 9dde 633d 2eba 05bd bd5a 52bd
00000100: 1efe 7f3d eafe 7fbd 2afc 7f3d f4f7 45bd
00000110: a9ed 7a3d 491d 313d 97ff 7fbd 2dfa 7fbd
00000120: 2954 e03b 043c 70bc acf9 7fbd dffa 7f3d
00000130: 7d5f 6b3d 0000 80bd b022 65bd 47cb 7ebd
00000140: 2898 7fbd 4b36 54bd 6cfa 7fbd 9b43 cebb
00000150: ebfc 7f3d 79f6 4ebd b596 72bd 0231 65bd
00000160: dd0c 4c3d 7ff6 043c 82bd 2abd 2ec4 35bd
00000170: fefd 5bbd f8ad 103d 1bba 2cbd d92a 7cbd
00000180: 1c56 61bd 5003 1ebd f6bf 8cbc 2e6d 3b3d
00000190: 0a56 5bbd 0092 1bbd 48ec 7f3d 6a8c f93c
000001a0: bafe 7f3d 44fa 7f3d f9fe 7f3d c965 733d
000001b0: d16f 1abd 6dec 76bd a98e 39bd e076 353d
000001c0: 72a8 90bc c9d0 143c 4706 193d 5d19 6dbd
000001d0: 0499 75bd 7f7e 733d 38fe 7fbd d7c6 05bd
000001e0: 16ce 7f3d 99fe 74bd b6fa 7fbd 579a 7e3d
000001f0: 2d20 7d3d 943c 7b3d 5288 cabc 78ee 04bd
00000200: 8b55 7a3d 67ff 7f3d d8fe 7f3d 7bfd 7f3d
00000210: 6ce5 793d f5e7 7e3d c104 603c d754 823c
00000220: 88e2 783d fd09 383d 83ff 7f3d 55e3 7f3d
00000230: f3fc 7f3d 2ddd 7fbd f85a 7f3d 7940 96bb
00000240: 2b88 7d3d 819d 26bc 91f8 473d f2fb 7f3d
00000250: 87e2 763d e1cf 7fbd 5959 b23b 019d 7fbd
00000260: 439e a13c 0000 80bd ca54 6b3d ffff 7f3d
00000270: d3b9 303d 80ff 7fbd 8cfa 7fbd 0000 803d
00000280: f6ff 7fbd 0000 80bd a959 5ebd f3bd b9bc
00000290: 5561 833c 0000 803d be42 6a3d 4c4b 2f3d
000002a0: a1bb bfba fe4a 08bd cb91 78bd e248 7d3d
000002b0: 6194 c6bc 037b 7b3c 3119 6abd 520b 4a3d
000002c0: ba2f 3f3d 27b8 703d 2192 69bd 0b9f 7fbd
000002d0: 9400 763d 0c27 4e3d cd9a 75bd ecff 7fbd
000002e0: 0b06 783d e7c2 edbb 99d1 52bd 0480 2e3c
000002f0: 5ee9 0b3d 7aff 7fbd a7fb 7fbd bafc 7fbd
00000300: 1cc1 c4bc d7c2 fd3c 3afb 7f3d 30c3 a93c
00000310: 84a8 da3c 7048 73bd 43fb 7fbd 81fc 7fbd
00000320: d1fc 7f3d bba9 80bc 39b0 5a3d acfc 7f3d
00000330: c883 7e3d 5d63 46bd 44ee 2ebd 2dc7 573d
00000340: 3cbd 7b3d 6f66 05bd a89c 34bd beda 293c
00000350: dcfe 7f3d ae68 8eba a9ae 66bd 0000 803d
00000360: 9f8b e5bc bf8e 7bbd 6b56 03bd 1c48 73bd
00000370: 593e 21bd 19ca 743d 2cfe 7f3d 7fff 7f3d
00000380: 3d83 743d 59ed 7f3d 1eeb 133d 57f8 7f3d
00000390: 5e6b 6e3d 9608 18bd b8fe 7f3d 3551 783d
000003a0: ae1a 66bd 55e5 7d3d ac6e f83c 3b25 7e3d
000003b0: b71f 1e3d 05fc 7fbd 98c0 7bbd 78f7 7b3d
000003c0: 72f7 7f3d 8489 7f3d d785 52bd 7a63 c6bc
000003d0: 5de0 753b eb6f 7ebd 74a6 efbc 71b4 b63b
000003e0: 8f9d 52bd be83 6fbd 369c aebc d0bb 7fbd
000003f0: 4239 67bc a9e4 7fbd f239 7a3d f9e8 7d3d

_func._module._model.0.bias f4 [16]
-0.07836903 0.2516254 0.020964183 -0.14485668 -0.050232433 0.01989586 0.17922609 0.083297364
-0.18129326 0.18893372 0.07805351 0.063400924 0.24463819 0.119832434 0.21767373 0.23833515
00000000: f17f a0bd 0bd5 803e 14bd ab3c 4f55 14be
00000010: 86c0 4dbd a5fc a23c 0b87 373e cf97 aa3d
00000020: f1a4 39be d777 413e 85da 9f3d 58d8 813d
00000030: 6f82 7a3e b56a f53d dde5 5e3e 210e 743e

_func._module._model.2.weight f4 [32, 16]
0.027489612 0.031241678 -0.031249268 -0.025789872 0.024283746 -0.031229272 0.03124225 -0.03119238
0.030322907 0.017153302 -0.031159101 -0.0030633395 0.027317494 -0.016111555 0.021907324 0.025695004
-0.022277234 -0.030917127 -0.003929328 -0.03124673 -0.031043846 -0.0016161685 0.03113023 0.031179026
0.03124805 -0.015470897 -0.031246595 -0.030623795 0.029451482 0.031245548 -0.0047678845 -0.024078779
-0.030929517 -0.031247001 0.030469866 -0.031117838 -0.031178437 -0.029571718 0.030942334 -0.0048960573
0.031249315 0.029292028 0.029907674 -0.031238174 0.031245895 0.031247137 0.028572842 -0.020867385
-0.031245705 -0.030173209 -0.006714255 0.022148082 0.028561417 0.015134634 0.031218708 -0.025267817
0.031248843 0.013740641 0.016015556 -0.0135004325 0.031231787 -0.029388977 -0.030043803 0.0312393
-0.012443109 0.020793343 -0.029489135 -0.031245627 -0.03124596 -0.030026209 -0.025016207 -0.02524963
0.031248353 -0.0144421635 -0.029858269 -0.031246366 0.025292553 -0.02312099 0.028282585 -0.026299192
0.027852055 -0.023713617 -0.031013671 -0.03115515 0.008586615 0.014024769 0.031245513 0.030527664
0.03124802 -0.031248385 -0.031246599 -0.031248227 -0.024692515 0.031236624 0.012539988 0.030834015
0.025248634 -0.03124753 -0.017026907 -0.03124483 -0.031244311 0.019302953 0.031246195 0.031248912
0.031249888 0.020168483 -0.031168958 -0.031247878 -0.02138017 0.031247564 -0.031024477 0.031246586
0.031205114 0.02744447 -0.008151127 -0.0012744959 -0.004012511 -0.021358127 0.031011155 0.03119628
0.031249741 -0.031247921 -0.031245712 -0.008194721 0.019016491 0.031239204 -0.029774468 0.011934135
-0.025314845 -0.0131641645 0.024459366 0.030978717 0.031246698 -0.02388522 0.017592428 0.030410796
-0.02648262 -0.012858306 0.030850872 0.027795006 -0.023354154 -0.025932787 -0.023112662 -0.018075846
0.0083984 0.023794036 0.02648024 -0.0049948604 0.030492261 -0.019377252 0.0052575693 -0.029768556
-0.031246534 0.025594627 -0.023802338 0.029325584 0.030205961 -0.030901782 -0.01892646 0.000474728
-0.014230914 -0.030501641 -0.0015730547 0.027733289 -0.0020204296 -0.009168054 0.029581381 0.015426256
0.02967101 0.03062859 -0.029087624 0.022247141 -0.02633073 -0.015227642 -0.022994246 0.020144759
0.023300324 -0.029542971 0.0042756335 0.022065055 -0.03042795 0.014127927 0.030989075 0.03111858
0.030717202 0.018023195 0.020639462 0.0029281704 0.031232163 -0.012964153 -0.010241862 0.031248145
0.031194214 -0.000859377 -0.01785689 0.031246154 0.031246012 -0.01619027 0.030088125 0.015222603
-0.030124985 0.0236992 -0.03124388 -0.018006105 0.029415242 -0.0050301845 0.026637938 0.03026282
-0.0004298951 0.027123548 -0.0021159498 0.021138782 0.007224128 -0.008190562 0.00035908166 0.0045401743
-0.0014937834 0.031247946 0.031245913 0.0038975598 0.004110313 0.021976436 -0.008652685 -0.03122643
-0.023755353 -0.031249987 0.027908074 -0.03124787 -0.0020448903 -0.031240469 0.03123358 -0.003781688
-0.019516222 0.010450173 0.029870955 -0.005440969 0.03124961 -0.017824149 -0.016889177 0.03073332
-0.022400744 0.00045906604 -0.027951863 -0.019997012 0.031045265 -0.021054816 0.02218339 -0.026137175
-0.03124865 -0.0024818159 -0.030134588 -0.011445181 0.026063418 -0.012447037 -0.029697116 0.030014103
00000000: e531 e13c 8cee ff3c 77fe ffbc 4845 d3bc
00000010: b5ee c63c 88d4 ffbc bfef ff3c 2987 ffbc
00000020: bf67 f83c 1585 8c3c 5f41 ffbc 4fc2 48bb
00000030: f0c8 df3c 61fc 83bc fd76 b33c 547e d23c
00000040: bf7e b6bc ea45 fdbc 98c1 80bb 24f9 ffbc
00000050: aa4f febc 9ed5 d3ba d304 ff3c 286b ff3c
00000060: e9fb ff3c a579 7dbc dcf8 ffbc c1de fabc
00000070: 3c44 f13c aaf6 ff3c ea3b 9cbb dc40 c5bc
00000080: e65f fdbc b6f9 ffbc f19b f93c d6ea febc
00000090: ec69 ffbc 6340 f2bc c77a fd3c 1b6f a0bb
000000a0: 90fe ff3c d6f5 ef3c f000 f53c 33e7 ffbc
000000b0: 64f7 ff3c fff9 ff3c 9811 ea3c 14f2 aabc
000000c0: fef6 ffbc ce2d f7bc 4103 dcbb e56f b53c
000000d0: a2f9 e93c 42f7 773c 60be ff3c 74fe cebc
000000e0: 93fd ff3c 6d20 613c 0e33 833c eb30 5dbc
000000f0: ced9 ff3c 27c1 f0bc 6c1e f6bc 8fe9 ff3c
00000100: 2fde 4bbc cd56 aa3c 3393 f1bc d4f6 ffbc
00000110: 87f7 ffbc 86f9 f5bc caee ccbc 50d8 cebc
00000120: 8cfc ff3c d39e 6cbc 5499 f4bc 61f8 ffbc
00000130: 5432 cf3c 3b68 bdbc e1b0 e73c 6771 d7bc
00000140: fe29 e43c 0f43 c2bc 6210 febc 1639 ffbc
00000150: e0ae 0c3c 25c8 653c 97f6 ff3c 2715 fa3c
00000160: d9fb ff3c 9dfc ffbc def8 ffbc 48fc ffbc
00000170: f547 cabc f3e3 ff3c 8674 4d3c 9e97 fc3c
00000180: 39d6 ce3c d2fa ffbc 037c 8bbc 28f5 ffbc
00000190: 12f4 ffbc 3a21 9e3c 05f8 ff3c b8fd ff3c
000001a0: c4ff ff3c 6038 a53c 0b56 ffbc 8dfb ffbc
000001b0: 7725 afbc e4fa ff3c 0b27 febc d7f8 ff3c
000001c0: dea1 ff3c 3ad3 e03c 4e8c 05bc fc0c a7ba
000001d0: 627b 83bb 3df7 aebc 1b0b fe3c 578f ff3c
000001e0: 75ff ff3c a4fb ffbc 02f7 ffbc 2743 06bc
000001f0: 79c8 9b3c 5ce9 ff3c 96e9 f3bc 6487 433c
00000200: 1461 cfbc 82ae 57bc 025f c83c 14c7 fd3c
00000210: 13f9 ff3c f0aa c3bc ff1d 903c 1020 f93c
00000220: 14f2 d8bc a5ab 52bc f8ba fc3c 5ab2 e33c
00000230: 3651 bfbc ff70 d4bc c456 bdbc cc13 94bc
00000240: 7199 093c b6eb c23c 17ed d83c edab a3bb
00000250: e8ca f93c 0bbd 9ebc b047 ac3b 30dd f3bc
00000260: bbf8 ffbc d3ab d13c 1ffd c2bc 353c f03c
00000270: 7e72 f73c bc25 fdbc aa0b 9bbc eae4 f839
00000280: c828 69bc 94de f9bc f52e ceba ec30 e33c
00000290: 2f69 04bb 9b35 16bc a754 f23c 68be 7c3c
000002a0: 9e10 f33c cfe8 fa3c 2b49 eebc a33f b63c
000002b0: 8bb3 d7bc 5c7d 79bc 6e5e bcbc 9f06 a53c
000002c0: 52e0 be3c 1a04 f2bc 9d1a 8c3b c6c1 b43c
000002d0: 0944 f9bc d278 673c cddc fd3c 64ec fe3c
000002e0: a4a2 fb3c 61a5 933c 1714 a93c 8ce6 3f3b
000002f0: 98da ff3c 9967 54bc 7ccd 27bc 1cfc ff3c
00000300: 028b ff3c d047 61ba 9d48 92bc eff7 ff3c
00000310: a3f7 ff3c 75a1 84bc 5f7b f63c 3a68 793c
00000320: acc8 f6bc d324 c23c 2af3 ffbc 8a81 93bc
00000330: 3cf8 f03c 3fd4 a4bb ce37 da3c bce9 f73c
00000340: 8b63 e1b9 3432 de3c bfab 0abb 3d2b ad3c
00000350: 61b8 ec3b b531 06bc 2043 bc39 bec5 943b
00000360: 0ecb c3ba b1fb ff3c 6ef7 ff3c 346e 7f3b
00000370: ceaf 863b ed07 b43c fec3 0dbc 92ce ffbc
00000380: 969a c2bc f9ff ffbc 799f e43c 88fb ffbc
00000390: 9103 06bb 03ec ffbc 91dd ff3c 32d6 77bb
000003a0: 7ce0 9fbc 3437 2b3c efb3 f43c 284a b2bb
000003b0: 2fff ff3c f303 92bc 2c5b 8abc 72c4 fb3c
000003c0: c481 b7bc cdae f039 4efb e4bc c6d0 a3bc
000003d0: a452 fe3c 267b acbc f1b9 b53c a11d d6bc
000003e0: 2bfd ffbc f6a5 22bb d0dc f6bc 9284 3bbc
000003f0: f382 d53c a8ee 4bbc 5e47 f3bc 23e0 f53c

_func._module._model.2.bias f4 [32]
-0.13024168 -0.0018746933 -0.061920583 0.11462499 -0.22893281 0.08159916 0.12228323 -0.06933549
0.06551438 0.026172917 -0.19278705 -0.09217284 0.0441291 -0.14043462 0.16280185 -0.049111266
-0.15226601 0.22639516 0.06263889 -0.079707496 0.11540349 -0.03463753 -0.039716307 -0.14244387
0.032707497 0.10807236 -0.13903971 -0.08836666 0.22119008 0.05355964 -0.09997846 -0.029619332
00000000: 135e 05be 45b8 f5ba 70a0 7dbd 82c0 ea3d
00000010: 5d6d 6abe 761d a73d a16f fa3d c4ff 8dbd
00000020: 672c 863d 9668 d63c f869 45be 1dc5 bcbd
00000030: b7c0 343d 18ce 0fbe 87b5 263e e528 49bd
00000040: 9feb 1bbe 22d4 673e d248 803d af3d a3bd
00000050: aa58 ec3d 15e0 0dbd 91ad 22bd cedc 11be
00000060: 4cf8 053d 0b55 dd3d 6d60 0ebe 94f9 b4bd
00000070: a77f 623e 5a61 5b3d 82c1 ccbd 3ea4 f2bc

_readout.weight f4 [1, 16]
-0.21320957 0.2397475 -0.19085059 -0.05700452 0.30504352 0.032906875 -0.24341697 0.6078697
0.3014768 -0.26214367 0.09654359 -0.27353495 0.06982869 -0.063138135 0.20707186 0.25153595
00000000: 9c53 5abe 5e80 753e 566e 43be 927d 69bd
00000010: aa2e 9c3e 5cc9 063d 4c42 79be 599d 1b3f
00000020: 2b5b 9a3e b237 86be a5b8 c53d c60c 8cbe
00000030: 5802 8f3d 914e 81bd a50a 543e 52c9 803e
