model_saves/generator_midAdjoint.pth (torch, 13579 bytes, 13 tensors)

_initial._model.0.weight f4 [16, 5]
0.9468668 -1.0584872 0.49178448 0.5476463 0.0709934 0.63977915 -1.2058504 1.3344631
-0.14514273 1.2342526 -0.7687357 0.27834707 -1.0699971 -0.22562543 1.2802589 0.9510633
0.19005756 1.2324698 0.5816799 0.36780304 0.038537063 0.27065933 0.40188608 -0.11780304
-0.7487856 -0.297164 0.18262736 0.41747025 1.1551204 -1.1235797 -1.0497617 -0.4380792
0.52339697 -0.9869764 -0.89141107 -0.25137416 -0.023300888 0.5498673 -0.5708941 -0.6209803
-0.3878422 -0.49199307 0.42006084 -0.76164967 0.3050302 0.16871724 0.2351799 0.33281305
-0.8653111 0.98051953 0.9892343 -1.2894467 -1.0803648 0.9575797 -1.2498869 0.4382853
0.4347319 -0.88327205 0.54505587 -0.80752915 -0.65600115 -1.1717573 -0.4146312 -1.2223938
-0.83980745 0.2712662 0.74515706 0.10706021 -0.17048597 0.74055797 1.1954676 -0.93783486
0.829185 0.020661948 0.36037323 0.025807269 -0.97537106 -0.2734278 1.3184686 -0.6015247
00000000: dd65 723f 827c 87bf 2dcb fb3e 8c32 0c3f
00000010: fd64 913d 91c8 233f 4e59 9abf b0cf aa3f
00000020: 4ca0 14be fdfb 9d3f ddcb 44bf 8283 8e3e
00000030: aaf5 88bf 5a0a 67be 86df a33f e278 733f
00000040: 739e 423e 92c1 9d3f f9e8 143f ae50 bc3e
00000050: 0ad9 1d3d dc93 8a3e 03c4 cd3e b842 f1bd
00000060: 6ab0 3fbf e125 98be ab02 3b3e a9be d53e
00000070: fcda 933f 76d1 8fbf 975e 86bf eb4b e0be
00000080: 58fd 053f 7caa 7cbf 8433 64bf 1db4 80be
00000090: 81e1 bebc 1ac4 0c3f 1e26 12bf 91f8 1ebf
000000a0: 4193 c6be 84e6 fbbe 3712 d73e 79fb 42bf
000000b0: eb2c 9c3e 36c4 2c3e 00d3 703e 7966 aa3e
000000c0: 0785 5dbf 5403 7b3f 763e 7d3f 970c a5bf
000000d0: 6549 8abf f123 753f 4bfc 9fbf ee66 e03e
000000e0: 2e95 de3e 1e1e 62bf c888 0b3f 3bba 4ebf
000000f0: b1ef 27bf 25fc 95bf 8a4a d4be 6677 9cbf
00000100: 9ffd 56bf 67e3 8a3e 9dc2 3e3f 6242 db3d
00000110: e093 2ebe 3595 3d3f 1505 993f f215 70bf
00000120: 7845 543f 3f43 a93c d782 b83e c469 d33c
00000130: ebb1 79bf bbfe 8bbe 94c3 a83f 86fd 19bf

_initial._model.0.bias f4 [16]
0.75681794 0.7565735 -1.2927693 0.7527668 0.5573091 0.79848397 1.0264328 -1.1232846
0.68235046 -0.6272702 1.2608527 -1.2963284 1.2417574 0.5388882 -0.793702 -1.0546136
00000000: d2be 413f cdae 413f 7779 a5bf 53b5 403f
00000010: cfab 0e3f 7269 4c3f 2662 833f cac7 8fbf
00000020: 85ae 2e3f c894 20bf 9f63 a13f 17ee a5bf
00000030: e8f1 9e3f 94f4 093f 0e30 4bbf 94fd 86bf

_initial._model.2.weight f4 [16, 16]
0.14009587 -0.30440283 -0.40990347 -0.62711686 0.18104742 0.41331932 -0.3347401 -0.2359327
-0.5810786 0.34929383 0.03871445 -0.36077484 -0.43682626 0.5477804 -0.3570886 -0.0018384935
0.5188091 0.59091955 0.2152534 0.6168386 -0.24944964 0.30186793 -0.34616575 0.61698127
-0.2593574 -0.74799675 -0.17246169 -0.2648696 -0.5557855 -0.27533644 0.3993628 -0.38828638
0.18256775 -0.32799858 -0.48190707 0.076030135 -0.1910985 0.73183787 0.62649024 -0.53773266
-0.30920827 -0.531201 0.14911498 -0.4164978 -0.72210884 0.49502152 0.246121 -0.61459935
0.2724967 0.69476795 0.35806337 -0.64213324 -0.049581695 0.39319515 -0.27333853 -0.35962015
0.60229754 -0.35950127 0.47977018 -0.50964844 -0.10212784 -0.5594098 0.14980581 -0.7235641
0.0622194 -0.4089025 -0.23997876 -0.3900913 -0.0087626185 0.30028015 0.24751952 0.5414936
-0.73129 -0.6942892 0.11390221 -0.017304119 0.12334473 0.69157803 -0.21276408 0.6928611
-0.6007945 -0.18220559 -0.110650495 -0.5027046 -0.6129146 -0.004775262 -0.6090488 0.0050310963
-0.6710972 -0.5286854 -0.51492923 0.61662906 -0.6463061 0.12920448 -0.1834766 -0.53758633
-0.5038262 -0.065895125 -0.3203591 -0.01410937 0.5764381 -0.53016 -0.23782462 0.5317459
0.5870588 -0.75727284 0.20109294 -0.57719857 0.30894068 0.67558366 0.21838883 0.3998543
0.13428727 -0.63777715 0.250284 -0.23904854 0.38942912 0.5716037 0.4306357 0.56617075
-0.24776505 0.23706259 -0.33434248 0.14881518 -0.10426672 -0.0073077106 -0.108940355 0.6813657
0.52495915 0.34974417 0.5275924 -0.70050186 0.20843293 0.24749392 0.3250346 -0.22672056
0.54363704 0.425659 0.7018096 -0.62113404 0.19890413 0.51714194 -0.5875148 -0.4239526
-0.15912364 -0.6201852 -0.04145676 -0.10922523 0.32930297 -0.8332423 0.19635467 -0.13288543
-0.66718185 -0.71909744 0.20591223 -0.36621535 0.3555035 0.20638897 0.038862348 -0.50029284
0.60949284 0.52040845 0.09218563 -0.26137164 0.20153168 0.032672953 -0.20862426 0.04870806
-0.6592499 -0.69541323 0.21814798 0.03522723 0.37035173 0.20975293 0.69005024 -0.6693236
-0.64404094 -0.042093072 -0.46496883 -0.36484033 0.4865056 -0.68969697 0.456003 0.108113624
0.41900477 -0.06750834 -0.45253912 -0.29103523 -0.6035405 0.42115086 0.01504012 0.47417018
0.35171846 0.16956295 -0.1380158 0.59600186 -0.23447323 0.17771532 -0.5913027 -0.6145159
-0.30527893 -0.23549765 -0.55685234 -0.37294215 0.0922157 0.6768905 0.62971324 0.19482903
0.05364107 0.60177505 -0.5812682 0.12616646 0.07459451 -0.48072255 0.72113997 -0.5703602
-0.4092705 0.733031 0.12353856 -0.23558643 -0.1919455 -0.3582201 0.317137 -0.43391696
0.254308 0.47461373 -0.46509182 -0.34478712 0.67176694 0.55344486 -0.14784001 -0.07957129
-0.6784052 -0.037908554 0.6062477 0.6541947 0.4932762 0.57810396 0.5373741 0.4586738
-0.2648015 0.13532594 0.32578003 -0.15823524 0.19857474 0.565544 0.27071288 0.5672603
0.042048056 -0.5039603 0.24400717 0.3349781 -0.011276513 0.43328506 0.46944526 -0.2510172
00000000: 4b75 0f3e b0da 9bbe dede d1be bb8a 20bf
00000010: 7f64 393e 979e d33e 0e63 abbe 5798 71be
00000020: 91c1 14bf a4d6 b23e 0b93 1e3d 7bb7 b8be
00000030: b1a7 dfbe 563b 0c3f 51d4 b6be 9bf9 f0ba
00000040: acd0 043f 8146 173f 636b 5c3e 22e9 1d3f
00000050: ba6f 7fbe 6f8e 9a3e a33c b1be 7cf2 1d3f
00000060: 7eca 84be b77c 3fbf cc99 30be fd9c 87be
00000070: f547 0ebf e6f8 8cbe 4879 cc3e 79cd c6be
00000080: 0af3 3a3e 6eef a7be 86bc f6be b0b5 9b3d
00000090: 53af 43be ba59 3b3f aa61 203f d9a8 09bf
000000a0: 8c50 9ebe cafc 07bf 99b1 183e 333f d5be
000000b0: 20dc 38bf 7673 fd3e 2507 7c3e 6256 1dbf
000000c0: b084 8b3e 50dc 313f 1554 b73e d862 24bf
000000d0: 2d16 4bbd e050 c93e 07f3 8bbe 2220 b8be
000000e0: 2c30 1a3f 8d10 b8be 70a4 f53e 5278 02bf
000000f0: 6728 d1bd 7b35 0fbf b266 193e 7f3b 39bf
00000100: c5d9 7e3d ab5b d1be febc 75be 0cba c7be
00000110: 1691 0fbc 52be 993e c275 7d3e 539f 0a3f
00000120: d235 3bbf f0bc 31bf 9045 e93d 5ec1 8dbc
00000130: 299c fc3d 420b 313f d4de 59be 585f 313f
00000140: abcd 19bf 1a94 3abe ba9c e2bd 40b1 00bf
00000150: f9e7 1cbf cd79 9cbb 9fea 1bbf e5db a43b
00000160: 07cd 2bbf ed57 07bf 67d2 03bf 67db 1d3f
00000170: 5174 25bf 2e4e 043e 4ae1 3bbe 429f 09bf
00000180: c1fa 00bf 06f4 86bd 1c06 a4be fd2a 67bc
00000190: 7391 133f 91b8 07bf 4c88 73be 8020 083f
000001a0: 7c49 163f a2dc 41bf 4feb 4d3e 49c3 13bf
000001b0: 792d 9e3e 0df3 2c3f 52a1 5f3e b4b9 cc3e
000001c0: 9a82 093e 5d45 23bf 3925 803e 24c9 74be
000001d0: 4163 c73e 9f54 123f 487c dc3e 91f0 103f
000001e0: 1fb6 7dbe 89c0 723e f02e abbe 0263 183e
000001f0: ca89 d5bd 8575 efbb 1f1c dfbd fc6d 2e3f
00000200: b963 063f ab11 b33e 4c10 073f 1754 33bf
00000210: 716f 553e 0c6f 7d3e ef6a a63e 6f29 68be
00000220: cc2b 0b3f faef d93e cba9 333f a402 1fbf
00000230: 86ad 4b3e 6a63 043f 5f67 16bf 5110 d9be
00000240: 4ff1 22be 75c4 1ebf 90ce 29bd 7ab1 dfbd
00000250: 669a a83e 5e4f 55bf 3311 493e 1e13 08be
00000260: 6ecc 2abf c516 38bf a8da 523e 9480 bbbe
00000270: 8e04 b63e a157 533e 202e 1f3d 3113 00bf
00000280: b907 1c3f 7d39 053f d2cb bc3d 81d2 85be
00000290: 525e 4e3e 13d4 053d 99a1 55be 1a82 473d
000002a0: 9ac4 28bf 9a06 32bf 2f62 5f3e 6e4a 103d
000002b0: be9e bd3e 79c9 563e 22a7 303f cb58 2bbf
000002c0: dedf 24bf c969 2cbd 6510 eebe 5acc babe
000002d0: 4317 f93e fb8f 30bf 3a79 e93e ad6a dd3d
000002e0: cb87 d63e d041 8abd 35b3 e7be 9202 95be
000002f0: a181 1abf 16a1 d73e d66a 763c 6fc6 f23e
00000300: 7114 b43e e9a1 2d3e 0454 0dbe 9493 183f
00000310: c019 70be 01fb 353e 9d5f 17bf ea50 1dbf
00000320: 854d 9cbe 4c26 71be e08d 0ebf 46f2 bebe
00000330: 96db bc3d b248 2d3f e334 213f 4381 473e
00000340: bdb6 5b3d ee0d 1a3f fecd 14bf c831 013e
00000350: 02c5 983d 4421 f6be a19c 383f 2003 12bf
00000360: e78b d1be eba7 3b3f c901 fd3d 923d 71be
00000370: 5c8d 44be a068 b7be c85f a23e 5d2a debe
00000380: a834 823e 9200 f33e 8420 eebe f087 b0be
00000390: ebf8 2b3f 90ae 0d3f 5f63 17be 46f6 a2bd
000003a0: f7ab 2dbf 0046 1bbd 0d33 1b3f 4e79 273f
000003b0: b38e fc3e 9ffe 133f 5991 093f 4bd7 ea3e
000003c0: 1094 87be e292 0a3e a4cc a63e 6b08 22be
000003d0: 2d57 4b3e 7ec7 103f e19a 8a3e f937 113f
000003e0: 953a 2c3d 8b03 01bf 04dd 793e 4082 ab3e
000003f0: 20c1 38bc 8ad7 dd3e 215b f03e 5485 80be

_initial._model.2.bias f4 [16]
0.0360846 0.05577608 0.25321963 -0.49428892 -0.60396206 -0.2793759 -0.11794411 -0.31365678
0.41537467 -0.41208646 0.42863068 -0.32765067 0.21146129 0.76873654 -0.74735314 -0.35746494
00000000: 72cd 133d 7575 643d 01a6 813e 7013 fdbe
00000010: 429d 1abf 5c0a 8fbe ae8c f1bd 9f97 a0be
00000020: fdab d43e fffc d2be 7b75 db3e d4c1 a7be
00000030: 4f89 583e ebcb 443f 8952 3fbf a505 b7be

_func._drift._model.0.weight f4 [16, 17]
-0.076538816 0.096673526 0.06389191 -0.08976574 0.047707744 -0.014417461 -0.030072967 -0.08238367
-0.11455694 -0.011678985 -0.055580813 -0.02634314 -0.07467028 -0.025237309 -0.10208503 0.00090144714
0.0661377 0.0072669317 0.01121137 0.040263955 -0.108608805 0.022782905 0.024884738 0.042341672
-0.004147434 -0.059396163 -0.091675654 -0.067011066 0.08025625 -0.08781866 -0.013985044 -0.036961816
-0.003002441 -0.018774426 0.07234526 -0.08639536 0.0010283762 -0.020900765 0.032977726 0.11187441
0.05487993 0.11001433 0.0954337 0.10765979 0.0011260081 -0.042555824 -0.033360038 -0.11803501
0.04272703 -0.07297269 -0.09863888 -0.12194842 -0.055069283 0.11359203 -0.092907034 -0.04858879
0.058575068 0.0024469648 0.065850794 -0.04623325 -0.07294473 -0.061981253 0.01296265 -0.08482227
-0.0037755824 0.054004807 0.08900104 0.06302044 0.060821354 -0.083865166 -0.024792284 0.08786674
0.039054923 0.034357823 0.089416504 0.0991634 -0.08552688 -0.06313847 -0.06883701 -0.077751756
0.046885505 -0.1070663 0.0031143902 -0.04479887 -0.06878226 0.11557084 0.10962127 0.08494579
0.057891212 -0.07138791 -0.052491862 -0.07162032 0.078134365 -0.04920896 0.085301936 0.050689984
0.11175495 -0.03303703 -0.007703044 0.053746026 -0.034964465 0.08955082 0.029910509 -0.010166043
0.0269434 -0.05862267 -0.096115924 -0.031279355 0.10814037 0.07491757 0.008316685 -0.014886742
-0.026967226 0.077993356 0.07435405 -0.11821213 -0.09338222 0.060182456 0.059902083 -0.077449225
-0.06290272 0.02721271 0.08230146 -0.028785406 0.108418435 0.009819612 0.10195946 -0.014274497
0.039668094 -0.042131666 0.031186927 -0.017328076 -0.09548253 0.024353933 0.119260415 0.07362862
0.09271259 0.094890505 -0.07635243 -0.079299584 -0.047766022 -0.03725699 -0.056829806 -0.043945
0.07221973 0.08096175 -0.06379796 0.0563288 0.011993065 0.12456294 0.071191154 0.11559244
-0.02846009 0.0029507505 0.1128331 -0.0908777 0.062320903 0.05033711 0.10423663 -0.097409666
-0.027852396 0.081509784 -0.060260277 -0.058082897 -0.08185705 0.05488884 -0.023466047 0.04314185
0.050768312 -0.006296572 0.07089738 -0.0035276762 -0.028019633 0.042272747 -0.09758837 0.012602466
0.08150658 0.05113835 -0.01993886 -0.11199066 0.060986813 0.045310322 0.14309916 0.018343031
-0.035736445 -0.059423983 0.07821293 -0.12918441 0.10436398 -0.03235204 -0.029795092 0.101086274
0.08053364 -0.074963436 0.004827759 -0.07433795 0.07884138 -0.021661604 0.07519393 0.038579352
0.051069632 -0.021717729 -0.12960927 -0.008371307 0.060454164 -0.09203809 0.056666914 0.0776575
0.10806542 0.057630435 0.100132324 0.019166354 -0.045281295 -0.008423657 0.083354756 0.023679743
-0.06044342 0.09527389 0.04205544 0.09479169 0.02829655 -0.11085667 0.078398295 0.033692602
0.073232666 0.078075394 -0.024284052 0.08855088 -0.09756656 -0.0337347 0.0910671 0.060653534
-0.06616196 -0.111418925 -0.030737802 0.017686067 0.052620262 -0.044552054 -0.07542218 -0.030908424
-0.07783993 0.0067626825 -0.08491513 -0.109181784 -0.07922292 -0.06144675 -0.0751117 0.1404992
-0.054528438 -0.030072205 -0.028858637 0.041867822 0.05346904 -0.087289274 -0.08320926 0.021700265
00000000: 62c0 9cbd c5fc c53d c3d9 823d 1ad7 b7bd
00000010: 3269 433d 3737 6cbc 955b f6bc c5b8 a8bd
00000020: d49c eabd 3759 3fbc b5a8 63bd 92cd d7bc
00000030: bbec 98bd 79be cebc f511 d1bd 184f 6c3a
00000040: 3473 873d 711f ee3b e5af 373c d1eb 243d
00000050: 4b6e debd 37a3 ba3c 14db cb3c 766e 2d3d
00000060: 33e7 87bb 6449 73bd 72c0 bbbd 193d 89bd
00000070: 645d a43d 45da b3bd 8721 65bc 4665 17bd
00000080: 9ac4 44bb d3cc 99bc c029 943d 0df0 b0bd
00000090: 94ca 863a 1538 abbc a713 073d 691e e53d
000000a0: c7c9 603d 314f e13d be72 c33d bc7c dc3d
000000b0: 9096 933a 044f 2ebd 89a4 08bd 57bc f1bd
000000c0: 8a02 2f3d b572 95bd 2e03 cabd 18c0 f9bd
000000d0: 5490 61bd f0a2 e83d 0b46 bebd 0a05 47bd
000000e0: 69ec 6f3d 425d 203b c8dc 863d 145f 3dbd
000000f0: 0c64 95bd 0ee0 7dbd 4b61 543c 4cb7 adbd
00000100: c36f 77bb 2534 5d3d 2d46 b63d dc10 813d
00000110: d01f 793d 80c1 abbd 3019 cbbc 7af3 b33d
00000120: 0ef8 1f3d caba 0c3d 0020 b73d 2e16 cb3d
00000130: b828 afbd be4e 81bd 6bfa 8cbd 503c 9fbd
00000140: 040b 403d 9445 dbbd cc1a 4c3b 057f 37bd
00000150: b7dd 8cbd 68b0 ec3d 1e81 e03d 0ff8 ad3d
00000160: 561f 6d3d d333 92bd b501 57bd adad 92bd
00000170: e904 a03d 568f 49bd c8b2 ae3d 4da0 4f3d
00000180: c7df e43d d651 07bd d169 fcbb cb24 5c3d
00000190: e636 0fbd 6c66 b73d e206 f53c 7a8f 26bc
000001a0: 68b8 dc3c 531e 70bd 6dd8 c4bd c81e 00bd
000001b0: b378 dd3d 626e 993d b542 083c 86e7 73bc
000001c0: 5fea dcbc fbba 9f3d f046 983d 3419 f2bd
000001d0: 2d3f bfbd e181 763d e35b 753d b39d 9ebd
000001e0: 24d3 80bd 30ed de3c ab8d a83d 5fcf ebbc
000001f0: 7c0a de3d 70e2 203c 1fd0 d03d 94df 69bc
00000200: 037b 223d 4192 2cbd ba7b ff3c 9cf3 8dbc
00000210: 588c c3bd e681 c73c ce3e f43d 9aca 963d
00000220: 19e0 bd3d f455 c23d aa5e 9cbd d267 a2bd
00000230: 4ea6 43bd c99a 18bd 5fc6 68bd acff 33bd
00000240: f0e7 933d 46cf a53d 81a8 82bd 07b9 663d
00000250: 8f7e 443c db1a ff3d abcc 913d bbbb ec3d
00000260: 2225 e9bc 6161 413b 0a15 e73d 161e babd
00000270: 3444 7f3d 492e 4e3d 047a d53d b87e c7bd
00000280: b52a e4bc 9aee a63d 7bd3 76bd 55e8 6dbd
00000290: aba4 a7bd 1fd3 603d de3b c0bc 82b5 303d
000002a0: 6ff2 4f3d 7953 cebb a532 913d 9630 67bb
000002b0: 6e89 e5bc 3026 2d3d 69dc c7bd 937a 4e3c
000002c0: ecec a63d 7276 513d d256 a3bc 5c5b e5bd
000002d0: 4fcd 793d 5197 393d 9688 123e 2044 963c
000002e0: 6160 12bd 9066 73bd 1a2e a03d eb48 04be
000002f0: c8bc d53d 9383 04bd d614 f4bc 5206 cf3d
00000300: d2ee a43d 6e86 99bd 2e32 9e3b 7f3e 98bd
00000310: 9777 a13d ad73 b1bc 46ff 993d 6205 1e3d
00000320: 642e 513d 61e9 b1bc 4bb8 04be ce27 09bc
00000330: c99e 773d 777e bcbd 911b 683d e50a 9f3d
00000340: 6751 dd3d e40d 6c3d 2d12 cd3d c202 9d3c
00000350: e178 39bd 6103 0abc e6b5 aa3d 05fc c13c
00000360: 8593 77bd f51e c33d 5342 2c3d 2522 c23d
00000370: 2bce e73c d208 e3bd 498f a03d 4101 0a3d
00000380: 02fb 953d fee5 9f3d 59ef c6bc 2a5a b53d
00000390: fad0 c7bd 662d 0abd 6381 ba3d d76f 783d
000003a0: ec7f 87bd 9b2f e4bd d8cd fbbc 5fe2 903c
000003b0: 5888 573d 377c 36bd f276 9abd aa33 fdbc
000003c0: 8b6a 9fbd 7e99 dd3b fce7 adbd b39a dfbd
000003d0: a03f a2bd 96af 7bbd 2ad4 99bd 06df 0f3e
000003e0: 3659 5fbd fc59 f6bc f368 ecbc 987d 2b3d
000003f0: 5a02 5b3d b8c4 b2bd 9e69 aabd c1c4 b13c

_func._drift._model.0.bias f4 [16]
-0.10362438 0.016121464 -0.051401146 -0.10705242 0.13944612 0.105628885 -0.06026392 -0.0049839225
0.09533341 0.11811678 0.0096745 -0.035045244 0.002292781 -0.072703525 0.055091865 -0.057390817
00000000: 0539 d4bd 2911 843c 028a 52bd 4d3e dbbd
00000010: f7ca 0e3e f553 d83d 4dd7 76bd 2c50 a3bb
00000020: 2a3e c33d 36e7 f13d cb81 1e3c 9a8b 0fbd
00000030: 7b42 163b 96e5 94bd 02a8 613d a212 6bbd

_func._drift._model.2.weight f4 [16, 16]
0.024939205 0.042325616 -0.010789659 -0.092910595 -0.04336163 -0.014332366 -0.01157452 -0.119681515
-0.026229106 -0.12106884 -0.049566004 0.029687094 -0.05929858 0.047191087 0.05189797 -0.0934697
0.0017826479 -0.025791539 -0.03773348 0.08215146 -0.02743334 0.028881148 0.12137841 -0.0480883
0.10221083 0.07937467 0.0294619 -0.06257092 -0.06132189 0.013489417 0.01783831 -0.09673577
0.051232938 0.08581972 0.055128995 -0.04674261 -0.04792912 0.06753464 -0.06833724 0.04482943
0.10570394 0.02185391 0.067760274 -0.021293037 0.04587099 0.07921399 0.06648186 0.08386453
-0.112760164 -0.07160156 -0.06811617 0.06795178 -0.07632494 -0.024968142 0.051058635 0.0014502202
-0.0027460575 0.015541094 0.070750624 0.06896977 -0.005869851 -0.066588596 -0.05480839 0.12215795
-0.020323921 0.11974704 -0.021479152 -0.011562509 0.06856917 -0.116180554 0.0466317 -0.16492075
-0.0024277838 -0.13203417 -0.071434416 -0.07250083 -0.004825126 -0.030658804 -0.017500933 0.11330123
-0.053375803 0.018554732 0.11323683 -0.037024844 -0.10434274 -0.061457034 0.0780953 -0.032093078
-0.04051138 0.0681284 -0.021731121 -0.048079826 -0.04331753 -0.112136334 -0.06829709 -0.102063924
0.070880234 0.098705545 -0.08018183 0.088979155 -0.053573646 0.021675806 -0.06743537 -0.07524457
-0.019975506 0.06782222 -0.010014162 -0.08681857 -0.02281524 0.07765254 -0.0718618 -0.10581453
-0.0992153 0.05414651 0.045909077 0.103697106 -0.009473754 -0.02090148 -0.041163143 -0.12975083
-0.11808565 0.09867705 0.10447901 -0.0988456 0.10829764 0.016452597 0.02745061 -0.08094648
-0.07682564 -0.08940835 0.016580457 -0.09057482 -0.12723668 0.01587175 -0.10085128 -0.009319212
-0.0073545254 -0.10127851 -0.06564128 0.030886484 -0.012649595 0.057213068 -0.04157396 5.1689694e-06
-0.013446712 -0.06366482 -0.107975915 0.103111975 0.098532975 0.027176544 0.038925976 0.09902292
0.10800695 0.040613227 0.05584419 -0.009320348 0.030830339 -0.113027215 0.1287771 -0.06537168
0.023316864 0.06485181 -0.038782924 -0.08746675 -0.034318443 0.078127936 -0.070471525 0.0016443538
0.026734957 0.015760927 -0.045101177 -0.07308566 -0.047282983 -0.09915203 -0.063052766 -0.047045372
0.10175845 0.10007442 0.015848763 -0.10424503 -0.06405703 -0.031053226 -0.06496317 -0.026661992
0.00016660965 -0.07728336 -0.06438056 0.09571139 0.09045505 -0.05335684 0.071759716 -0.02019531
0.06934746 0.08263955 -0.05821005 -0.03866515 0.06038652 0.12756935 0.11131909 -0.093998365
-0.09711785 -0.11895581 -0.048767075 -0.10801752 -0.004664434 -0.055956073 0.13693336 0.055421177
-0.02755277 -0.0036309075 -0.10146775 -0.0031218564 0.10094007 -0.12456119 0.06891034 0.018949987
0.046296872 -0.06871902 -0.038869593 0.04337357 0.0011858743 -0.060888693 0.062041815 -0.01776894
-0.10177771 -0.11815889 0.014179534 -0.036259234 -0.018901547 0.029651402 -0.13077065 -0.06255574
0.083094865 -0.042376857 -0.040033054 -0.116765164 0.12229607 -0.08057997 -0.05515217 -0.10893098
0.1052862 -0.08679298 0.1130933 0.083855644 -0.0654657 0.11017642 -0.002173131 0.02559988
0.09757741 0.09785417 0.08875746 0.024599543 -0.07986673 0.04771244 -0.071151525 0.015474375
00000000: 4e4d cc3c a05d 2d3d 1cc7 30bc e947 bebd
00000010: f79b 31bd 4dd2 6abc 0ea3 3dbc 951b f5bd
00000020: 6cde d6bc f1f2 f7bd b905 4bbd 5932 f33c
00000030: 11e3 72bd 714b 413d f792 543d 0b6d bfbd
00000040: bda7 e93a c748 d3bc 6c8e 1abd 063f a83d
00000050: e2bb e0bc 2898 ec3c 3e95 f83d 3df8 44bd
00000060: e953 d13d 308f a23d 155a f13c 2f25 80bd
00000070: aa2c 7bbd b702 5d3c a621 923c 671d c6bd
00000080: a1d9 513d 40c2 af3d f1ce 613d 2e75 3fbd
00000090: 5351 44bd 9a4f 8a3d 65f4 8bbd 109f 373d
000000a0: 4f7b d83d f906 b33c e6c5 8a3d bc6e aebc
000000b0: 38e3 3b3d f23a a23d a427 883d 2bc1 ab3d
000000c0: cdee e6bd d7a3 92bd 7e80 8bbd 4e2a 8b3d
000000d0: 4050 9cbd fd89 ccbc dc22 513d 5115 be3a
000000e0: 33f7 33bb 13a0 7e3c b4e5 903d 0640 8d3d
000000f0: e157 c0bb 9a5f 88bd c37e 60bd f32d fa3d
00000100: 5a7e a6bc f03d f53d 0cf5 afbc ae70 3dbc
00000110: fe6d 8c3d 12f0 edbd e200 3f3d fce0 28be
00000120: 741b 1fbb f733 07be 354c 92bd 517b 94bd
00000130: 171c 9ebb 2c28 fbbc 1e5e 8fbc 7a0a e83d
00000140: 96a0 5abd 1800 983c b6e8 e73d 5da7 17bd
00000150: a5b1 d5bd 5fba 7bbd 6ef0 9f3d 0874 03bd
00000160: 43ef 25bd e786 8b3d 7705 b2bc 5aef 44bd
00000170: b96d 31bd bca7 e5bd 58df 8bbd e406 d1bd
00000180: a829 913d 2226 ca3d 5f36 a4bd b43a b63d
00000190: 0a70 5bbd 7691 b13c 8e1b 8abd d319 9abd
000001a0: aca3 a3bc 60e6 8a3d 7112 24bc efcd b1bd
000001b0: 07e7 babc 4b08 9f3d 482c 93bd 4ab5 d8bd
000001c0: 6431 cbbd bbc8 5d3d 280b 3c3d 265f d43d
000001d0: ce37 1bbc 9539 abbc af9a 28bd 67dd 04be
000001e0: e4d6 f1bd 3117 ca3d 17f9 d53d 906f cabd
000001f0: 27cb dd3d 99c7 863c 1ae0 e03c 45c7 a5bd
00000200: c356 9dbd ba1b b7bd bdd3 873c 4b7f b9bd
00000210: 554a 02be 7905 823c 1e8b cebd 9caf 18bc
00000220: 3bfe f0bb 1c6b cfbd ef6e 86bd a705 fd3c
00000230: 3f40 4fbc 4058 6a3d 7549 2abd 1c71 ad36
00000240: 994f 5cbc b362 82bd 7a22 ddbd 5f2c d33d
00000250: a8cb c93d 58a1 de3c d870 1f3d 87cc ca3d
00000260: bf32 dd3d 0e5a 263d e1bc 643d 5fb4 18bc
00000270: e88f fc3c d07a e7bd 25de 033e 96e1 85bd
00000280: 0203 bf3c 07d1 843d d8da 1ebd c421 b3bd
00000290: 7f91 0cbd 8a01 a03d 6053 90bd 5c87 d73a
000002a0: 4503 db3c 0f1d 813c 03bc 38bd efad 95bd
000002b0: cdab 41bd 3810 cbbd cf21 81bd a6b2 40bd
000002c0: bc66 d03d d1f3 cc3d 44d5 813c 6b7e d5bd
000002d0: 5530 83bd 5663 febc 690b 85bd 406a dabc
000002e0: f0b3 2e39 bd46 9ebd f4d9 83bd 5504 c43d
000002f0: 7f40 b93d b48c 5abd c2f6 923d a270 a5bc
00000300: 0b06 8e3d ed3e a93d a96d 6ebd 595f 1ebd
00000310: db57 773d 8aa1 023e 43fb e33d 3782 c0bd
00000320: b9e5 c6bd 1b9f f3bd fcbf 47bd 4a38 ddbd
00000330: 1cd8 98bb 3232 65bd 4238 0c3e 5101 633d
00000340: 59b6 e1bc 85f4 6dbb 53ce cfbd 0f98 4cbb
00000350: abb9 ce3d f019 ffbd dd20 8d3d 013d 9b3c
00000360: caa1 3d3d 8fbc 8cbd b935 1fbd 7ca8 313d
00000370: 576f 9b3a 6c66 79bd 8f1f 7e3d 2b90 91bc
00000380: d570 d0bd 4afd f1bd 4751 683c 9084 14bd
00000390: 6bd7 9abc 7fe7 f23c bee8 05be 391d 80bd
000003a0: a42d aa3d 5b93 2dbd b3f9 23bd 9322 efbd
000003b0: 5d76 fa3d 1c07 a5bd 3ee7 61bd 3517 dfbd
000003c0: 4ba0 d73d 85c0 b1bd 769d e73d 82bc ab3d
000003d0: e212 86bd 2da4 e13d 176b 0ebb d7b6 d13c
000003e0: aad6 c73d c467 c83d 79c6 b53d fb84 c93c
000003f0: 2b91 a3bd 1f6e 433d e4b7 91bd 3c88 7d3c

_func._drift._model.2.bias f4 [16]
0.03239508 0.07344302 0.10837751 0.080942094 0.1007937 -0.12417474 -0.018853555 0.0855017
0.0059267534 0.014609669 -0.0388162 -0.08954626 0.02498547 -0.016636964 0.105863295 0.120286845
00000000: b4b0 043d 4b69 963d 07f5 dd3d f8c4 a53d
00000010: ed6c ce3d 534f febd c572 9abc 841b af3d
00000020: 3635 c23b 655d 6f3c bcfd 1ebd 0864 b7bd
00000030: 54ae cc3c 3e4a 88bc dbce d83d f358 f63d

_func._diffusion._model.0.weight f4 [16, 17]
0.006564673 -0.088616595 -0.014343548 -0.04106682 -0.027580446 -0.08788329 0.0375656 0.052829146
-0.06825779 -0.07297096 -0.016097782 0.009116043 -0.042371344 0.11109566 0.087645456 0.07063437
-0.08033583 0.06872433 0.029239157 -0.05410674 0.06888559 -0.07943363 -0.08388204 0.11630888
0.10140426 0.029660884 -0.013487381 -0.11050659 -0.008066342 0.038652584 -0.06294866 -0.073642425
-0.092982754 0.04365448 -0.08889716 0.038278718 0.05093151 0.043642882 0.03081319 0.05257407
-0.06654728 0.059010506 0.026343957 0.07788301 -0.013565952 -0.063974954 -0.039983828 -0.04082825
-0.07123885 -0.04241553 0.0987217 0.09280929 0.07582063 0.10468414 -0.06155776 -0.11231359
-0.068175316 -0.019315453 0.031852446 0.04200865 0.005478883 -0.016526848 0.056484565 -0.08919317
-0.06288836 -0.07247608 -0.09693827 0.007894929 0.060598567 0.07538226 0.090621956 0.10124619
0.0085836435 -0.08063702 0.10347047 -0.06571927 -0.013083095 0.025068818 0.09457838 0.11143804
0.10919022 -0.07777574 0.0737187 0.059579037 0.08695881 0.02747285 -0.068337664 0.012859601
-0.011643595 0.073582165 -0.004406203 -0.037383184 0.068649784 0.09626662 0.03745191 0.08067667
0.117973864 -0.035392772 -0.10383424 -0.007830854 0.040505245 0.095372505 -0.05082832 -0.060045272
-0.06627709 0.07448606 0.100647986 -0.04467672 0.02528097 0.01739356 -0.06165727 0.012540339
-0.075115986 -0.04147015 0.0076031005 0.09167571 0.09227623 0.028697569 0.05631883 0.07643908
-0.06667225 0.09876579 -0.12033482 -0.030683955 0.030878024 0.029150905 -0.06328746 0.11246492
-0.06974116 -0.0016128055 -0.10965481 -0.06996641 -0.0401614 0.04451687 0.019410886 -0.09078733
-0.034132008 0.10815483 0.07206897 -0.0071648904 -0.058608226 0.071792476 0.011502388 0.008464524
-0.05967558 -0.10038473 0.028416269 -0.104240395 0.0010785075 0.12599863 -0.06839513 0.059014365
-0.09024256 0.110110335 0.03144191 0.10881868 0.10373725 0.108921364 -0.081188805 -0.09103822
-0.009373938 0.104926966 -0.009761012 -0.032097433 0.083457865 0.11399778 0.045108046 -0.090032235
-0.10759865 -0.07337094 -0.093261905 0.062256612 -0.024023281 -0.07758478 0.07703241 0.10670046
0.08403676 0.093566164 -0.085142836 -0.05791167 0.114346355 0.009511641 -0.07717113 -0.099676095
-0.10403747 0.11658197 0.07636781 -0.0687213 -0.04208259 0.04118639 0.058382265 -0.10561391
0.03274425 0.03529958 0.06371416 0.05462652 0.035913456 -0.0723098 -0.060835887 -0.032392174
-0.06647219 0.08066322 0.097529314 0.10360886 0.114251144 -0.053305104 -0.096999615 -0.015190204
0.007330079 0.104563266 -0.039178614 0.11880701 -0.055717286 -0.118025586 -0.05287781 0.04636806
-0.072379306 -0.113441534 0.011631321 -0.080798976 -0.024328211 0.04994263 -0.0004034156 0.019307485
0.017793315 -0.03696276 -0.07458872 -0.07601728 -0.099751696 -0.06136255 0.014770187 -0.113419764
-0.109355286 0.025591893 -0.07379174 0.096357174 0.09380515 -0.030634204 0.05284673 -0.11198634
0.074472934 -0.016059155 0.09140529 -0.08219777 -0.04772934 -0.007820859 0.018296553 0.08245572
-0.07669624 0.014506633 0.052612383 -0.057754394 0.042069357 0.08215218 0.039722215 -0.043090034
00000000: 781c d73b 9e7c b5bd 3301 6bbc af35 28bd
00000010: 63f0 e1bc 28fc b3bd 63de 193d 6063 583d
00000020: bdca 8bbd cc71 95bd 7fdf 83bc 755b 153c
00000030: 938d 2dbd 1f86 e33d 767f b33d c1a8 903d
00000040: 1d87 a4bd 57bf 8c3d f586 ef3c 079f 5dbd
00000050: e313 8d3d 19ae a2bd 59ca abbd 5a33 ee3d
00000060: 09ad cf3d 62fb f23c 2dfa 5cbc 4751 e2bd
00000070: b128 04bc 2c52 1e3d 3aeb 80bd d7d1 96bd
00000080: be6d bebd 0acf 323d b70f b6bd 25ca 1c3d
00000090: 8f9d 503d e1c2 323d f16b fc3c e857 573d
000000a0: f149 88bd 00b5 713d 48cf d73c 2181 9f3d
000000b0: ba43 5ebc 4d05 83bd 15c6 23bd 863b 27bd
000000c0: ade5 91bd e8bb 2dbd 9a2e ca3d cc12 be3d
000000d0: d947 9b3d a364 d63d fd23 7cbd ab04 e6bd
000000e0: 809f 8bbd 713b 9ebc b677 023d 4311 2c3d
000000f0: 3488 b33b 5063 87bc 5c5c 673d e9aa b6bd
00000100: 9dcb 80bd 576e 94bd 9287 c6bd bb59 013c
00000110: 3436 783d 0462 9a3d 0198 b93d 2a5a cf3d
00000120: 69a2 0c3c 0625 a5bd 53e8 d33d d397 86bd
00000130: 7a5a 56bc 1f5d cd3c 4fb2 c13d a139 e43d
00000140: 1f9f df3d e348 9fbd d4f9 963d 2609 743d
00000150: 7617 b23d be0e e13c 9ef4 8bbd 13b1 523c
00000160: c7c4 3ebc 3fb2 963d e961 90bb 1c1f 19bd
00000170: 4298 8c3d 6f27 c53d 2d67 193d cf39 a53d
00000180: 489c f13d 03f8 10bd 0ca7 d4bd fb4c 00bc
00000190: d4e8 253d a952 c33d 5b31 50bd 08f2 75bd
000001a0: 48bc 87bd 268c 983d 8820 ce3d f0fe 36bd
000001b0: 091a cf3c f07c 8e3c 558c 7cbd fe75 4d3c
000001c0: 69d6 99bd 9bdc 29bd 6e23 f93b 7ac0 bb3d
000001d0: 52fb bc3d 2a17 eb3c 93ae 663d 188c 9c3d
000001e0: 768b 88bd b845 ca3d 1a72 f6bd eb5c fbbc
000001f0: e9f3 fc3c e1cd ee3c db9c 81bd 0254 e63d
00000200: 74d4 8ebd c664 d3ba b392 e0bd 8d4a 8fbd
00000210: 4880 24bd 5257 363d 9403 9f3c b5ee b9bd
00000220: 01ce 0bbd 4880 dd3d e598 933d 75c7 eabb
00000230: 2e0f 70bd ef07 933d 8374 3c3c c9ae 0a3c
00000240: 626e 74bd 8296 cdbd 3cc9 e83c fd7b d5bd
00000250: b55c 8d3a c905 013e bf12 8cbd 0cb9 713d
00000260: 17d1 b8bd 8781 e13d 3bc9 003d 54dc de3d
00000270: 3274 d43d 2a12 df3d 5146 a6bd 3f72 babd
00000280: 2595 19bc f3e3 d63d a7ec 1fbc 9978 03bd
00000290: f5eb aa3d ab77 e93d 37c3 383d d262 b8bd
000002a0: ae5c dcbd 8143 96bd 1900 bfbd ca00 7f3d
000002b0: 79cc c4bc c5e4 9ebd 2bc3 9d3d c585 da3d
000002c0: 771b ac3d 9e9f bf3d 5e5f aebd ca34 6dbd
000002d0: 6c2e ea3d b7d6 1b3c e60b 9ebd fb22 ccbd
000002e0: 9911 d5bd 87c2 ee3d ba66 9c3d c1bd 8cbd
000002f0: cb5e 2cbd 0fb3 283d 3e22 6f3d 1b4c d8bd
00000300: d61e 063d 4b96 103d 927c 823d 0fc0 5f3d
00000310: fd19 133d 2917 94bd 0d2f 79bd a8ad 04bd
00000320: 9222 88bd c232 a53d 73bd c73d e230 d43d
00000330: 81fc e93d 7456 5abd bca7 c6bd 55e0 78bc
00000340: 2931 f03b 4425 d63d c179 20bd 1751 f33d
00000350: cf37 64bd 66b7 f1bd 6796 58bd 6fec 3d3d
00000360: 9a3b 94bd 0954 e8bd 4c91 3e3c ef79 a5bd
00000370: f54b c7bc a590 4c3d 8681 d3b9 bb2a 9e3c
00000380: 49c3 913c 4366 17bd f9c1 98bd f3ae 9bbd
00000390: 9e4a ccbd 4c57 7bbd a8fe 713c 9f48 e8bd
000003a0: aaf5 dfbd 17a6 d13c 2020 97bd e956 c53d
000003b0: ea1c c03d 95f4 fabc d075 583d 1859 e5bd
000003c0: 4485 983d 7d8e 83bc b232 bb3d 4e57 a8bd
000003d0: d77f 43bd 0f23 00bc a7e2 953c 8bde a83d
000003e0: eb12 9dbd 3bad 6d3c 1580 573d df8f 6cbd
000003f0: eb50 2c3d 673f a83d c3b3 223d 2d7f 30bd

_func._diffusion._model.0.bias f4 [16]
-0.07401802 -0.0827473 -0.1157014 -0.065587945 -0.11143421 0.034240577 -0.10692728 -0.044774577
0.017822854 0.07614921 0.09305901 0.112693086 -0.047599845 0.0015136478 -0.056691077 0.061866045
00000000: c296 97bd 6b77 a9bd dbf4 ecbd f952 86bd
00000010: 9e37 e4bd d93f 0c3d b1fc dabd 8c65 37bd
00000020: 3c01 923c 1ef4 9b3d b995 be3d a2cb e63d
00000030: 0ef8 42bd 9865 c63a e734 68bd 4067 7d3d

_func._diffusion._model.2.weight f4 [48, 16]
-0.03030543 0.006639634 -0.03182292 0.10698931 0.11005605 0.0995929 0.0009562674 -0.044696815
-0.08846066 -0.10723725 0.10077698 -0.07843002 -0.09321168 0.05676742 -0.019834645 -0.018714115
-0.052846435 -0.017484583 0.0029451933 -0.03248638 -0.027144393 -0.060002953 -0.094808444 0.10211958
0.10307368 0.0134906545 -0.11428559 0.023244038 -0.074522406 0.10737776 -0.065545246 -0.04515074
-0.07562566 0.10969368 -0.020363044 0.10820244 -0.11455041 0.06834746 -0.00539854 -0.012269446
-0.09259745 -0.08625688 0.047480226 -0.026780915 -0.096173614 -0.0928317 -0.079388924 0.10507143
0.083408296 -0.023431093 0.09442395 -0.048328537 0.03380061 0.08440358 -0.118877925 0.06337793
0.082904875 -0.0344844 -0.1236878 0.05059939 0.02612977 -0.06235457 -0.082040995 -0.111424856
0.05027074 -0.12015414 -0.1133875 0.10240952 -0.042306017 -0.047119953 0.10463243 -0.060972843
0.120841734 -0.0842099 -0.05499526 -0.008892516 -0.08975656 0.12227139 0.00921346 0.018992143
-0.03162743 0.08109246 0.11629165 -0.0067930194 -0.050317384 0.06332504 -0.054591734 -0.07600301
-0.051663518 0.044878867 -0.008539688 -0.045553908 -0.052812926 0.042485505 -0.10099018 -0.00066147215
-0.010187661 -0.06983291 -0.040298436 0.09523107 -0.013500776 -0.014804571 0.06753955 -0.12740417
-0.0949341 0.123003975 -0.09218776 0.087216526 -0.10154397 0.09982269 0.017897718 0.108207345
-0.09705082 0.010654357 -0.08969993 0.0008394116 -0.019475777 0.097549655 0.029086366 -0.03662684
-0.09197627 0.07359497 0.0834914 -0.04987317 0.049571194 -0.06442393 0.038771078 -0.007036874
-0.050466087 0.039847784 -0.09496005 0.09829114 -0.022084914 -0.114041105 0.006174481 0.029583588
-0.02341118 -0.024997203 -0.042223755 -0.013943809 -0.033053033 -0.029091578 -0.031050041 -0.040082548
-0.057258725 -0.047005545 -0.032007843 0.07972869 0.0960908 0.029108908 0.013266894 0.08693198
-0.020252667 0.1149476 -0.08322297 0.0638219 -0.011215676 0.015227831 -0.025728075 -0.1299065
0.0013111696 -0.05137671 0.06652187 0.100506485 -0.119714305 0.07401107 0.021523792 -0.049546786
0.06508164 0.055334117 -0.085380994 0.01711864 -0.08244327 -0.10706552 -0.016565684 -0.014562049
-0.025128705 -0.015110072 -0.005137266 0.124811016 0.09091294 -0.02768611 0.09041679 -0.088906616
0.10502168 -0.083480746 -0.011994011 0.058117405 0.019498786 -0.046499897 -0.07594323 0.09613057
0.05180263 -0.04765874 -0.07814284 0.058034584 -0.03980424 0.010010286 0.06613463 -0.115161575
-0.105617255 0.018672748 -0.0041611646 0.12499281 -0.028814375 -0.0426135 -0.084976226 0.0845521
0.062772974 0.11796917 0.07168085 -0.039442435 -0.109828524 -0.013607823 -0.08817162 -0.11862621
0.046302494 -0.003267692 0.11084316 -0.07555012 -0.07086224 0.049971785 0.07768927 0.044010494
-0.07726695 -0.030355716 0.052180696 -0.05067498 -0.0712438 0.011342793 -0.09386005 -0.055928085
-0.05498976 0.07591952 -0.06337105 -0.075577445 0.06828728 0.027953682 0.04983292 -0.07280641
-0.016625173 0.025505193 0.013815767 -0.0009578315 -0.049901918 0.10679779 0.068334565 -0.093025595
0.07667322 -0.096872024 0.09190809 0.049613297 0.009522643 0.0014995929 0.059418514 -0.031594407
00000000: 1843 f8bc 4991 d93b c058 02bd 361d db3d
00000010: 1165 e13d 5df7 cb3d 05ae 7a3a 0214 37bd
00000020: dd2a b5bd 349f dbbd 2964 ce3d eb9f a0bd
00000030: c4e5 bebd f484 683d 447c a2bc 584e 99bc
00000040: 8175 58bd d43b 8fbc 2504 413b 7010 05bd
00000050: eb5d debc a8c5 75bd ee2a c2bd 1224 d13d
00000060: 4b18 d33d e807 5d3c 900e eabd 486a be3c
00000070: 349f 98bd dfe8 db3d 963c 86bd fbef 38bd
00000080: a0e1 9abd 15a7 e03d 66d0 a6bc 3e99 dd3d
00000090: 6899 eabd c1f9 8b3d 3ce6 b0bb c905 49bc
000000a0: bba3 bdbd 72a7 b0bd a07a 423d a663 dbbc
000000b0: acf6 c4bd 8c1e bebd a996 a2bd b12f d73d
000000c0: f8d1 aa3d 90f2 bfbc 5861 c13d 25f4 45bd
000000d0: 8272 0a3d c9db ac3d 4576 f3bd 4acc 813d
000000e0: 08ca a93d 843f 0dbd 0750 fdbd 4e41 4f3d
000000f0: 190e d63c 8167 7fbd 1c05 a8bd b732 e4bd
00000100: b1e8 4d3d 6013 f6bd b537 e8bd 15bc d13d
00000110: 1349 2dbd da00 41bd 8749 d63d a9be 79bd
00000120: df7b f73d 3d76 acbd b642 61bd eab1 11bc
00000130: 4ad2 b7bd 6c69 fa3d 0df4 163c 6995 9b3c
00000140: c48b 01bd ce13 a63d 512a ee3d fa97 debb
00000150: 9a19 4ebd 8fb0 813d 959b 5fbd 77a7 9bbd
00000160: 209d 53bd e7d2 373d 0cea 0bbc bc96 3abd
00000170: 5e52 58bd 4805 2e3d f1d3 cebd a566 2dba
00000180: 26ea 26bc 8f04 8fbd f90f 25bd 8208 c33d
00000190: 5c32 5dbc df8e 72bc 2d52 8a3d 3d76 02be
000001a0: cf6c c2bd 82e9 fb3d f0cc bcbd 949e b23d
000001b0: 49f6 cfbd d76f cc3d 3c9e 923c d09b dd3d
000001c0: 95c2 c6bd 9d8f 2e3c 99b4 b7bd f50b 5c3a
000001d0: aa8b 9fbc 1dc8 c73d 8846 ee3c 0606 16bd
000001e0: 0e5e bcbd f6b8 963d 8afd aa3d cf47 4cbd
000001f0: 2a0b 4b3d b2f0 83bd 6cce 1e3d 9495 e6bb
00000200: 87b5 4ebd 6e37 233d 6a7a c2bd dd4c c93d
00000210: 6ceb b4bc 628e e9bd 4d53 ca3b 4859 f23c
00000220: cec8 bfbc efc6 ccbc d1f2 2cbd 9374 64bc
00000230: 9e62 07bd 7651 eebc a85c febc 992d 24bd
00000240: 2088 6abd e388 40bd a81a 03bd cc48 a33d
00000250: 41cb c43d ce75 ee3c 635d 593c 6509 b23d
00000260: ece8 a5bc a669 eb3d ce70 aabd 0eb5 823d
00000270: f4c1 37bc 277e 793c afc3 d2bc 3606 05be
00000280: 8ddb ab3a 6370 52bd 9e3c 883d 58d6 cd3d
00000290: c62c f5bd 1e93 973d aa52 b03c 92f1 4abd
000002a0: 8649 853d 07a6 623d 3bdc aebd 643c 8c3c
000002b0: 04d8 a8bd 2b45 dbbd c2b4 87bc a995 6ebc
000002c0: b7da cdbc 3c90 77bc 8356 a8bb eb9c ff3d
000002d0: 9030 ba3d fbcd e2bc 702c b93d ac14 b6bd
000002e0: 9b15 d73d f4f7 aabd 8782 44bc 840c 6e3d
000002f0: ebbb 9f3c ad76 3ebd 2088 9bbd 1be0 c43d
00000300: ff2e 543d d035 43bd 5a09 a0bd acb5 6d3d
00000310: c509 23bd 2f02 243c 9871 873d d5d9 ebbd
00000320: dc4d d8bd 97f7 983c 615a 88bb 3bfc ff3d
00000330: 200c ecbc 7e8b 2ebd 0408 aebd a729 ad3d
00000340: 1e8f 803d d299 f13d 69cd 923d 648e 21bd
00000350: c7ed e0bd 59f3 5ebc 5393 b4bd 4cf2 f2bd
00000360: afa7 3d3d c626 56bb bd01 e33d 05ba 9abd
00000370: 3920 91bd 37af 4c3d 8d1b 9f3d 5944 343d
00000380: 223e 9ebd 8dac f8bc 6dbb 553d 9190 4fbd
00000390: 45e8 91bd 1fd7 393c b339 c0bd d914 65bd
000003a0: f13c 61bd b17b 9b3d aec8 81bd 59c8 9abd
000003b0: 34da 8b3d 1fff e43c 9b1d 4c3d 871b 95bd
000003c0: 8431 88bc 44f0 d03c 875b 623c fc16 7bba
000003d0: f465 4cbd cdb8 da3d fef2 8b3d 3484 bebd
000003e0: d906 9d3d d764 c6bd 4f3a bc3d 5037 4b3d
000003f0: dc04 1c3c fd8d c43a d460 733d 2369 01bd

_func._diffusion._model.2.bias f4 [48]
0.047036566 -0.11346126 -0.019003812 0.05664263 0.01540072 -0.04015601 0.050076168 0.08451668
-0.10856695 0.009389808 -0.0119413715 -0.10657051 -0.023864336 0.028272409 0.0063921046 -0.09862127
-0.013145291 0.09333662 -0.0005959605 0.05723425 0.059245165 0.06589372 0.051607966 -0.021759303
0.11470796 0.027332941 -0.07042615 0.008167137 0.111682035 -0.0011658744 0.10281622 0.07229502
0.03583974 -0.008691778 -0.04407556 0.08790794 -0.10688218 -0.088081405 -0.07688507 -0.034553822
0.06791097 -0.028598946 0.0020167213 -0.07223972 -0.104342066 0.024592452 -0.0044511664 0.05536073
00000000: 6aa9 403d 615e e8bd e2ad 9bbc 1a02 683d
00000010: 4d53 7c3c a17a 24bd ab1c 4d3d 1517 ad3d
00000020: 5958 debd b6d7 193c bea5 43bc a441 dabd
00000030: 247f c3bc 8a9b e73c dc74 d13b f3f9 c9bd
00000040: 595f 57bc 4527 bf3d 3b3a 1cba 766e 6a3d
00000050: 0fab 723d 49f3 863d e062 533d 9140 b2bc
00000060: 02ec ea3d 55e9 df3c 963b 90bd 75cf 053c
00000070: 8db9 e43d 41d0 98ba 4f91 d23d 690f 943d
00000080: b1cc 123d f667 0ebc 9388 34bd 1409 b43d
00000090: 0be5 dabd 0664 b4bd eb75 9dbd 4f88 0dbd
000000a0: e814 8b3d 5648 eabc f82a 043b 6bf2 93bd
000000b0: 4bb1 d5bd 1c76 c93c 17db 91bb efc1 623d

_readout.weight f4 [1, 16]
0.24717182 0.18491401 0.041510105 -0.02245269 -0.056246046 -0.1941622 0.059332933 0.22675307
-0.015673323 0.14916424 0.15115835 -0.04887069 0.080799855 -0.16765678 0.21093947 -0.123200834
00000000: 9c1a 7d3e 195a 3d3e 8006 2a3d b4ee b7bc
00000010: 4162 66bd 75d2 46be 1707 733d f531 683e
00000020: 5765 80bc 83be 183e 41c9 1a3e a22c 48bd
00000030: 657a a53d 38ae 2bbe 8400 583e b850 fcbd
