model_saves/generator_reverseHeun.pth (torch, 13595 bytes, 13 tensors)

_initial._model.0.weight f4 [16, 5]
0	0xbecc89a8	-0.39948773
1	0xbf9baffe	-1.2163084
2	0xbe8aed1d	-0.27134028
3	0xbf096cd0	-0.5368166
4	0x3eebd375	0.46059766
5	0xbd80c545	-0.06287626
6	0xbe908080	-0.28223038
7	0xbf452a54	-0.7701771
8	0x3f7491e4	0.9553511
9	0xbf29764b	-0.66196126
10	0x3f2c203e	0.672367
11	0xbeedb13d	-0.46424285
12	0xbf19da9e	-0.6009921
13	0x3e381456	0.17976508
14	0xbd9eb9d8	-0.07750291
15	0xbda03de6	-0.07824306
16	0x3e8e2323	0.27761182
17	0x3cdc597f	0.026898144
18	0x3f1898b3	0.59608
19	0xbed3cbb7	-0.4136636
20	0x3f0afdf0	0.5429373
21	0x3f9f04c2	1.2423327
22	0x3fa4d3fd	1.2877194
23	0xbf317951	-0.6932574
24	0xbe7b2662	-0.2452636
25	0x3d00b21e	0.031419866
26	0xbf2ddf17	-0.67918533
27	0x3f4ca648	0.79941225
28	0xbf859e65	-1.0438963
29	0xbed94da0	-0.42442036
30	0x3f850d12	1.0394614
31	0x3d2ceebe	0.04221987
32	0xbf37e007	-0.71826214
33	0x3e8e6dd1	0.27818158
34	0xbdfa586f	-0.122238986
35	0xbf263f49	-0.64940315
36	0xbf1028bc	-0.56312156
37	0x3fa6b4b6	1.3023899
38	0x3de76a8e	0.112996206
39	0x3f75bca7	0.95990986
40	0xbdf059b2	-0.11735858
41	0xbf2d7320	-0.6775379
42	0x3d75dd0d	0.060025264
43	0xbfa9cbb5	-1.3265291
44	0xbf052393	-0.52007407
45	0xbf4b8b19	-0.7950912
46	0x3f69ec00	0.9137573
47	0x3da37507	0.079813056
48	0x3f9d169f	1.2272528
49	0x3f7c0d3d	0.984577
50	0x3f97ff18	1.1874723
51	0x3f7424aa	0.95368445
52	0xbd6857c4	-0.056724325
53	0x3f908c95	1.1292902
54	0x3edadd7c	0.42747104
55	0x3f719f2c	0.943835
56	0xbdea6534	-0.11445084
57	0x3f6cda13	0.92520255
58	0xbde4cceb	-0.111718975
59	0x3faa4959	1.3303634
60	0x3f449f53	0.7680561
61	0xbe2ec360	-0.17066717
62	0x3eb85b3d	0.3600711
63	0xbf9630fb	-1.1733698
64	0x3f3db722	0.74107563
65	0x3f499f7f	0.78758997
66	0x3f8feea5	1.1244704
67	0x3f26c0c4	0.65137887
68	0x3f2a0771	0.66417605
69	0xbeda4bc4	-0.4263593
70	0xbf967559	-1.1754562
71	0x3f809fea	1.0048802
72	0xbf2652a3	-0.64969844
73	0x3f5279c4	0.8221705
74	0x3c04c39d	0.008103278
75	0x3ef1b173	0.47205696
76	0xbf28d3ab	-0.6594798
77	0x3e7dcc45	0.24784954
78	0x3f82c700	1.021698
79	0xbf299245	-0.66238815

_initial._model.0.bias f4 [16]
0	0x3edf7b79	0.4364889
1	0xbf191bbd	-0.5980795
2	0xbf931458	-1.1490583
3	0x3fa2f9d8	1.2732496
4	0xbdaad513	-0.08341422
5	0xbdfa13ac	-0.12210783
6	0x3ee5fa1e	0.44917387
7	0xbe1330fb	-0.14374153
8	0x3f3edb56	0.7455343
9	0xbf0798cc	-0.52967525
10	0x3f8afaac	1.0857749
11	0x3e92990d	0.28632393
12	0xbf77e474	-0.96832967
13	0xbf526b08	-0.82194567
14	0x3f9112e8	1.1333895
15	0x3ca4d920	0.020123065

_initial._model.2.weight f4 [16, 16]
0	0x3f34d7db	0.7064187
1	0x3d343be9	0.044002447
2	0x3e4b3da8	0.19847739
3	0x3ef0161d	0.4689187
4	0x3e66d0ad	0.22540541
5	0xbf116377	-0.56792396
6	0x3f1e830b	0.61918706
7	0x3ebf2eb1	0.3734031
8	0x3efff750	0.49993372
9	0xbe82af03	-0.25524148
10	0xbe48837b	-0.19581406
11	0xbef98979	-0.48737696
12	0x3e809058	0.25110126
13	0xbf176bc5	-0.5914882
14	0xbf0fa200	-0.5610657
15	0xbb8987f0	-0.004197113
16	0x3e890663	0.26762685
17	0x3db48b6f	0.08815657
18	0x3f0113c4	0.50420785
19	0xbdbe05b7	-0.09278434
20	0x3f1c8233	0.6113617
21	0xbea38ec3	-0.31944856
22	0xbd78b2bc	-0.06071733
23	0x3eb9ba27	0.36274835
24	0x3f1c0078	0.60938215
25	0x3d7859f8	0.060632676
26	0xbb6f0ca7	-0.0036476047
27	0xbf3ca653	-0.7369129
28	0x3e58f32e	0.21186516
29	0x3ed39f87	0.41332647
30	0x3d8ce9d5	0.068805374
31	0x3da92d1f	0.08260559
32	0xbdd9f10e	-0.10641681
33	0xbecb71b0	-0.39735174
34	0xbede1351	-0.43374112
35	0x3e7b0900	0.24515152
36	0xbf1c4a05	-0.61050445
37	0x3eae9942	0.341013
38	0xbf30d4f6	-0.6907495
39	0x3f2d8c1f	0.6779193
40	0xbe1b463d	-0.15163513
41	0xbecb38a2	-0.39691645
42	0xbf2fa1d7	-0.68606323
43	0xbea0add2	-0.31382614
44	0xbeaf4881	-0.34235004
45	0x3df603ab	0.12012418
46	0x3e6c8cab	0.23100536
47	0x3f1fd5aa	0.624354
48	0x3e8e277c	0.277645
49	0xbf27950e	-0.65461814
50	0x3f1a7a77	0.60343117
51	0xbedc44d6	-0.43021268
52	0xbe0d5d3e	-0.138051
53	0x3ea3c0dd	0.3198308
54	0x3e885175	0.26624647
55	0x3e43422e	0.19068214
56	0x3ebdfb93	0.37105998
57	0xbeeb1ba8	-0.45919538
58	0x3e961733	0.29314575
59	0xbf108ab4	-0.56461644
60	0x3ecc478f	0.39898345
61	0x3d2d8762	0.04236544
62	0xbef3a7a8	-0.4758885
63	0xbf0c9050	-0.54907703
64	0x3f022a40	0.5084572
65	0x3edf457f	0.4360771
66	0x3e336cac	0.17521924
67	0xbe8957f2	-0.2682491
68	0x3f2c201c	0.67236495
69	0x3eda0560	0.42582226
70	0xbf2b19a0	-0.66835976
71	0x3e55b945	0.20871456
72	0xbeea288c	-0.4573406
73	0x3e3b1485	0.18269546
74	0x3ed4226d	0.41432515
75	0xbbd8dc55	-0.0066180625
76	0xbeddb248	-0.4330008
77	0x3e9d7be3	0.3075858
78	0xbedbff15	-0.4296805
79	0xbf04400b	-0.5166022
80	0x3e8b8ebf	0.27257344
81	0x3f0cf4ff	0.55061334
82	0xbe274044	-0.16333109
83	0x3d85c658	0.06531972
84	0xbedf832d	-0.43654767
85	0xbd3e4c67	-0.04645958
86	0x3f22f0f5	0.6364892
87	0x3ed9659c	0.42460334
88	0x3f186722	0.5953237
89	0x3ef9b2dc	0.4876927
90	0x3e89916f	0.2686877
91	0x3da1f747	0.079084925
92	0xbf1b06f3	-0.6055748
93	0xbef7348a	-0.48282272
94	0xbeec1064	-0.46106255
95	0xbe31db2f	-0.17368768
96	0x3c69525f	0.01424083
97	0x3eeeabe1	0.46615508
98	0x3e84bc0a	0.25924712
99	0x3f42cc7c	0.7609327
100	0x3ec6e7e7	0.38848802
101	0xbed883c9	-0.42288044
102	0xbf24ec2a	-0.6442286
103	0xbdc66fa1	-0.0968926
104	0xbf03efb5	-0.5153764
105	0x3e089c57	0.13340889
106	0xbf23a285	-0.6391986
107	0x3d9c0bcb	0.07619437
108	0x3f3ca0ee	0.7368306
109	0x3da622e7	0.08112126
110	0x3e868cd9	0.26279333
111	0xbe8fbedf	-0.2807531
112	0x3e8b4ca2	0.27206904
113	0xbf164eef	-0.58714193
114	0xbe40a4f4	-0.18812925
115	0x3d0d0b46	0.03443458
116	0x3f047adf	0.51749986
117	0x3e124686	0.14284715
118	0xbeef9548	-0.4679358
119	0x3dee2383	0.11627867
120	0xbe8519c7	-0.2599623
121	0x3e79316e	0.24335262
122	0x3e20a941	0.15689565
123	0x3e7c672a	0.24648729
124	0x3eff2bfe	0.4983825
125	0xbee23a61	-0.44185165
126	0x3f136a9c	0.5758455
127	0xbec5402d	-0.38525525
128	0x3f018d56	0.50606287
129	0xbecbc25c	-0.39796722
130	0x3e5f24ad	0.21791334
131	0xbf412cfe	-0.7545928
132	0x3e4618f6	0.1934546
133	0x3ef29c0e	0.47384685
134	0x3e880c61	0.26571944
135	0x3dddd896	0.10832326
136	0x3ef2ff87	0.47460577
137	0xbe9a4455	-0.30130258
138	0xbe1f850d	-0.15578099
139	0x3cbbf58f	0.02294424
140	0x3e2db24a	0.16962543
141	0x3dcb5db4	0.09929982
142	0xbf24ac40	-0.6432533
143	0xbe21b626	-0.1579214
144	0xbefb9a0d	-0.4914097
145	0x3db4fae8	0.08836919
146	0x3e6770fb	0.22601692
147	0x3f141ea1	0.57859236
148	0xbdcad991	-0.09904779
149	0xbdb1f4fd	-0.08689306
150	0xbdc8ef06	-0.09811215
151	0xbf210f26	-0.6291374
152	0x3f1b4889	0.60657555
153	0xbf079bc9	-0.52972084
154	0x3f11256e	0.5669774
155	0x3dd7dee2	0.105405584
156	0xbf3bb274	-0.7331917
157	0xbe6d69df	-0.23184918
158	0xbda93a48	-0.082630694
159	0x3ef06602	0.46952826
160	0x3e38a036	0.18029866
161	0xbde221bd	-0.11041591
162	0x3f09b706	0.53794897
163	0xbec815f4	-0.3907925
164	0x3dcb196b	0.099169575
165	0xbee97593	-0.45597515
166	0xbf1e1151	-0.6174517
167	0x3ec768b8	0.38947082
168	0xbee9153b	-0.4552401
169	0xbf3ad5af	-0.72982305
170	0xbd9b89c2	-0.075946346
171	0x3ea6bde9	0.32566765
172	0x3e9d732f	0.3075194
173	0xbeddb770	-0.43304014
174	0xbf3404a7	-0.703196
175	0xbe30e908	-0.17276394
176	0x3d598e9f	0.05311453
177	0xbf0b6dfe	-0.5446471
178	0x3eccb1b5	0.3997933
179	0x3df1ba67	0.118031316
180	0x3eb2c4a0	0.34915638
181	0x3f25aa89	0.6471334
182	0xbe811bf5	-0.25216642
183	0xbe5870ce	-0.21136782
184	0xbf0600bf	-0.5234489
185	0x3e37c13d	0.17944808
186	0x3f12efba	0.57397044
187	0xbf312a54	-0.6920521
188	0x3e26704a	0.16253772
189	0xbf1efc68	-0.6210389
190	0xbf1c535f	-0.61064714
191	0x3e90950f	0.28238723
192	0x3efb1fdf	0.49047753
193	0x3f1f799d	0.6229494
194	0x3ec51065	0.3848907
195	0x3f26ac59	0.6510673
196	0xbec3378b	-0.38128313
197	0xbeeada6d	-0.4586977
198	0xbdc4c67f	-0.096081726
199	0xbeb504ed	-0.3535532
200	0x3e11b610	0.14229608
201	0x3f3d0e7b	0.7385022
202	0x3ea0f9de	0.31440634
203	0x3ecd7a2a	0.40132266
204	0x3d98cc62	0.07460858
205	0xbe63f406	-0.22261056
206	0x3e781fbc	0.24230856
207	0xbe0d0873	-0.13772754
208	0xbf01a3a4	-0.5064032
209	0xbf250667	-0.64462894
210	0xbf1351f1	-0.5754691
211	0x3d0a7a5e	0.033808105
212	0x3f1a284a	0.60217726
213	0x3f3be4de	0.733961
214	0xbf2a131d	-0.66435415
215	0x3efff7d4	0.49993765
216	0xbf41eac6	-0.7574886
217	0x3f1283a6	0.5723213
218	0xbee74061	-0.45166305
219	0x3e176661	0.14785148
220	0xbeb4c951	-0.35309842
221	0x3e7f6c3a	0.24943629
222	0xbd27dab9	-0.040980075
223	0xbf070018	-0.5273452
224	0xbf3b8907	-0.7325596
225	0xbecf218d	-0.40455285
226	0xbf09fa54	-0.53897595
227	0xbe4d917e	-0.20075032
228	0x3f1257d4	0.57165265
229	0x3dba79b2	0.09105243
230	0x3f028978	0.5099101
231	0x3d7e32aa	0.062060036
232	0xbeb829e0	-0.35969448
233	0x3e2cb62f	0.16866373
234	0xbdaa8812	-0.083267346
235	0xbea2d2a4	-0.3180133
236	0xbf38d84f	-0.7220506
237	0xbe8aa6f0	-0.27080488
238	0xbd525ce4	-0.05135812
239	0x3ea13177	0.3148305
240	0xbe88aa78	-0.26692557
241	0x3ef6f8c4	0.48236668
242	0x3e2876dc	0.16451591
243	0xbe8dd1dd	-0.27699175
244	0x3f1242f3	0.57133406
245	0x3e8a7909	0.27045467
246	0x3f2f1a55	0.68399554
247	0x3d9cb8ac	0.07652411
248	0x3f3b1df9	0.7309261
249	0x3e47221f	0.1944661
250	0x3ead96f2	0.33904225
251	0x3f124e19	0.5715042
252	0x3dae6bce	0.08516656
253	0x3f1c7767	0.61119694
254	0xbf11951c	-0.5686815
255	0x3f171b1e	0.5902575

_initial._model.2.bias f4 [16]
0	0xbf0a2e3b	-0.5397679
1	0xbf1cfab0	-0.6132002
2	0x3e9f8595	0.31156603
3	0xbe013fcb	-0.12621991
4	0x3eed5ff9	0.46362284
5	0xbe7e6f99	-0.24847259
6	0xbb77a85a	-0.0037789554
7	0xbf341bcc	-0.70354915
8	0xbeb31c70	-0.34982634
9	0xbe63f297	-0.2226051
10	0x3f25c22f	0.64749426
11	0x3f190a7c	0.5978162
12	0xbe88685f	-0.2664213
13	0xbe5e434b	-0.21705358
14	0x3eed39cf	0.46333167
15	0x3f36c31e	0.71391475

_func._drift._model.0.weight f4 [16, 17]
0	0xbe1640d6	-0.1467317
1	0x3cb01452	0.021494064
2	0x3d452ace	0.048136525
3	0x3c6c5dd3	0.014426666
4	0xbce6a7bc	-0.028156154
5	0x3d97081c	0.073745936
6	0x3da7ae49	0.08187539
7	0xbd97d215	-0.07413117
8	0xbc9cc856	-0.019138496
9	0xbcbf7393	-0.02337054
10	0xbd382f1e	-0.04496681
11	0xbded767b	-0.11594864
12	0xbda95f86	-0.08270173
13	0xbd4faf71	-0.050704423
14	0xbdd3871f	-0.10328507
15	0x3d1811b9	0.037126277
16	0x3d729861	0.05922735
17	0x3d7e5df5	0.062101323
18	0x3d06e85e	0.032936446
19	0xbc4ea09f	-0.012611537
20	0xbd3f39b4	-0.04668589
21	0xbd49e04d	-0.049286176
22	0x3da92477	0.08258908
23	0xbd37f3f7	-0.044910397
24	0x3dc4e693	0.09614291
25	0x3db4deaf	0.08831536
26	0xbd8f5376	-0.06998341
27	0xbc6038a6	-0.013685381
28	0x3dd8d356	0.10587184
29	0x3d72740d	0.059192706
30	0xbc808c6f	-0.015691964
31	0xbdb0bb49	-0.08629472
32	0x3d826e44	0.06368688
33	0x3c523714	0.012830514
34	0x3dbb2be0	0.09139228
35	0x3dac9f4b	0.0842882
36	0x3d901878	0.07035917
37	0x3d769bff	0.060207363
38	0x3d1090cd	0.035294343
39	0x3db6ea9d	0.08931468
40	0x3d4da262	0.05020369
41	0x3d989abc	0.07451388
42	0x3ddde384	0.10834411
43	0x3df724d3	0.120675705
44	0xbdc4fca3	-0.09618499
45	0x3d9ef751	0.077620156
46	0xbdabb957	-0.0838496
47	0x3c8a9638	0.016917333
48	0x3dd02c52	0.101647034
49	0x3c912fcd	0.017722989
50	0x3d96ae3d	0.07357452
51	0xbd0e0944	-0.034676805
52	0x3d95d6fa	0.07316394
53	0xbdaa1d64	-0.08306387
54	0xbdbd094b	-0.09230288
55	0x3d240f18	0.040053457
56	0x3dd97c6f	0.10619437
57	0xbd809767	-0.06278878
58	0x3e0a680c	0.13516253
59	0xbdf7915a	-0.120882705
60	0xbdcc94cf	-0.099893205
61	0xbe043714	-0.12911636
62	0xbdf077ef	-0.117416255
63	0x3b64296d	0.003481473
64	0x3db18bfb	0.08669277
65	0xbd158d3d	-0.03651165
66	0x3e112681	0.14174844
67	0xbd613b6b	-0.054988306
68	0xbde17423	-0.110084794
69	0xbd95f1fd	-0.07321546
70	0xbdd0cdde	-0.10195516
71	0xbdbc4699	-0.09193153
72	0x3dd74096	0.10510366
73	0x3de423b8	0.11139625
74	0xbdc0912e	-0.09402691
75	0xbdc6b965	-0.0970333
76	0x3ba06cde	0.0048957905
77	0x3c48d84c	0.0122586
78	0xbd9db9e8	-0.077014744
79	0x3cc5cd7e	0.024145838
80	0xbd378dd1	-0.04481298
81	0xbc212b8f	-0.009837045
82	0x3b8cb664	0.0042942036
83	0xbdae8fdc	-0.08523533
84	0x3dbc0946	0.09181456
85	0x3db2d9c4	0.08732942
86	0x3dc60bda	0.09670229
87	0xbd0a2a34	-0.033731654
88	0x3db047f8	0.08607477
89	0x3de6acb0	0.11263406
90	0xbd04e78a	-0.032447375
91	0x3dfc2bc8	0.12313038
92	0x3d3b9dd9	0.045804832
93	0xbd0cdabb	-0.034388285
94	0x3be9b497	0.0071321237
95	0xbd44ea1b	-0.048074823
96	0xbdb64740	-0.089003086
97	0xbd10defa	-0.035368897
98	0x3df61835	0.12016336
99	0x3d218305	0.03943159
100	0xbd2ed17a	-0.04268024
101	0x3ca2fb30	0.019895166
102	0xbdf60ddb	-0.120143615
103	0x3d829de0	0.063777685
104	0xbc3f3b45	-0.011671846
105	0xbd4af415	-0.04954918
106	0xbda70005	-0.081543006
107	0x3da34d69	0.07973749
108	0x3daf9fbf	0.08575391
109	0xbd6f6907	-0.05844977
110	0x3da17d67	0.07885247
111	0xbde178cd	-0.11009369
112	0x3d0ed7d8	0.034873813
113	0x3dc4f455	0.09616915
114	0x3dda3636	0.10654871
115	0xbdf75ef6	-0.12078659
116	0x3db606f3	0.08888044
117	0xbd06254f	-0.032750424
118	0x3df9d57e	0.121989235
119	0x3dd9e165	0.10638694
120	0x3dfa4ee0	0.122220755
121	0xbcd79b0a	-0.026319046
122	0xbd9f202b	-0.077698074
123	0xbe0125d5	-0.12612088
124	0xbda9eb45	-0.08296827
125	0xbd14118e	-0.036149554
126	0xbbaf2897	-0.005345415
127	0xbd479611	-0.0487271
128	0x3db78670	0.08961189
129	0x3d9f0c06	0.07765965
130	0xbdd71bc3	-0.10503342
131	0x3db657f7	0.08903497
132	0x3cf29600	0.029612541
133	0xbdf0cf32	-0.11758269
134	0x3d9a2365	0.07526282
135	0xbdc0506d	-0.0939034
136	0x3d6502ea	0.055910982
137	0x3dd25535	0.10270158
138	0x3cb5e8bc	0.022205703
139	0x3c8a9e60	0.016921222
140	0xbd86b012	-0.065765515
141	0x3d2288e3	0.039681327
142	0x3df046cc	0.117322534
143	0xbd1c4a14	-0.038156584
144	0x3cd3f8f4	0.025875546
145	0x3ceede10	0.029158622
146	0x3daea37b	0.08527275
147	0xbdead1ba	-0.114657834
148	0xbd99f48e	-0.07517348
149	0xbaa111a3	-0.0012288581
150	0xbda5e4a1	-0.08100248
151	0xbd4475d3	-0.04796393
152	0x3e4953f0	0.19660926
153	0xbcf2f36a	-0.029657084
154	0xbd8eb916	-0.06968896
155	0xbc09e4be	-0.008416353
156	0x3c3a2447	0.011361188
157	0xbc9d942c	-0.019235693
158	0x3d1d8868	0.038460165
159	0x3ca33d44	0.019926675
160	0x3d08267c	0.033239827
161	0xbdc7c9e7	-0.09755307
162	0x3bb5b2fc	0.0055450182
163	0xbd8b6713	-0.06806769
164	0xbbebcd32	-0.007196092
165	0xbd4c7942	-0.049920328
166	0x3d8798cc	0.066209406
167	0xbd23cba3	-0.039989125
168	0xbd463cff	-0.048398014
169	0x3dbea8a8	0.093095124
170	0x3dd5590e	0.104173765
171	0x3adb9a57	0.0016754371
172	0xbde445ad	-0.11146102
173	0xbddbfc5f	-0.10741495
174	0xbdfaf46f	-0.12253653
175	0xbdf070d1	-0.11740268
176	0xbdf3ed3d	-0.11910484
177	0xbd11e02f	-0.03561419
178	0x3d56dc74	0.052456334
179	0xbc2ec28b	-0.0106665
180	0x3dd92abd	0.10603855
181	0x3c56d342	0.013111891
182	0xbce3bcca	-0.027799983
183	0x3cc1fb25	0.023679325
184	0xbd2656ca	-0.040610112
185	0x3bc578b0	0.00602635
186	0x3dd3ad4a	0.10335787
187	0xbdea84fa	-0.114511445
188	0x3deeb3a5	0.11655358
189	0xbd94748b	-0.07248791
190	0x3cb4719a	0.022026826
191	0x3d8d8c38	0.0691151
192	0xbd62e3f9	-0.055393193
193	0x3d457293	0.04820497
194	0x3ccbc0f2	0.024872277
195	0x3d9d0ca4	0.07668427
196	0xbd23c40f	-0.039981898
197	0xbda32dca	-0.07967718
198	0x3c701a59	0.014654719
199	0xbda48b83	-0.08034422
200	0x3caba238	0.020951375
201	0xbc67edbe	-0.014155803
202	0x3dbc42c8	0.09192425
203	0x3dcb06c3	0.09913399
204	0xbd3155a8	-0.04329458
205	0xbdebee26	-0.115200326
206	0xbdff66d2	-0.12470783
207	0xbddfb1f7	-0.10922616
208	0xbba10750	-0.004914202
209	0xbdde86c9	-0.10865552
210	0xbd826dae	-0.06368576
211	0x3df6e7ce	0.12055932
212	0xbd4b18f7	-0.049584355
213	0x3ba449a1	0.00501366
214	0xbd56b79a	-0.05242119
215	0x3dc3a3db	0.09552737
216	0xbd23b5eb	-0.039968412
217	0xbd87c670	-0.06629646
218	0x3e061b03	0.13096242
219	0xbd72e2b4	-0.059298232
220	0x3c8bdf97	0.01707439
221	0x3d0c07c1	0.034187082
222	0x3c86796a	0.016415317
223	0xbd7e8caf	-0.062145885
224	0x3da2306a	0.079193905
225	0xbd0a6cf7	-0.033795323
226	0x3db1a3a3	0.08673789
227	0x3bff156c	0.007784536
228	0xbc902632	-0.017596338
229	0xbde29684	-0.11063865
230	0x3df06bef	0.11739337
231	0xbda2b297	-0.079442196
232	0xbccbb47f	-0.02486634
233	0x3cc763e6	0.024339627
234	0x3d4b3c03	0.04961778
235	0x3d912ebc	0.07088992
236	0xbdc58690	-0.096448064
237	0x3dd02e51	0.10165084
238	0x3cd66a5f	0.026173769
239	0xbd9d4f10	-0.076810956
240	0xbdc5ccee	-0.09658228
241	0xbc8f45b4	-0.017489292
242	0xbd89e2b3	-0.067326926
243	0xbd808376	-0.06275074
244	0x3bff9e56	0.0078008575
245	0xbd3fd491	-0.04683358
246	0xbd9ffa19	-0.07811374
247	0xbd950a7e	-0.07277392
248	0xbdc24e89	-0.09487636
249	0xbbfc682e	-0.007702849
250	0xbd1cc617	-0.03827485
251	0xbd83900e	-0.064239606
252	0xbd64d777	-0.055869546
253	0x3dc77863	0.09739759
254	0x3c32a0ed	0.0109026255
255	0x3ddd697b	0.108111344

_func._drift._model.0.bias f4 [16]
0	0x3d8f62ee	0.07001291
1	0xbdcea826	-0.100906655
2	0xbe02cb85	-0.12772949
3	0xbda183f0	-0.07886493
4	0xbd1c1867	-0.03810921
5	0xbcd45dcf	-0.025923638
6	0x3cf41833	0.029796695
7	0xbdc95411	-0.098304875
8	0x3d585f4d	0.05282526
9	0xbd5724ed	-0.05252545
10	0xbd8f44fe	-0.06995581
11	0xbdc286b0	-0.09498346
12	0xbcdcbfab	-0.026946863
13	0xbe1c74d0	-0.15278935
14	0x3d062139	0.032746527
15	0x3dc75a22	0.09733988

_func._drift._model.2.weight f4 [16, 16]
0	0xbdd2d376	-0.10294239
1	0x3e024fac	0.12725705
2	0x3d842229	0.06451828
3	0x3dd52b0b	0.104086004
4	0x3d975f98	0.0739128
5	0xbd2e9c9c	-0.042629823
6	0xbdc3946f	-0.09549796
7	0xbd472dc1	-0.04862762
8	0x3d1a0180	0.037599087
9	0xbe044457	-0.12916695
10	0xbde4c99c	-0.111712664
11	0xbda5fe7d	-0.081051804
12	0x3d9eacbd	0.07747791
13	0xbdb59922	-0.088670984
14	0x3d69419b	0.056947332
15	0xbcf9e5d1	-0.030505093
16	0xbd34c074	-0.04412885
17	0x3db62065	0.088928975
18	0xbdbb18aa	-0.09135564
19	0x3d1552f4	0.036456063
20	0x3a7e233c	0.00096945814
21	0xbdd02099	-0.101624675
22	0xbd316cdf	-0.04331672
23	0xbdc1b251	-0.09457839
24	0xbd67669e	-0.056494348
25	0xbd8eb917	-0.06968897
26	0xbda2be55	-0.07946459
27	0x3ca24469	0.019808011
28	0xbd5a3e5d	-0.05328213
29	0x3dd993bf	0.106238835
30	0x3d9c8890	0.07643235
31	0xbd8184be	-0.06324147
32	0x3e097fa7	0.13427602
33	0xbbde0445	-0.0067754113
34	0x3db82dde	0.089931235
35	0xbe14954f	-0.14510082
36	0xbbfe89d6	-0.007767896
37	0x3c5b5ada	0.01338836
38	0x3d901762	0.0703571
39	0xbdcba4de	-0.09943555
40	0xbd8d06b5	-0.06886045
41	0xbd369edc	-0.044585094
42	0xbc2a9adb	-0.010412897
43	0x3d029228	0.031877667
44	0x3d22272c	0.03958814
45	0x3dc7fe7d	0.09765337
46	0x3d918057	0.07104557
47	0xbdd03444	-0.10166219
48	0xbc87ef7f	-0.016593693
49	0xbda77444	-0.08176473
50	0x3d8c5a69	0.06853182
51	0xbe36f1a8	-0.17865622
52	0x3d3b8828	0.045784146
53	0x3cc56d57	0.024099989
54	0xbc36ba7c	-0.01115286
55	0x3d05029e	0.0324732
56	0xbdeff802	-0.117172256
57	0x3e1b5c91	0.1517203
58	0xbdfc3c43	-0.123161815
59	0x3d5dce8b	0.054152053
60	0xbcffc827	-0.03122337
61	0x3dc841d5	0.097781815
62	0x3cfcbce3	0.030851787
63	0x3aad183c	0.0013206075
64	0xbd7664f3	-0.060154866
65	0xba4e01ed	-0.00078585633
66	0xbdc8ade6	-0.097987935
67	0x3a87c10c	0.0010357215
68	0xbdb730c5	-0.08944849
69	0xbdc7b151	-0.09750617
70	0x3dcc8b50	0.09987509
71	0x3d9ef660	0.07761836
72	0xbd95a37b	-0.07306572
73	0x3de145c1	0.109996326
74	0x3d909728	0.07060081
75	0xbdcfb921	-0.101427324
76	0x3de41d38	0.111383855
77	0xbdbb06e9	-0.091321774
78	0xbdfe3c6d	-0.12413869
79	0xbb025f35	-0.0019893174
80	0x3d94003b	0.072266065
81	0x3dc8d9fb	0.098072015
82	0x3d707e3b	0.058714133
83	0x3d91fcb1	0.07128275
84	0x3cd29520	0.025705874
85	0xbdf5d737	-0.120039396
86	0x3ddcbb26	0.10777883
87	0xbcf3f5c7	-0.029780282
88	0xbde1d544	-0.11027005
89	0x3cd0265e	0.02540892
90	0xbd585982	-0.052819736
91	0xbdb06d8e	-0.08614646
92	0xbcab65b1	-0.020922514
93	0x3cf68554	0.030092873
94	0xbdb7ee0f	-0.08980953
95	0x3c7aa52e	0.015298171
96	0xbc418081	-0.011810423
97	0x3d3efb73	0.04662652
98	0xbdb5ea16	-0.08882539
99	0xbd95acb9	-0.07308335
100	0x3d29c3f3	0.041446637
101	0x3d961804	0.07328799
102	0xbd105217	-0.035234537
103	0x3df6db96	0.120536014
104	0x3df6f81d	0.120590426
105	0x3bd0fc52	0.006377735
106	0x3dcfb37d	0.101416565
107	0x3db45c0b	0.08806618
108	0x3d315c58	0.043300956
109	0xbcb8d3be	-0.022561904
110	0x3e09392e	0.13400719
111	0x3d38e529	0.04514042
112	0xbda16ce9	-0.07882101
113	0xbe0a4c19	-0.13505591
114	0x3cb29714	0.021800555
115	0xbdde794a	-0.10862978
116	0x3dd062b1	0.10175074
117	0x3d38ab31	0.045085136
118	0xbb27c1b3	-0.0025597631
119	0xbde0f319	-0.10983867
120	0xbbbd8fef	-0.0057849805
121	0x3d4ceabe	0.050028555
122	0xbd348595	-0.044072706
123	0x3d27b407	0.04094317
124	0x3be7e9cc	0.0070774313
125	0xbd6dc4b9	-0.058048937
126	0xbcee44b5	-0.029085496
127	0x3ddf24d1	0.10895694
128	0x3d9e3955	0.07725779
129	0xbca87059	-0.020561384
130	0x3d4b1ad7	0.049586143
131	0x3dbb6247	0.09149604
132	0xbd3cbf8f	-0.046081122
133	0xbd7537e7	-0.059867766
134	0xbdca9dbe	-0.09893368
135	0xbd7648a1	-0.060127858
136	0xbd1495d3	-0.036275696
137	0xbdb77b75	-0.089590944
138	0xbe005a59	-0.12534465
139	0x3d55bc36	0.052181445
140	0xbc980338	-0.018556222
141	0x3ce3fa10	0.0278292
142	0xbcc7f3ad	-0.024408186
143	0xbbc4f20b	-0.006010299
144	0xbd7c200d	-0.061554004
145	0xbd4b8b01	-0.04969311
146	0x3dcd1899	0.10014457
147	0xbdb4e1eb	-0.08832153
148	0x3d965ca6	0.0734189
149	0xbd354b2a	-0.044261135
150	0xbdee7ca8	-0.1164487
151	0xbd896ca1	-0.067101724
152	0x3defb1cc	0.11703834
153	0x3d50d115	0.050980646
154	0x3df45265	0.11929778
155	0xbc9622c6	-0.018327128
156	0xbd6839a5	-0.0566956
157	0x3c4bf733	0.012449074
158	0xbddddc16	-0.10832994
159	0xbde0d883	-0.10978796
160	0x3d91fbc1	0.07128096
161	0xbe0064d1	-0.12538458
162	0x3d089283	0.03334285
163	0x3dfb434b	0.122686945
164	0x3d8154a7	0.06314974
165	0xbdbfab4b	-0.093588434
166	0x3de13760	0.1099689
167	0xbb12ffc6	-0.0022430285
168	0xbdb4c953	-0.08827462
169	0x3b15bd0d	0.0022848279
170	0xbda0bae5	-0.07848147
171	0x3dd79121	0.10525728
172	0xbca96801	-0.020679476
173	0x3d7b1f89	0.06130937
174	0x3df72425	0.12067441
175	0x3dab14eb	0.08353599
176	0x3e062230	0.13098979
177	0xbd1a7777	-0.037711587
178	0xbd1706c3	-0.036871683
179	0x3c97ee12	0.018546138
180	0xbdd797fc	-0.105270356
181	0x3db29d9b	0.08721467
182	0xbd60aab6	-0.054850303
183	0x3de29df8	0.110652864
184	0xbbe598cf	-0.0070067416
185	0xbcb99e81	-0.022658588
186	0x3ddfc78d	0.10926733
187	0xbd3208be	-0.04346537
188	0xbcc48f43	-0.023994094
189	0xbd1663d4	-0.036716297
190	0x3dc88e3b	0.09792753
191	0x3b0da78c	0.0021614758
192	0x3c856d8a	0.016287584
193	0x3dbf5c87	0.0934382
194	0x3d93f1d2	0.07223858
195	0xbd931504	-0.07181743
196	0x3d9d8d90	0.076930165
197	0xbdbb29bc	-0.091388196
198	0xbcabce02	-0.020972256
199	0x3db9ac96	0.09066121
200	0x3d703797	0.058646765
201	0x3df7ce82	0.12099935
202	0x3afcb5e0	0.0019280277
203	0xbcd84bad	-0.026403273
204	0x3c66ee66	0.014094925
205	0xbdbe9b2b	-0.0930694
206	0x3d24d360	0.040240645
207	0xbd7ec3a3	-0.062198292
208	0x3e149867	0.14511262
209	0x3d0a0cc2	0.033703573
210	0xbd80b55c	-0.062845916
211	0x3b9a218c	0.004703706
212	0x3dab7127	0.083711915
213	0x3cf29ca2	0.029615704
214	0xbcee046e	-0.029054847
215	0x3d80c51b	0.06287595
216	0xbd675766	-0.056479834
217	0xbdb265f4	-0.08710852
218	0xbd862ddd	-0.065517165
219	0xbcd6cd00	-0.026220798
220	0xbd64b271	-0.055834237
221	0x3db1eea7	0.086880974
222	0xbc6ff43d	-0.014645633
223	0x3d994abd	0.07484958
224	0x3a5718b3	0.00082052796
225	0x3e0e36cd	0.13888092
226	0xbda34115	-0.07971398
227	0x3ce7972d	0.028270328
228	0x3cc519a9	0.024060087
229	0xbcac2f26	-0.021018576
230	0x3d47b68c	0.048758075
231	0x3df6b720	0.12046647
232	0x3bd0079c	0.0063485634
233	0x3d620784	0.05518295
234	0x3dc42f5c	0.095793456
235	0xbe11bcf7	-0.1423224
236	0xbcdf388c	-0.027248643
237	0x3d62d0c5	0.05537488
238	0xbc993a69	-0.01870461
239	0xbd9a7db2	-0.07543506
240	0xbcb2acc7	-0.021810902
241	0xbded1b12	-0.11577429
242	0xbc902336	-0.017594915
243	0x3d2859d9	0.04110131
244	0xbe069c0c	-0.13145465
245	0xbcbde5b5	-0.023180822
246	0xbdb2b1b3	-0.087253
247	0xbd4bfd9f	-0.04980242
248	0x3dadfe6b	0.08495792
249	0x3d7958d0	0.060875714
250	0xbb6c0ec3	-0.003601954
251	0xbcfa56db	-0.030558994
252	0xbda9db22	-0.082937494
253	0xbdddd582	-0.10831739
254	0xbc3cc91a	-0.011522556
255	0x3d76e602	0.060277946

_func._drift._model.2.bias f4 [16]
0	0x3d0f08b8	0.034920424
1	0x3cd0099a	0.025395203
2	0xbcf91792	-0.030406747
3	0xbd9c6412	-0.076362744
4	0x3da34abe	0.0797324
5	0x3d9dbb0a	0.077016905
6	0xbcc57747	-0.024104727
7	0x3dc1cbd5	0.09462706
8	0xbdf95101	-0.121736534
9	0x3dd008e9	0.101579495
10	0xbd15ffbf	-0.03662085
11	0x3ce4e032	0.027938936
12	0x3d1c0598	0.038091272
13	0xbd90c6c4	-0.070691615
14	0xbcb4707a	-0.02202629
15	0xbcd1a358	-0.025590584

_func._diffusion._model.0.weight f4 [16, 17]
0	0xbc9498c7	-0.018139256
1	0xbd141bc9	-0.03615931
2	0x3d86fa48	0.06590706
3	0x3d4e1b13	0.05031879
4	0x3d188912	0.037240095
5	0x3d277ad3	0.04088862
6	0xbdac771f	-0.08421158
7	0x3d786667	0.060644533
8	0x3d6981c4	0.05700852
9	0x3d2eac4c	0.042644784
10	0x3d1bfc18	0.038082212
11	0x3acb09f1	0.0015490634
12	0x3d9d8e26	0.07693128
13	0xbcc15371	-0.023599358
14	0x3d8b7a2b	0.06810411
15	0x3c4ba3d7	0.012429199
16	0x3d1d1101	0.038346294
17	0xbd279bf8	-0.040920228
18	0xbdd46550	-0.10370886
19	0x3d7cdcd9	0.061734054
20	0x3d6897bb	0.056785326
21	0x3dbac5c1	0.0911975
22	0x3c8bb42c	0.017053686
23	0xbb7324c1	-0.0037100764
24	0xbde15872	-0.11003198
25	0x3da0f703	0.07859614
26	0xbdbeea11	-0.093219884
27	0x3d8cb628	0.06870681
28	0xbdddb050	-0.108246446
29	0xbdba71a4	-0.091037065
30	0x3d96826a	0.07349093
31	0xbddd4a41	-0.108051784
32	0xbd96fb7b	-0.07372185
33	0x3c805fe5	0.015670726
34	0xbc45d630	-0.012074992
35	0x3d90954d	0.07059727
36	0x3d81eaeb	0.06343635
37	0x3dcc8b43	0.099874996
38	0x3bdf68eb	0.006817927
39	0x3affa51f	0.0019504166
40	0x3cb82502	0.022478584
41	0x3d1ef11e	0.038804166
42	0xbcd447f7	-0.025913222
43	0x3d8ced0b	0.0688115
44	0x3cb9b76d	0.022670472
45	0x3cc038da	0.023464609
46	0xbd07ef54	-0.033187225
47	0xbdd2f82c	-0.10301241
48	0x3d37d93e	0.044884913
49	0xbcc3f2e9	-0.02391954
50	0x3dcbc7f5	0.09950248
51	0x3db6fa98	0.08934516
52	0xbd9349c1	-0.07191802
53	0x3d55c917	0.052193727
54	0xbd9e1ff9	-0.07720942
55	0x3bb57907	0.005538109
56	0xbbb9058a	-0.0056464123
57	0x3d56fcca	0.052487172
58	0xbc9fe2db	-0.019517353
59	0x3dff8d43	0.124781154
60	0xbca9673a	-0.020679105
61	0xbde5e4ed	-0.11225305
62	0x3dc91740	0.09818888
63	0x3dcc1c0a	0.099662855
64	0x3d72bc42	0.059261568
65	0xbd73e0f8	-0.05954072
66	0x3d9fa910	0.07795918
67	0xbde1d440	-0.110268116
68	0x3c12e012	0.008964555
69	0x3d9764aa	0.07392247
70	0x3dd3384a	0.10313471
71	0xbdb3b265	-0.087742604
72	0xbcfda21e	-0.030961093
73	0x3dff7f71	0.124754794
74	0x3da63453	0.08115449
75	0x3df248b3	0.118302725
76	0x3d9f2d97	0.077723674
77	0xbdb60d98	-0.088893116
78	0xbdaba9ee	-0.08382021
79	0x3db92bd2	0.09041561
80	0x3d53a5e3	0.051671874
81	0xbbe903ab	-0.007111033
82	0x3de37e89	0.11108119
83	0x3cd2ec7b	0.025747528
84	0x3ccfe9b8	0.02538
85	0x3d4a83f6	0.049442254
86	0x3ccd0f56	0.025031727
87	0xbd8dccf7	-0.069238596
88	0x3cfa44b2	0.030550335
89	0xbdbf8431	-0.093513854
90	0x3d0c56b9	0.034262393
91	0x3d9f4eb1	0.07778681
92	0xbdcce500	-0.10004616
93	0xbdbfe736	-0.09370272
94	0xbdba4c37	-0.09096568
95	0x3dbbe5b5	0.091746725
96	0x3da2e23c	0.07953307
97	0xbd8ddc54	-0.0692679
98	0xbd82f676	-0.06394665
99	0xbd3c7c0b	-0.046016734
100	0x3b84286a	0.004033138
101	0xbdce7bea	-0.100822285
102	0xb8279836	-3.995766e-05
103	0xbd38300e	-0.044967704
104	0x3d095e6f	0.033537325
105	0xbddf2334	-0.10895386
106	0x3d59eaa1	0.053202275
107	0xbdc5352a	-0.09629281
108	0xbd36d58d	-0.04463725
109	0x3b071f2b	0.0020617943
110	0xbc35150c	-0.011052381
111	0xbd266e6f	-0.04063266
112	0xbd709dcd	-0.05874424
113	0x3ddbb650	0.10728133
114	0xbd516184	-0.05111839
115	0xbd21514c	-0.03938417
116	0x3dfca205	0.1233559
117	0x3de136bb	0.10996767
118	0x3dbc1376	0.091833994
119	0xbc0a35d4	-0.008435685
120	0x3d4776f3	0.048697423
121	0x3bf3d0aa	0.007440646
122	0xbdb0a0b3	-0.08624401
123	0xbc47304f	-0.012157514
124	0xbdf37b08	-0.11888701
125	0xbca58c1b	-0.020208409
126	0x3db7dd4b	0.08977755
127	0xbd9ec2be	-0.07751988
128	0x3d0fc73f	0.035102125
129	0xbd9831c7	-0.07431369
130	0x3d21e34d	0.03952341
131	0x3de6f1fd	0.11276624
132	0x3d94a65a	0.072582915
133	0x3df784f4	0.12085906
134	0xbc32ed63	-0.010920855
135	0x3cee1825	0.029064247
136	0xbc2d2304	-0.01056743
137	0xbd85d085	-0.065339126
138	0xbcde26c1	-0.027118089
139	0xbc8347a1	-0.016025366
140	0x3a869991	0.0010269155
141	0x3dac862d	0.084240295
142	0x3cca66f9	0.024707304
143	0xbce4faf6	-0.027951699
144	0xbc39f3fa	-0.011349672
145	0xbd50a8cf	-0.05094224
146	0x3d23f32e	0.040026836
147	0x3da75509	0.08170516
148	0xbaeab231	-0.0017905888
149	0x3d23b3f0	0.039966524
150	0x3d8615b0	0.06547105
151	0xbde86b81	-0.1134863
152	0xbc3a5ad6	-0.011374196
153	0x3ddc14a0	0.107461214
154	0xbdc1691a	-0.09443875
155	0x3ca9a214	0.020707168
156	0xbdabda22	-0.08391215
157	0xbbeee883	-0.007290901
158	0x3d0bd83a	0.034141757
159	0x3d0a94b1	0.03383321
160	0xbdc4715d	-0.09591935
161	0x3d4c23cb	0.049838822
162	0x3dcf25b2	0.10114612
163	0x3db94090	0.090455174
164	0x3daa272b	0.08308252
165	0x3ce90d47	0.028448714
166	0x3d58a20c	0.052888915
167	0xbd9c5aeb	-0.07634529
168	0xbddcc9e3	-0.10780694
169	0x3d02d6ef	0.031943258
170	0xbdbc9bd2	-0.09209408
171	0xbd3003ab	-0.042972248
172	0xbda7fdaf	-0.08202683
173	0x3d88424b	0.066532694
174	0xba8db72c	-0.0010812036
175	0xbc3ef75a	-0.011655653
176	0x3c841e4e	0.016127732
177	0x3df311d8	0.11868638
178	0x3d9f199a	0.07768555
179	0xbd5e558d	-0.054280806
180	0x3d063f14	0.032775
181	0x3ce44646	0.02786554
182	0xbdc5d5f1	-0.09659947
183	0x3de233ce	0.11045037
184	0xbcc24b60	-0.023717582
185	0x3d718a66	0.058969878
186	0x3dbca00f	0.09210216
187	0x3d4b561d	0.04964267
188	0x3cae273f	0.021258948
189	0xbd29dbdf	-0.04146945
190	0xbcdd26ca	-0.026996035
191	0xbdd86070	-0.10565269
192	0x3d829dd6	0.06377761
193	0x3d172804	0.036903396
194	0x3c9fb4e2	0.019495431
195	0x3dcdfc47	0.10057884
196	0xbde476e6	-0.111554906
197	0x3cb79dac	0.022414051
198	0x3df81629	0.12113602
199	0xbd8d8e54	-0.069119126
200	0x3de8cd38	0.11367267
201	0x3d2cbe9e	0.042173974
202	0xbd114fe5	-0.035476584
203	0xbdea1d08	-0.114313185
204	0x3d6a2e9a	0.05717335
205	0x3d5d6be4	0.05405797
206	0x3dcc4939	0.099749036
207	0xbcee13e3	-0.029062217
208	0xbd686b91	-0.05674321
209	0x3c8a85ae	0.016909447
210	0xbd9ec05c	-0.077515334
211	0xbdb2fbc2	-0.08739425
212	0x3c7b2c00	0.015330315
213	0xbcae6715	-0.021289388
214	0xbdaa96ea	-0.08329566
215	0xbca88fa0	-0.020576298
216	0xbd5bf6fd	-0.053702343
217	0x3c81fa4a	0.015866417
218	0xbd9c0547	-0.07618194
219	0x3bfd6e94	0.007734129
220	0x3e01dc30	0.12681651
221	0x3da0c68c	0.0785037
222	0x3d82d866	0.06388931
223	0xbde600e0	-0.11230636
224	0xbd8cabbb	-0.068686925
225	0x3de5c147	0.11218505
226	0xbdcfc8d0	-0.10145724
227	0x3c3251ff	0.010883807
228	0x3dd87e4a	0.10570963
229	0xbcee57df	-0.029094635
230	0x3d3ffac5	0.04687001
231	0x3dcd9fb8	0.100402296
232	0x3da5e325	0.08099965
233	0x3dcf0103	0.10107615
234	0x3cac98d6	0.021068972
235	0x3d8f6125	0.07000951
236	0x3d85fa4c	0.06541881
237	0x3db6f521	0.089334734
238	0xbcabdaf0	-0.020978421
239	0x3c8120da	0.015762735
240	0xbdcbfe23	-0.09960582
241	0xbc3c90f8	-0.011509173
242	0x3dac0ee5	0.084012784
243	0xbddba3c8	-0.10724598
244	0xbdcefe58	-0.10107106
245	0x3dc47dcf	0.095943086
246	0xbdf26c43	-0.118370555
247	0x3b971d1e	0.0046116253
248	0x3dd0a9e2	0.101886526
249	0xbd3bad7d	-0.04581975
250	0xbc41b0d3	-0.011821943
251	0x3d97b741	0.07408
252	0xbddf801e	-0.10913108
253	0x3daf25b9	0.08552117
254	0x3d8af9f0	0.06785953
255	0xbd8569d6	-0.06514327

_func._diffusion._model.0.bias f4 [16]
0	0x3ca034d3	0.019556439
1	0x3df347cd	0.11878929
2	0xbd4aff0f	-0.04955965
3	0xbdfd22fd	-0.12360189
4	0x3dbf6480	0.09345341
5	0xbbf92b2d	-0.007604024
6	0x3d8b56ca	0.06803663
7	0x3d008e08	0.03138545
8	0xbd884d1d	-0.06655333
9	0x3dc96f1e	0.09835647
10	0x3d418824	0.047248974
11	0x3d9c6a6b	0.07637485
12	0x3cfa34a6	0.030542683
13	0xbce27548	-0.027643815
14	0xb9821970	-0.00024814485
15	0xbd7c08fb	-0.061532002

_func._diffusion._model.2.weight f4 [48, 16]
0	0x3d0c506d	0.034256388
1	0x3c2e6184	0.010643367
2	0x3dd85b4d	0.10564289
3	0xbdc00b2b	-0.0937713
4	0x3d7b8feb	0.061416548
5	0xbd2121ae	-0.03933876
6	0x3cd4a152	0.02595583
7	0x3c029685	0.007970457
8	0xbd2e09c9	-0.0424898
9	0x3d0a9432	0.033832736
10	0xbc123610	-0.008924022
11	0x3cd4863e	0.025942918
12	0x3dbb8f72	0.091582194
13	0x3bf6dd88	0.007533733
14	0x3dbb649e	0.091500506
15	0xbc4c4fc2	-0.012470188
16	0xbc63fc0c	-0.013915073
17	0xbdf9dc32	-0.12200202
18	0x3ca2e6ac	0.019885384
19	0xbdadcc23	-0.084862016
20	0xbd2d2488	-0.042271167
21	0x3c8be829	0.017078476
22	0x3df997ea	0.121871784
23	0xbc3d4331	-0.011551664
24	0xbdb66a7c	-0.08907029
25	0xbb94bda9	-0.004539211
26	0xbd946c1d	-0.072471835
27	0x3df4fe5d	0.119625784
28	0xbdaa7b91	-0.0832435
29	0xbdcd4944	-0.1002374
30	0xbd730afa	-0.05933664
31	0x3cf02b06	0.02931739
32	0xbcd3293a	-0.025776494
33	0x3de99619	0.11405582
34	0xbca104ec	-0.019655667
35	0xbd843596	-0.06455533
36	0x3d86f6d7	0.0659005
37	0x3d9f696d	0.0778378
38	0x3d7e9eb5	0.062163074
39	0xbca6eaed	-0.020375693
40	0xbcc37617	-0.02386002
41	0x3c205474	0.00978576
42	0x3d1e2bec	0.038616106
43	0xbb89f8ad	-0.0042105527
44	0x3c152287	0.00910247
45	0xbcf4674c	-0.029834412
46	0x3b9bba2e	0.004752419
47	0x3c85a8e6	0.016315889
48	0x3d8362e9	0.0641535
49	0x3d8aa750	0.067701936
50	0x3db4b8e4	0.088243276
51	0x3cb37066	0.021904182
52	0xbdb50151	-0.08838142
53	0x3dc08a6e	0.09401403
54	0xbe03d2a7	-0.12873326
55	0xbdcb796d	-0.099352695
56	0xbce12db9	-0.027487623
57	0x3d8681c7	0.06567722
58	0x3c1988c8	0.00937099
59	0xbd805bd4	-0.06267515
60	0xbd2186de	-0.03943526
61	0xbcf8c204	-0.030365951
62	0xbd4001d7	-0.046876755
63	0x3dff5509	0.12467391
64	0xbdc24db2	-0.094874755
65	0xbde6ce2b	-0.11269792
66	0x3df8774c	0.12132129
67	0xbda225f9	-0.07917399
68	0xbd78f440	-0.06077981
69	0x3d5e2fe9	0.05424491
70	0xbddd78ac	-0.10814032
71	0xbd21a245	-0.039461393
72	0x3d32ab5c	0.043620452
73	0xbddb7ebb	-0.10717531
74	0x3d9e2692	0.077222005
75	0xbde4e50b	-0.11176499
76	0xbd6eda1e	-0.05831348
77	0xbd778460	-0.060428977
78	0xbd575859	-0.05257449
79	0xbda4ec64	-0.080529004
80	0xbd38c9a3	-0.04511417
81	0xbccf1a7d	-0.025281185
82	0x3d413c72	0.047176786
83	0xbd831a8f	-0.0640155
84	0x3d0d82e1	0.034548644
85	0x3df2638e	0.11835395
86	0xbdc072db	-0.09396907
87	0x3dc8d6dc	0.09806606
88	0xbd95ee92	-0.07320894
89	0xbc25fc56	-0.010130962
90	0xbd36a07e	-0.04458665
91	0x3decc056	0.11560123
92	0x3d2bbb73	0.041926812
93	0xbcfe4f62	-0.031043712
94	0x3d57080e	0.052497916
95	0xbdaf7d7a	-0.08568855
96	0xbdbd431a	-0.09241314
97	0x3d8aebcb	0.06783255
98	0xbd93b47a	-0.072121575
99	0x3d735fe1	0.05941761
100	0x3dec11b8	0.11526817
101	0x3dc5474b	0.09632739
102	0x3d657487	0.056019332
103	0x3da296f6	0.0793895
104	0xbdea579e	-0.11442493
105	0x3d33c8a0	0.043892503
106	0xbbb27884	-0.0054464955
107	0xbd921e82	-0.07134725
108	0xbd240c27	-0.040050652
109	0x3d922f0a	0.07137878
110	0x3cf8fa21	0.030392708
111	0x3d8449c1	0.0645938
112	0xbd160785	-0.036628265
113	0x3cbfcdd3	0.023413574
114	0xbde85d2f	-0.11345898
115	0x3da6a405	0.08136753
116	0xbc6ab891	-0.014326231
117	0x3dd785eb	0.1052359
118	0xbd237db9	-0.03991482
119	0x3d228101	0.03967381
120	0xbdb57acc	-0.08861312
121	0x3d79329d	0.060839284
122	0x3dc4dc70	0.096123576
123	0x3df9e2e9	0.12201483
124	0xbd2debc8	-0.042461187
125	0xbd283dba	-0.041074492
126	0xbe033301	-0.12812425
127	0xbdddd78a	-0.108321264
128	0xbd042862	-0.032265075
129	0x3e00a10c	0.12561435
130	0xbdf107c6	-0.11769061
131	0x3d8d2259	0.06891317
132	0xbe05c1df	-0.13062237
133	0xbdb64603	-0.089000724
134	0x3dcb5c37	0.09929698
135	0x3d9b5b74	0.07585803
136	0xbd088a98	-0.0333353
137	0x3d28c555	0.041203815
138	0x3de1942e	0.11014591
139	0xbd396e49	-0.04527119
140	0x3d412038	0.047149867
141	0x3c6d896f	0.014498099
142	0xbc28550c	-0.010274183
143	0xbb2bef25	-0.002623507
144	0x3cefff95	0.029296676
145	0x3daaa2e7	0.083318524
146	0x3c40fa14	0.011778373
147	0x3e031508	0.12800992
148	0xbd547840	-0.05187249
149	0x3d9f40cd	0.07776032
150	0xbdbe318a	-0.092867926
151	0x3cdaf68c	0.02672889
152	0xbcc8cdd6	-0.024512213
153	0x3daf5674	0.085614115
154	0x3d2a46eb	0.04157154
155	0xbb23b2ba	-0.0024978356
156	0x3a5f1c74	0.0008511015
157	0xbdcc9d29	-0.099909134
158	0x3d839888	0.064255774
159	0x3dac1a6a	0.084034756
160	0xbdae84ba	-0.08521409
161	0xbdd0de04	-0.10198596
162	0x3dd6ec61	0.104943044
163	0x3ddda0db	0.10821696
164	0x3e044e51	0.129205
165	0x3d66726b	0.05626146
166	0xbcba0c7f	-0.022711037
167	0x3c687877	0.014188877
168	0x3db3162d	0.08744464
169	0xbcaa41f7	-0.020783408
170	0x3d10f8d9	0.03539357
171	0x3c90a4e3	0.01765675
172	0x3cda5778	0.026653036
173	0x3e01e5ec	0.12685364
174	0x3dee3052	0.1163031
175	0x3d542d77	0.05180117
176	0xbd157b06	-0.036494277
177	0x3c0dffa8	0.00866691
178	0xbdd2bff3	-0.10290518
179	0x3caeab20	0.021321833
180	0xbda795c2	-0.08182861
181	0x3d212150	0.03933841
182	0x3dd5b632	0.104351416
183	0xbd61ff21	-0.05517495
184	0xbd7cb459	-0.06169543
185	0x3d680a3b	0.05665038
186	0xbdd546dd	-0.10413907
187	0x3dee7762	0.11643864
188	0xbcd630b9	-0.02614628
189	0xbde43adb	-0.11144038
190	0x3cc5a67d	0.02412724
191	0xbd487ba2	-0.04894603
192	0xbdada400	-0.08478546
193	0xbd06dff9	-0.03292844
194	0x3e007ae6	0.12546882
195	0x3daa93c8	0.08328968
196	0xbcfb782a	-0.030696947
197	0xbba189f8	-0.0049297772
198	0x3dbf78aa	0.09349187
199	0xbd8cf6fe	-0.068830475
200	0x3dedcbce	0.11611138
201	0xbb9689d9	-0.0045940694
202	0x3a9fcc1e	0.0012191569
203	0x3c3b6954	0.011438686
204	0xbdd2457c	-0.10267159
205	0xbddd1c05	-0.1079636
206	0xbd29f167	-0.041489985
207	0xbc4c525b	-0.012470807
208	0x3c9e3133	0.01931057
209	0xbd36bf32	-0.04461593
210	0x3d9bfda2	0.07616736
211	0x3d9b08d8	0.07570046
212	0xbd2fbd65	-0.04290523
213	0x3bda0d2b	0.006654402
214	0x3c4693c4	0.012120191
215	0xbbcbecf3	-0.006223315
216	0x3dbd613c	0.092470616
217	0xbd341bb4	-0.043971732
218	0xbd76eccf	-0.060284432
219	0x3d89c12b	0.06726297
220	0x3c66ac80	0.014079213
221	0xbd2e4b91	-0.042552534
222	0x3d43ad01	0.04777241
223	0x3d578bf5	0.052623708
224	0xbd83c7ad	-0.064345695
225	0xbdc235b8	-0.09482902
226	0xbd3a9608	-0.045553237
227	0x3da6254a	0.08112581
228	0x3dc89608	0.09794241
229	0x3da6fc98	0.08153647
230	0xbcc3ef17	-0.023917718
231	0x3db86972	0.09004487
232	0xbd9bf6f3	-0.07615461
233	0xbd88922f	-0.06668507
234	0x3ba95970	0.0051681325
235	0xbd29d35b	-0.04146133
236	0x3d82b0ae	0.06381355
237	0x3de809f2	0.11330022
238	0x3dce10f1	0.10061825
239	0xbdeb5d3a	-0.11492391
240	0xbdad59b7	-0.084643774
241	0xbabe57f0	-0.0014522057
242	0xbcade9c4	-0.021229632
243	0xbd333f08	-0.043761283
244	0xbd10c252	-0.03534157
245	0x3d48e962	0.049050696
246	0xbd48e848	-0.049049646
247	0xbd6e7f78	-0.058227032
248	0xbd05b39a	-0.032641985
249	0xbd4aa5a8	-0.04947439
250	0x3da87a2b	0.08226427
251	0x3dd5a1c1	0.10431243
252	0x3ba4a0e3	0.005024062
253	0xbdf174ab	-0.11789831
254	0xbcc3db09	-0.023908155
255	0x3d91b94a	0.07115419

_func._diffusion._model.2.bias f4 [48]
0	0x3d22bbd8	0.039729923
1	0x3db30145	0.087404765
2	0xbd2a03e5	-0.04150762
3	0x3c1494b6	0.009068659
4	0xbd83b418	-0.064308345
5	0xbdd05ddc	-0.10174152
6	0x3c70f3cf	0.014706566
7	0xbd41653c	-0.047215685
8	0x3dc39cce	0.095513925
9	0x3da7cfcf	0.08193933
10	0xbba569e0	-0.0050480217
11	0x3d3b0c08	0.04566577
12	0xbdf485da	-0.11939593
13	0xbd61b431	-0.055103485
14	0x3d5991ea	0.05311767
15	0xbd9bd748	-0.07609421
16	0xbe0b94d2	-0.13630989
17	0xbd775452	-0.06038315
18	0xbc83af42	-0.01607478
19	0xbc150d90	-0.009097472
20	0x3d8d5ab3	0.06902065
21	0xbdfb1b9e	-0.12261127
22	0xbdc61ea6	-0.096738145
23	0x3dc8871f	0.09791397
24	0xbd87782d	-0.066147186
25	0xbd7960cc	-0.06088333
26	0xbd8ec734	-0.06971589
27	0x3aa0cd9f	0.0012268311
28	0x3c8d7e4a	0.017272133
29	0xbd42a68d	-0.047522116
30	0xbd4344f1	-0.04767317
31	0xbdb547e7	-0.08851605
32	0x3dc3019b	0.095217906
33	0xbd239dcc	-0.03994541
34	0x3d0ac793	0.033881735
35	0xbca295d2	-0.01984683
36	0xbd62881b	-0.05530558
37	0xbb39673e	-0.0028290297
38	0xbdd24d96	-0.102687046
39	0xbd3ef333	-0.04661865
40	0xbdd2136a	-0.10257609
41	0xbda6d85e	-0.081467375
42	0x3d37195d	0.044701923
43	0x3d9d53de	0.07682012
44	0x3c7e5b06	0.015524631
45	0x3d74e274	0.059786275
46	0xbddbf9d1	-0.10741008
47	0xbdc27cfe	-0.094964966

_readout.weight f4 [1, 16]
0	0x3e5d5152	0.21613052
1	0xbe4c4a24	-0.19950157
2	0xbe5e05f7	-0.21681963
3	0xbe395f14	-0.18102676
4	0xbe54e509	-0.20790495
5	0xbda73247	-0.081638865
6	0x3de6d400	0.112709045
7	0xbc8dbf64	-0.017303176
8	0x3d6b93e5	0.05751409
9	0x3d14ceb3	0.036329936
10	0x3b164a7b	0.0022932577
11	0xbde135f0	-0.10996616
12	0xbe45fb90	-0.19334245
13	0xbd7aa330	-0.061190784
14	0x3d6c2372	0.05765099
15	0x3d7ae7c3	0.06125618
