model_saves/generator_backprop.pth (torch, 13547 bytes, 13 tensors)

_initial._model.0.weight f4 [16, 5]
00000000: e52d cabe 3035 9abf ea63 88be e017 08bf
00000010: ebe6 e93e 4e2b 7fbd d412 8fbe fa6d 43bf
00000020: 678d 723f 65fb 27bf d914 2a3f 20d8 eabe
00000030: 2406 18bf a2f0 353e 29c6 9cbd fcaf 98bd
00000040: c116 8e3e 1459 f83c 79fd 163f d7b7 d0be
00000050: c2aa 093f 927f 9d3f ae1a a33f a192 2fbf
00000060: b4a2 78be 3bf9 f13c d891 2cbf 9c6e 4a3f
00000070: 6871 84bf 170e d7be 332d 843f 6bfc 313d
00000080: 9515 36bf b356 8d3e 68fb f5bd 0aba 24bf
00000090: ee1b 0fbf ef4b a53f 9292 e33d 8f8c 733f
000000a0: f7f9 efbd 61d2 2bbf 8797 7a3d 4cad a8bf
000000b0: bbd9 03bf 0239 49bf bc84 673f 11f6 a13d
000000c0: 4974 9b3f 7c5e 793f 2a6b 963f a7f2 713f
000000d0: 3f5f 6cbd d14b 8f3f 8e51 d83e 2f27 6f3f
000000e0: 8d6f e8bd 6a8b 6a3f 2252 e4bd 61cc a83f
000000f0: 9998 423f c531 2cbe 6085 b63e 2c9a 94bf
00000100: cfac 3b3f 183b 473f 3a6d 8e3f c7c3 243f
00000110: 2743 283f 0712 d8be efbc 94bf 3068 7e3f
00000120: 1a5e 24bf 220a 503f 8687 033c 7195 ee3e
00000130: ed07 27bf f20e 7a3e 7a74 813f ffd7 27bf
-0.3948814 -1.2047482 -0.26638728 -0.5316143 0.4568399 -0.062297158 -0.27944052 -0.76339686
0.9474701 -0.6561797 0.6643806 -0.45868015 -0.5938437 0.17767575 -0.076549836 -0.07455441
0.27751735 0.030315913 0.5898052 -0.4076526 0.5377618 1.2304556 1.2742517 -0.6858311
-0.24280816 0.029537788 -0.6741004 0.79075027 -1.0347109 -0.42002937 1.0326294 0.043453615
-0.7112668 0.2760521 -0.120108426 -0.64346373 -0.5590199 1.2913798 0.111119404 0.9513635
-0.11717599 -0.6711789 0.061179664 -1.3177886 -0.51504105 -0.7860261 0.9043691 0.079082616
1.2144862 0.97409797 1.1751454 0.94510883 -0.05770802 1.1195012 0.4224972 0.93419164
-0.113494016 0.9161898 -0.11148478 1.3187371 0.76014096 -0.1681586 0.35648632 -1.160955
0.7331056 0.77824545 1.1127083 0.6436123 0.65727466 -0.42201254 -1.1620158 0.9937773
-0.6420609 0.8126546 0.008027917 0.4659839 -0.6524647 0.24419764 1.0113671 -0.6556396

_initial._model.0.bias f4 [16]
00000000: 6443 de3e 0c4f 17bf 9f57 91bf c9f1 a13f
00000010: c186 a6bd 4e86 f9bd 8b53 e63e e9ed 0fbe
00000020: 7696 3e3f f8fb 05bf 80e7 893f 91fb 913e
00000030: 560b 75bf f950 50bf 8b5b 8f3f 4b83 ab3c
0.4341079 -0.5910499 -1.1354865 1.2651912 -0.08131171 -0.1218382 0.44985613 -0.140556
0.74448335 -0.523376 1.0773773 0.28512242 -0.9572042 -0.81373554 1.1199812 0.020936629

_initial._model.2.weight f4 [16, 16]
00000000: b860 333f 93d9 2a3d 0778 483e 17b2 ef3e
00000010: 11b4 683e 5be7 0fbf ac90 1d3f c664 be3e
00000020: 147f fe3e 6a28 81be 1ea6 42be 2a98 f5be
00000030: 6de1 7e3e 4962 15bf fa66 0ebf 785b 69bb
00000040: 9a17 883e 5f03 b53d 8ff5 fe3e 4344 b9bd
00000050: 85a0 1a3f 8cb7 a1be d02c 73bd 73ce b73e
00000060: ae96 1a3f c8e0 793d c751 59bb aeea 3abf
00000070: 7ada 553e 33f5 d03e af2a 903d 7f64 a93d
00000080: 2a33 d4bd 8877 c9be e48f dbbe 4790 783e
00000090: de79 1abf b975 ad3e b714 2fbf 793c 2c3f
000000a0: f82d 18be 91c7 c8be 6419 2ebf 6d2c 9ebe
000000b0: e3f6 acbe ed9f f33d cbe8 693e 2314 1e3f
000000c0: ed1b 8c3e d80a 26bf 71ab 183f e774 dbbe
000000d0: 3724 0cbe dd0b a23e 0349 863e 8a79 413e
000000e0: 5d85 bb3e 280d e9be 40a0 943e c219 0fbf
000000f0: 37fd c93e 5c35 2d3d 0d56 f3be 2d52 0bbf
00000100: b13d 013f c9df dc3e ea89 303e 73c9 86be
00000110: cfa2 2a3f 7e19 d83e c1ec 28bf 27ee 533e
00000120: ac0b e7be 1dfc 393e 5e78 d33e 4340 afbb
00000130: be0d dbbe 51d4 9b3e 18f0 d8be 287f 02bf
00000140: 99ab 8a3e b126 0b3f 0bf6 25be 0137 883d
00000150: 9734 dcbe dd0a 38bd a273 213f 5543 d83e
00000160: 1e61 173f 586b f73e 1699 893e 3f67 a53d
00000170: f52d 19bf adf6 f3be 2150 e9be 4350 2fbe
00000180: b52b 4f3c 7c0d eb3e e826 833e 1f86 413f
00000190: 3b9c c63e a756 d6be ac61 23bf 50ac c3bd
000001a0: d30e 03bf 22f7 063e 2eed 21bf 7448 a13d
000001b0: 65a9 3a3f 8234 a73d ec43 853e 1d82 8ebe
000001c0: de21 8a3e 40aa 14bf 0ee9 3ebe 637a 103d
000001d0: b48b 033f eb30 113e 8b1c edbe dee3 ed3d
000001e0: 76d4 83be 5136 773e 2787 203e bc65 7b3e
000001f0: d056 fc3e 007d dfbe c97d 123f d11f c3be
00000200: 4a9d 003f 2a47 c9be 3d4b 5c3e 5b30 3fbf
00000210: c85c 443e 7260 f03e 0657 863e ada4 de3d
00000220: fc50 f13e a658 98be c15d 1ebe 0ead bd3c
00000230: 44ea 2b3e 0981 c83d b7f4 22bf 2f0e 20be
00000240: 0ec5 f9be fb0c b23d d5b1 643e 62e1 123f
00000250: e4ef c8bd 076e b1bd 583c c9bd fc9c 1fbf
00000260: 7df2 193f 0f3c 06bf 96d7 0f3f 532d d53d
00000270: bdbd 39bf 1a51 6bbe d034 a7bd 499d ed3e
00000280: c51e 383e 96f6 dcbd 7038 083f e3df c6be
00000290: e357 c63d 62c9 e6be 47a8 1cbf e251 c53e
000002a0: a6a8 e6be 3c1e 39bf 3045 9ebd 506d a43e
000002b0: ec9e 9b3e dea2 dbbe 10d4 32bf d7f4 2ebe
000002c0: a506 543d b2ab 09bf a389 ca3e 2449 eb3d
000002d0: 0e4d b03e 1fe2 233f 821b 80be e3e6 57be
000002e0: bc42 05bf 1f6d 353e f42e 113f 6b49 30bf
000002f0: 886b 243e 7a56 1dbf 9a93 1bbf bced 8e3e
00000300: 23da f73e 0466 1d3f ee93 c23e b5e2 243f
00000310: eea4 c0be 2c09 e8be e576 c4bd c4e1 b2be
00000320: 594e 0f3e 7608 3b3f 7485 9f3e 84cd cb3e
00000330: eb27 973d f4b6 60be bc2c 743e 3fe8 0bbe
00000340: 834e 00bf eb1b 23bf 0483 11bf efa3 003d
00000350: 1931 183f 58ef 393f 40b2 28bf 4c50 fd3e
00000360: 0356 40bf a0e0 103f b9ef e6be 50fd 133e
00000370: f7b4 b2be aea1 7b3e 6aa0 2dbd 06ba 05bf
00000380: 3625 3abf a936 cdbe 094f 08bf 7e88 4cbe
00000390: b814 113f d9c8 b63d 9f36 013f 6ca8 773d
000003a0: 823c b7be d525 2a3e 01f8 a6bd 20c8 a0be
000003b0: 04a9 36bf bd98 88be 115d 59bd 6560 9f3e
000003c0: 1979 86be 6379 f43e 2b9a 253e d77e 8abe
000003d0: e580 113f 1f8e 893e 6bf9 2d3f 28d5 9e3d
000003e0: d361 3a3f 9819 473e 1d63 ae3e 23b5 113f
000003f0: 702a ac3d 6abc 1a3f 994a 0fbf 07fb 153f
0.70069456 0.0417114 0.19577037 0.4681556 0.2272494 -0.56212395 0.61548877 0.3718626
0.49706328 -0.25226146 -0.19008681 -0.47967654 0.2489068 -0.58353096 -0.5562588 -0.0035607498
0.26580507 0.088385336 0.4979672 -0.09046223 0.60401183 -0.31585348 -0.05936891 0.35899696
0.6038617 0.061005384 -0.0033160315 -0.7301434 0.20884123 0.40812072 0.07039391 0.08271121
-0.10361321 -0.39349008 -0.42883217 0.24273787 -0.60342205 0.33878878 -0.68390983 0.67279774
-0.14861286 -0.39214757 -0.68007493 -0.3089327 -0.3378211 0.11895738 0.2284271 0.61749476
0.27365056 -0.64860296 0.596366 -0.42862627 -0.1368569 0.31649676 0.2622758 0.1889402
0.36625186 -0.4551785 0.2902851 -0.5589868 0.39451 0.042287216 -0.4752659 -0.54422265
0.5048476 0.43139485 0.1724011 -0.2632557 0.66654676 0.4220695 -0.6598626 0.20696317
-0.45126092 0.1816258 0.4130277 -0.0053482368 -0.42783922 0.30435422 -0.42370677 -0.50975275
0.27084044 0.54355913 -0.16207139 0.06651116 -0.43008873 -0.044932235 0.63067067 0.4223887
0.59132564 0.48324084 0.26874608 0.08076333 -0.5983575 -0.47649136 -0.45568946 -0.17120461
0.012644698 0.45908725 0.2561562 0.7559528 0.3879107 -0.41862985 -0.6382091 -0.095543504
-0.51194495 0.13180211 -0.6325253 0.078751475 0.72914726 0.08164312 0.26028383 -0.27833644
0.26978964 -0.5807228 -0.18643591 0.035272967 0.51385045 0.14178817 -0.4631084 0.11615728
-0.25748032 0.24141814 0.15676557 0.24550527 0.49284983 -0.43650055 0.5722318 -0.38110211
0.50240004 -0.39312106 0.21513076 -0.7468316 0.19176018 0.46948582 0.2623827 0.10871253
0.471321 -0.29755133 -0.15465452 0.023153808 0.16788584 0.097902365 -0.63654655 -0.1563041
-0.48783153 0.08693882 0.22333463 0.57375157 -0.098113805 -0.08663564 -0.09825963 -0.62348914
0.6013563 -0.5243539 0.56188333 0.104090355 -0.7255514 -0.22980157 -0.0816437 0.46409062
0.17980488 -0.1078922 0.53211117 -0.38842687 0.09684732 -0.45075518 -0.6119427 0.38539034
-0.45050544 -0.7231176 -0.0772804 0.3211465 0.30394685 -0.42897695 -0.6985483 -0.17085586
0.05176415 -0.5377761 0.39558133 0.1148856 0.34433788 0.6401691 -0.25020987 -0.2108417
-0.52054954 0.17717408 0.5671227 -0.68862027 0.16056645 -0.6146008 -0.607721 0.27915752
0.48408613 0.6148379 0.38003486 0.6440843 -0.3762583 -0.45319498 -0.0959299 -0.3493787
0.13994731 0.73059785 0.31156504 0.39805233 0.073806606 -0.21944791 0.2384519 -0.13662814
-0.501198 -0.63714474 -0.5684054 0.03140634 0.5944992 0.72630835 -0.6589699 0.49475324
-0.75131243 0.5659275 -0.4510477 0.144521 -0.3490369 0.24573395 -0.04238931 -0.52236974
-0.7271303 -0.40080765 -0.532456 -0.19973943 0.5667224 0.089250274 0.5047397 0.060463354
-0.3578835 0.16615994 -0.08152772 -0.31402683 -0.7135165 -0.2667903 -0.05306727 0.3112823
-0.26264265 0.4774886 0.16172092 -0.27049896 0.568373 0.26866242 0.67958707 0.077555
0.7280552 0.19443357 0.34059992 0.5691702 0.08406532 0.6044375 -0.559732 0.5858616

_initial._model.2.bias f4 [16]
00000000: e184 08bf 5b62 1bbf 7a57 9e3e be21 02be
00000010: c17a ec3e 2215 7abe bb66 42bb 3d3a 32bf
00000020: 97de b0be 85a7 62be 2b5c 243f b52d 173f
00000030: af80 87be cf64 5ebe 9286 ea3e ee8b 363f
-0.5332776 -0.60696954 0.30926114 -0.12708184 0.46187404 -0.24422124 -0.0029663283 -0.69620115
-0.34544823 -0.22134216 0.6420314 0.5905412 -0.26465365 -0.21718143 0.45805794 0.71307266

_func._drift._model.0.weight f4 [16, 17]
00000000: f890 22be fa2c c73c 2358 673d bcdd 9a3c
00000010: 294d c9bc 5725 893d 4866 b63d 862a b2bd
00000020: 4819 72bc a19b b5bc 6e43 32bd e31d f5bd
00000030: cc43 bdbd 5a52 3ebd de68 e2bd fde4 d03c
00000040: 61ef 863d 3761 873d fb7e 083d 98d5 79bc
00000050: 02d6 54bd f37d 5fbd fb04 b43d ab45 30bd
00000060: b091 cb3d 69d9 b53d 092f 9bbd 3713 45bc
00000070: f8e1 d83d 509c 7d3d b396 79bc 5e6b afbd
00000080: c241 893d bd5e 723c 09dd ba3d cb06 a53d
00000090: 4629 963d fe1f 7e3d 4c02 163d 57a5 b53d
000000a0: 943b 3e3d c8e9 943d 51de e33d cc39 f83d
000000b0: 69a2 bdbd 7e54 903d 0253 afbd 7a87 943c
000000c0: 0dde c63d f1d9 813c 2683 a03d c814 16bd
000000d0: c387 8e3d 7265 a1bd 7558 b3bd 1331 363d
000000e0: f36c d53d 2050 85bd 5874 043e 6e20 eebd
000000f0: b234 c4bd 43d5 fcbd 9123 eabd 85a4 2eba
00000100: 12b8 ad3d 8a76 1bbd 83cc 0c3e 9d2b 57bd
00000110: 7b56 d6bd cf89 97bd 177e cfbd 23f3 bdbd
00000120: 1c78 d23d 8605 e83d eff3 babd fdcc c7bd
00000130: 3c81 ff3b 0c94 3a3c 588d 98bd 65f7 c13c
00000140: 1954 38bd eea2 f7bb 1413 663b f9b2 aebd
00000150: 25c4 c63d a7c7 ba3d 0071 c83d bbb6 10bd
00000160: 9bde a93d 098c df3d 3e43 e4bc 6e02 ff3d
00000170: 449e 483d aa08 19bd baee 8d3b 312e 4dbd
00000180: 8f7f b9bd ff64 01bd 579c 003e 7cbb 273d
00000190: 091b 20bd f6fc 973c 8411 fabd 271a 893d
000001a0: a879 50bc 47cb 4dbd 78da a6bd d633 a13d
000001b0: c12e b43d aec4 6cbd c5ba 9d3d 8a3e dfbd
000001c0: 44a3 033d 37c0 d03d 7a21 db3d 0422 fcbd
000001d0: 7544 bb3d f06d 04bd 7ec5 f33d 67cd da3d
000001e0: dd24 f53d 3d43 eebc 0c6a a1bd 9df7 01be
000001f0: f37b aabd 850c 20bd ea3e 62bb 4de2 44bd
00000200: f83b b63d b1e8 a23d 814d dbbd be6b b63d
00000210: 6424 e13c 2784 f3bd 148a 9a3d 52ed bebd
00000220: 5354 713d 1f24 be3d f2d1 c13c b208 a23c
00000230: 5e23 85bd 3c89 243d 093e ee3d 6c76 22bd
00000240: 9636 073d 067d ee3c ea03 be3d aee2 eabd
00000250: 9951 9fbd a1b0 7139 a7dc a7bd a53a 4cbd
00000260: a826 4c3e 0653 fdbc e6a9 95bd 8dd4 07bc
00000270: 14a4 313c f1d2 a2bc e572 143d 6a18 793c
00000280: 8ec5 0b3d abea c6bd d079 943b ea6c 8bbd
00000290: 29de 69bc 163b 4fbd b7f0 863d 41d3 45bd
000002a0: 4953 48bd c9d8 ca3d 0d22 d73d d104 a93b
000002b0: c180 e5bd e367 debd f803 fdbd cdc5 f0bd
000002c0: 45e2 efbd fa04 09bd b994 523d 8f87 34bc
000002d0: 39fd d23d 9c0c 753c 1196 dabc 9b37 bb3c
000002e0: bf3d 1dbd c812 e63b beec c93d 6d4c f0bd
000002f0: 6a74 ed3d 68eb 8ebd 152a c13c 7f13 903d
00000300: 1f96 5ebd 95da 423d b59a c03c 46ab 9c3d
00000310: 6c3e 18bd b410 a3bd 0639 653c 8868 a6bd
00000320: 3608 a23c 21c2 79bc 5289 b63d d49c c93d
00000330: ecf1 39bd 487a e8bd af00 00be 867c ddbd
00000340: ec08 72bb feca e2bd 30fa 7bbd 9c8f f43d
00000350: ba12 4abd 9d26 033c 03e6 58bd 99c3 cc3d
00000360: 522f 26bd 2bbc 90bd 5e6a 083e 73f8 74bd
00000370: 5d28 793c 792d 1f3d 6793 a63c c470 88bd
00000380: 2004 943d 964f 23bd 10e0 ba3d 219e 203c
00000390: c556 24bc e453 f1bd ad0b e43d a8ab b0bd
000003a0: a514 d4bc 5fcc 003d cce0 623d 9ce9 963d
000003b0: 0461 b7bd ccf1 c93d 6418 b43c fc47 a1bd
000003c0: 0f3d bebd e967 4ebc 2d05 7fbd fa62 86bd
000003d0: 4564 e83b abca 57bd a325 98bd d194 8bbd
000003e0: 2aec bbbd 5379 b4ba f0c7 2fbd 8031 8abd
000003f0: 6314 5dbd 63fc bd3d 1745 5c3c 408b e23d
-0.15875614 0.024313439 0.056480538 0.01890456 -0.024572926 0.06696575 0.08906227 -0.08699517
-0.014776535 -0.022168936 -0.043521337 -0.11968591 -0.09241447 -0.046465255 -0.11055158 0.025499815
0.06588627 0.06610339 0.033324223 -0.015248679 -0.051961906 -0.054563474 0.087900124 -0.04303519
0.09939897 0.08879358 -0.075773306 -0.012028507 0.10589975 0.06191665 -0.015233683 -0.085654005
0.067019954 0.014793095 0.0912419 0.08057936 0.07332091 0.06204223 0.036623284 0.08869427
0.046443537 0.07271153 0.11126388 0.12120399 -0.09259493 0.070473656 -0.08560754 0.018131007
0.097103216 0.015850993 0.078375146 -0.036640912 0.06959488 -0.07880677 -0.08757106 0.044480395
0.10421171 -0.06509423 0.12935007 -0.11627279 -0.09580363 -0.12345364 -0.11432565 -0.00066620886
0.08482374 -0.037954845 0.1374989 -0.052531827 -0.104657136 -0.07399332 -0.101314716 -0.0927489
0.10276815 0.113291785 -0.09128558 -0.09755895 0.0077973884 0.011387836 -0.07448834 0.023677537
-0.045002077 -0.0075572645 0.0035106586 -0.0853023 0.0970538 0.09120112 0.09787178 -0.035330515
0.08294412 0.109153815 -0.027864095 0.12451635 0.04897906 -0.03736178 0.004331437 -0.05009288
-0.09057533 -0.031590458 0.12559639 0.040950283 -0.039088283 0.018553238 -0.12210372 0.06694441
-0.012724318 -0.05024269 -0.08147138 0.07871215 0.0879798 -0.057804756 0.07701639 -0.109006
0.032138124 0.10192912 0.106997445 -0.123111755 0.091439165 -0.032331407 0.11902903 0.10683709
0.11969922 -0.029084796 -0.07881555 -0.12692113 -0.08324423 -0.03907444 -0.0034522363 -0.04806738
0.08898157 0.079545386 -0.10708142 0.08907269 0.027483173 -0.118904404 0.075458676 -0.09322609
0.05891831 0.09284233 0.02365968 0.019779537 -0.065008864 0.04016994 0.11632926 -0.039663717
0.03301104 0.02911235 0.0927809 -0.11469017 -0.077792354 0.0002304935 -0.08196383 -0.049860615
0.19936621 -0.030923378 -0.07307796 -0.008290422 0.010842342 -0.019875975 0.036242384 0.015203575
0.03412395 -0.09712728 0.0045311227 -0.06807883 -0.0142741585 -0.050593458 0.065888815 -0.04829717
-0.048907552 0.0990463 0.105045415 0.005158045 -0.112061985 -0.108596586 -0.123542726 -0.117564775
-0.11713079 -0.03345201 0.051411364 -0.011018648 0.10302205 0.01495662 -0.026682885 0.022853663
-0.038388964 0.007021282 0.09859608 -0.11733327 0.1159447 -0.06978494 0.023579637 0.070349686
-0.054342385 0.047571737 0.02351127 0.07649855 -0.037168905 -0.0796217 0.013990646 -0.081254065
0.019779306 -0.015244038 0.089129105 0.09844366 -0.04539673 -0.11351448 -0.12500261 -0.108147666
-0.0036931587 -0.11073874 -0.061517894 0.11941454 -0.049334265 0.008004812 -0.05295373 0.09998245
-0.040572472 -0.0706714 0.13321826 -0.059807252 0.015207377 0.038861725 0.020333959 -0.06662133
0.07227349 -0.03987082 0.09124768 0.009803326 -0.010030453 -0.11783579 0.111350395 -0.08626491
-0.02588875 0.031444903 0.055390164 0.07368776 -0.08954051 0.09860572 0.021984287 -0.07875058
-0.0928899 -0.012598016 -0.062260795 -0.06561847 0.007092031 -0.052683514 -0.07429054 -0.06815494
-0.09175904 -0.0013769068 -0.042915285 -0.067477226 -0.05397452 0.092766546 0.013444207 0.11061716

_func._drift._model.0.bias f4 [16]
00000000: f353 9d3d fb2b c7bd 86e6 f8bd 0412 a7bd
00000010: f69a 11bd a2af cebc 8574 f63c 0052 cbbd
00000020: 1cd7 5c3d e854 47bd 50bf 8ebd ee03 c1bd
00000030: bbd3 e9bc 4361 1abe 85c1 f53c bc07 c83d
0.07682028 -0.097251855 -0.12153344 -0.08157733 -0.035548173 -0.025230233 0.030084858 -0.0992775
0.05391608 -0.048664957 -0.06970084 -0.09424578 -0.028543344 -0.15076165 0.029999504 0.097671

_func._drift._model.2.weight f4 [16, 16]
00000000: def1 f5bd b057 003e 44f3 8f3d e551 cf3d
00000010: 804d 843d 6453 2cbd 8f13 bfbd 6080 50bd
00000020: 5049 2c3d 8d19 06be a309 e8bd 1b10 b2bd
00000030: 44fe a13d 1277 afbd 10da 5f3d 2170 07bd
00000040: 259c c4bc 49dc b53d 4cfb afbd 852c 143d
00000050: 7240 383c 4831 d3bd 3f5b 18bd 702b c3bd
00000060: c6bf 74bd 56cc 7cbd 01db a5bd adcf cf3c
00000070: 7c64 4dbd e51c d63d 570c 9c3d 0574 80bd
00000080: 2d2c 203e 90fd 9dbb 4b97 ad3d 1faf 0ebe
00000090: 5d99 b63b 6dd2 603c 5609 a33d 13ac c6bd
000000a0: 21d2 91bd 678b 17bd 7dd4 3abc 6dac 293d
000000b0: 8a8d 2e3d de2d d43d 264a 9c3d ab3f cfbd
000000c0: fe89 b13b 554e a6bd 25c5 803d 157c 31be
000000d0: baa0 6e3d c331 b33c f22a 873a e0c0 053d
000000e0: 96b2 f4bd d2ad 223e d462 00be f733 843d
000000f0: 587a d9bc 4bd0 d03d ea61 113d eaea 33ba
00000100: 257a 14bd 4917 daba 5edd c3bd ef42 cc39
00000110: 640b a0bd 3d27 cbbd 79ab d73d b4a7 9c3d
00000120: 0bba 9ebd 9606 ee3d b4db 8c3d 8cdc c0bd
00000130: e7cd e93d cfb6 bebd 191c ffbd 0d08 f1ba
00000140: e810 b83d 762b d03d 90f0 583d bdd5 9a3d
00000150: cb9a 123d 5c91 f6bd e7ff e13d f684 dabc
00000160: 99cc e9bd 9ead 0c3d 6e01 45bd 5997 a4bd
00000170: 76e0 e6bc f933 fa3c f0aa b0bd f3fb 863c
00000180: e73f ddbc 71f1 3c3d 54b5 b9bd e941 9abd
00000190: 8d23 0d3d f9fd 963d ef21 22bd 0fe4 f53d
000001a0: a856 ff3d f711 883b 69eb d43d 43c9 a63d
000001b0: 933c 1c3d 2b86 bbbc 65d7 073e d796 353d
000001c0: 40f2 95bd 1013 0bbe 99dc b33c e62b dfbd
000001d0: e15b d33d 3128 333d 5bc2 263a 7947 e3bd
000001e0: fd38 93bb cd13 543d 67cb 3abd 9f1e 293d
000001f0: 8110 a23b 0e45 6fbd 79f5 ecbc 33e5 d93d
00000200: d813 7e3d c7ec b4bc 6cd7 343d a81b b73d
00000210: 3494 5ebd 8ffa 7cbd eb07 d9bd 46e6 7abd
00000220: 699f d8bc df46 b8bd cdba f6bd 8066 373d
00000230: e686 cdbc 24b5 ce3c 8614 d9bc 73ed 04bc
00000240: 15ac 8abd e4ae 4fbd ff0c d33d 483f b9bd
00000250: aa58 8c3d aaec 2dbd 2cb7 f2bd f3dc 8abd
00000260: 81d2 f53d 1570 4e3d ece3 f43d 8df8 b2bc
00000270: 7094 75bd ccf3 2f3c c5aa e0bd 0c98 e1bd
00000280: c518 8b3d 74e9 04be 3080 0d3d 17de f03d
00000290: ba82 7c3d b0b6 c6bd 1c0d d43d d2f1 c8bb
000002a0: c66a b7bd 9f33 aeba 3f4f a7bd 9d4a d73d
000002b0: c0be c2bc d50d 5b3d a400 ee3d ef35 a53d
000002c0: db3e 163e edaa 17bd cbdb 17bd ca36 ab3c
000002d0: 5c2e c5bd e9dd af3d 8348 50bd a8c7 e33d
000002e0: d00f 26bc 6dc8 a4bc aff1 dc3d b4ce 15bd
000002f0: 9f56 a6bc d22d 1bbd cfcc ca3d f739 5b3b
00000300: affa 243d 3a78 bc3d 5f10 963d f38d 97bd
00000310: 98a4 b23d 5ebd c5bd e95f 91bc 6353 b63d
00000320: 7132 6c3d a527 073e b3b0 ad3b cb48 adbc
00000330: eca7 3d3c e5f7 cabd 0308 1d3d c9d8 81bd
00000340: c3ed 1d3e 2c66 203d 74e8 89bd 7890 3a3c
00000350: 343c b43d 34b5 093d c704 01bd f135 8c3d
00000360: 79b9 6ebd 9e88 aabd 1787 7abd a2af babc
00000370: 17fc 61bd 17b4 bf3d a3f1 11bc 27ea a33d
00000380: d25f 30bc 4a78 0a3e bf32 9dbd 85dc ac3c
00000390: 63e8 a33c d67a cbbc f72a 483d 3036 ed3d
000003a0: abc6 f93b 2734 573d 533a c13d 4c68 14be
000003b0: 0831 e3bc 7bd1 4f3d 6df0 c3bc 3a75 a3bd
000003c0: 2933 f5bc 110d f1bd d4c8 90bc 5f19 1d3d
000003d0: c20f 0cbe 1e04 c0bc e184 b5bd 99d4 52bd
000003e0: e15c b23d 174a 743d 6936 94bb 593d 0fbd
000003f0: 7866 abbd a2c9 e1bd 8531 59bc d3b2 6d3d
-0.12009023 0.1253345 0.07028821 0.10123042 0.064600945 -0.042071715 -0.093299024 -0.050903678
0.042062104 -0.13095684 -0.11329963 -0.08694478 0.079098254 -0.08567633 0.05465132 -0.03306592
-0.024000237 0.08879907 -0.08592853 0.03617527 0.011245834 -0.10312134 -0.037196394 -0.095297694
-0.059753202 -0.061718307 -0.08098412 0.025367582 -0.050144657 0.1045473 0.07619541 -0.06272129
0.15641852 -0.004821487 0.084761225 -0.13933991 0.0055724815 0.013722044 0.07960765 -0.09700789
-0.07120157 -0.03699818 -0.0114032 0.041424204 0.04261545 0.10360311 0.0763133 -0.101195656
0.0054180613 -0.081204094 0.06287602 -0.1733249 0.05825875 0.021874314 0.0010312481 0.032654643
-0.11948125 0.1588662 -0.125377 0.06455224 -0.026547596 0.10195979 0.03549377 -0.0006863313
-0.0362493 -0.001663902 -0.09563707 0.00038959782 -0.078146726 -0.099195935 0.10530753 0.07649174
-0.07750329 0.1162235 0.068778425 -0.09417066 0.11416226 -0.09312212 -0.12456531 -0.001838924
0.089875996 0.101645395 0.052963793 0.075602986 0.035792153 -0.12039444 0.110351376 -0.026674729
-0.11415977 0.03434526 -0.048097067 -0.0803668 -0.028183203 0.03054236 -0.08626354 0.01647756
-0.02700801 0.046128694 -0.09067789 -0.075321026 0.034457732 0.0737266 -0.039583143 0.12006389
0.124677 0.004152532 0.103964634 0.081438564 0.038143706 -0.022891125 0.1326576 0.044333305
-0.07321596 -0.1358149 0.021955775 -0.10897045 0.10320259 0.0437395 0.00063613587 -0.11097617
-0.0044928775 0.051776696 -0.045604136 0.04128897 0.004945815 -0.058415465 -0.028925644 0.106394194
0.062030643 -0.02208556 0.044150755 0.08940822 -0.054340556 -0.06176239 -0.10597213 -0.061254762
-0.0264432 -0.089978926 -0.12047348 0.044775486 -0.025088739 0.025232859 -0.026499044 -0.008113253
-0.06771103 -0.050703898 0.10305213 -0.09045273 0.06852849 -0.04246203 -0.118513435 -0.06780424
0.12003041 0.05039986 0.11957535 -0.021847034 -0.059956014 0.010739278 -0.10970072 -0.11015329
0.06791834 -0.1297968 0.034546077 0.1176111 0.061648108 -0.097028136 0.10354063 -0.006132343
-0.08955912 -0.0013290531 -0.08169412 0.10512278 -0.023772597 0.053479988 0.11621216 0.08066928
0.14672415 -0.037028242 -0.037074845 0.020900149 -0.09627983 0.08587248 -0.050850403 0.11122066
-0.010135606 -0.020115102 0.10788285 -0.03657408 -0.020304976 -0.037885495 0.099023454 0.0033451298
0.040278133 0.09202619 0.07327341 -0.074001215 0.087228 -0.096552595 -0.017745929 0.089026235
0.057665292 0.13198717 0.005300605 -0.021152874 0.01157568 -0.099105634 0.03833772 -0.063401766
0.1542273 0.03915994 -0.0673379 0.011386983 0.08800545 0.033620074 -0.031498697 0.06846226
-0.05828235 -0.08326839 -0.061163988 -0.022788826 -0.055172052 0.09360521 -0.008907708 0.080036454
-0.010765033 0.13522449 -0.07675695 0.021101246 0.020008272 -0.024838846 0.0488691 0.11582601
0.00762256 0.05253997 0.094349526 -0.14492911 -0.02773334 0.050736886 -0.023918355 -0.079813436
-0.029931622 -0.1177007 -0.017673887 0.038354274 -0.13677886 -0.023439463 -0.08863235 -0.05147228
0.087091215 0.05964097 -0.0045230878 -0.034970615 -0.08369154 -0.110247865 -0.013256435 0.05803187

_func._drift._model.2.bias f4 [16]
00000000: 02e2 0f3d ebbc cf3c 45ac d3bc ba24 95bd
00000010: 9b33 a33d 08d5 aa3d 4942 b9bc 2a2c c73d
00000020: 2380 f3bd a41e d43d 2b5d 27bd 4df0 db3c
00000030: e8b3 2b3d 0f48 8cbd 0d13 c5bc 4787 bfbc
0.035127647 0.025358638 -0.02583898 -0.07282396 0.07968827 0.08341414 -0.022614615 0.097252205
-0.118896745 0.10357407 -0.040860336 0.026847983 0.04191962 -0.068496816 -0.024056936 -0.023379935

_func._diffusion._model.0.weight f4 [16, 17]
00000000: f7ec aebc aa61 18bd 3efb 873d aef8 573d
00000010: 0923 253d bc34 203d fd6c abbd 2a37 693d
00000020: 7298 6c3d 17bb 363d d8c0 1c3d 6f53 233b
00000030: 855d 963d 5464 c8bc d1d3 883d b98c 1d3c
00000040: d3a3 193d 62f4 36bd c68a d0bd 8cb9 823d
00000050: 4cd0 6c3d ae5d be3d 2202 853c 1605 7cbb
00000060: 8635 e0bd d49c a43d 7be7 b8bd 1be3 893d
00000070: 5874 dabd 10ad bbbd eb43 903d 7601 dbbd
00000080: fbf9 9bbd 0760 713c e7e7 55bc d9dd 8d3d
00000090: facb 823d 6102 cb3d 036d f43b 2a1c 133b
000000a0: f262 b13c 1dcb 1b3d c7ba c5bc a921 8d3d
000000b0: 3409 bc3c e421 bd3c 8c68 09bd f20c d3bd
000000c0: 335a 353d 5ebb c6bc 2cce ca3d 2995 b83d
000000d0: 408d 8ebd c260 553d 3cb4 9fbd 4a56 a23b
000000e0: b73f 95bb 34ca 5a3d 8fac 99bc f2ff fd3d
000000f0: 4761 abbc 206c e8bd 2db2 cc3d bc00 ce3d
00000100: ccd8 6e3d b348 72bd c1bc a13d 9bd1 e1bd
00000110: 793c 123c 6866 943d fe97 d13d 1328 b1bd
00000120: c23d f5bc 0677 f93d 0401 a43d a415 ef3d
00000130: 84c1 9d3d 532c b5bd a0a1 a9bd 646d b83d
00000140: b7a8 4f3d a34e d4bb f581 df3d 58f0 c83c
00000150: 6bde d33c f02f 4d3d e5ca eb3c 535b 90bd
00000160: 2e10 f83c 24ac bebd 37d7 0b3d 2903 a23d
00000170: 185a ccbd af58 c4bd b48f b8bd 494b b33d
00000180: 1674 aa3d 5e88 8abd c233 83bd 70e3 31bd
00000190: e959 ab3b 97ff d1bd 5df7 e33a ae58 38bd
000001a0: b8c2 023d 1818 e2bd 3c48 523d d2a9 bebd
000001b0: 81d7 39bd f5f4 863b 0b84 3ebc 0cf8 2abd
000001c0: bac1 70bd a05f d33d dc27 4abd 57a3 1abd
000001d0: 350f fc3d 91d5 e33d 6fe2 b93d a6cd 36bc
000001e0: ce35 393d 53d3 203c c428 abbd bb42 24bc
000001f0: 5413 f3bd a34d b6bc d78b b23d 4d7e 96bd
00000200: 8ba7 173d b77f 8fbd 43d3 1d3d 2d1d e13d
00000210: c21a 903d 472f f13d d2e7 5abc 2f9e 013d
00000220: cfbc 27bc 6cf4 85bd 1fb1 d5bc 6310 75bc
00000230: 3ec6 dc3a 0d86 a83d 9bfe c13c e3fd e8bc
00000240: cda5 23bc d351 4ebd e2d2 2a3d ad24 a53d
00000250: 1a55 3bbb 5766 1e3d aab1 803d b38a e9bd
00000260: 47c5 20bc b2ea d43d ecd8 c2bd 4e5a bb3c
00000270: ff7b a3bd b365 85bb 183e 083d bef2 033d
00000280: 174c cabd 936a 5a3d 944e d43d 4090 b73d
00000290: 637b ac3d 5b9f cc3c f2a8 4d3d 60d5 98bd
000002a0: c2ff e2bd fb62 003d 7ff8 bbbd c5fa 2fbd
000002b0: a15c a5bd 4765 883d b4ae 5eba bb30 49bc
000002c0: 2b74 813c 6fbc f03d 2cbc 9f3d e23d 5cbd
000002d0: 5745 093d 34f1 e83c eed5 c5bd f47f df3d
000002e0: 0ee1 c5bc a70f 6f3d 3a18 bc3d 00cd 4a3d
000002f0: 6ad7 ae3c 0cca 2cbd 87e3 e0bc b3c4 d7bd
00000300: 9c77 873d df03 1a3d 0f6b 9f3c f27e cd3d
00000310: 1608 e2bd 9c0d bf3c 884b f53d d6e6 8dbd
00000320: a5d9 e93d af57 283d f46d 11bd 2e6a ebbd
00000330: 889c 6e3d 3db1 5d3d c942 c63d 29f9 fcbc
00000340: a27d 6bbd e88e 913c 27f2 99bd 5837 b1bd
00000350: 8af4 613c c8c2 b7bc f07a aabd d458 a2bc
00000360: d72f 58bd 4158 913c f269 99bd 1d79 183c
00000370: 7485 ff3d 914f 9e3d f02a 763d 3cb4 e2bd
00000380: 8eb7 88bd 0f4e e83d 3240 d2bd e815 fd3b
00000390: e180 d43d 82d5 d4bc 82f4 423d 0b0b d63d
000003a0: faff 9e3d 26e6 ca3d d411 a73c dcd2 883d
000003b0: dd62 813d 2060 bd3d 0071 adbc a02b 743c
000003c0: b0b2 c4bd 0f0f 39bc b6a8 a93d 9255 debd
000003d0: a752 d0bd 9127 c63d cf12 edbd 51d5 6b3b
000003e0: d3a7 d13d 0e00 33bd a802 42bc 3754 913d
000003f0: 9c58 dbbd a274 ad3d 47f7 8c3d 4490 81bd
-0.021353228 -0.037202515 0.066397175 0.052727394 0.040316615 0.03911279 -0.08370397 0.056937374
0.05776257 0.044612017 0.038269848 0.0024921556 0.07342056 -0.024461903 0.06681026 0.00961607
0.03750975 -0.044666655 -0.10182719 0.063830465 0.057815835 0.09295212 0.016236369 -0.003845518
-0.10947709 0.08037725 -0.090285264 0.0673277 -0.10666722 -0.091638684 0.07044204 -0.10693638
-0.07616039 0.014732367 -0.013055778 0.0692708 0.06386562 0.09912563 0.0074592843 0.0022447207
0.021653626 0.0380355 -0.024136914 0.06891186 0.022953607 0.02308745 -0.03354697 -0.103052035
0.044275474 -0.024259266 0.099026054 0.09012825 -0.06960535 0.05209423 -0.07798049 0.004954134
-0.0045547145 0.053415492 -0.01875904 0.12402333 -0.020920409 -0.11348748 0.09994922 0.10058734
0.058312222 -0.059151363 0.0789733 -0.11026307 0.008925551 0.07246095 0.10234068 -0.08650222
-0.029936675 0.12180905 0.08008006 0.116740495 0.07702926 -0.08846345 -0.08282781 0.090052396
0.05069801 -0.006479101 0.10913459 0.024528667 0.025862893 0.050094545 0.028783271 -0.07048669
0.030281153 -0.09310177 0.03414079 0.07910759 -0.099781215 -0.095872276 -0.09011784 0.08754594
0.08322923 -0.06764291 -0.064063564 -0.043429792 0.005229224 -0.10253828 0.0017392446 -0.045006447
0.03192398 -0.11039752 0.05133842 -0.093097344 -0.045371536 0.0041185566 -0.011628161 -0.041740462
-0.058778502 0.103209734 -0.04935442 -0.03775343 0.12307588 0.11124719 0.09076392 -0.011157429
0.045217328 0.009816009 -0.08357385 -0.010025675 -0.11868921 -0.022253817 0.087180786 -0.07348309
0.037025016 -0.070067815 0.038531553 0.10991893 0.07036354 0.117765956 -0.013360934 0.031644996
-0.010237887 -0.065407604 -0.026085434 -0.01495752 0.0016843749 0.08228693 0.023680976 -0.028441375
-0.00998826 -0.050371002 0.04170502 0.08063636 -0.002858466 0.038671818 0.06283887 -0.11403408
-0.00981266 0.10396327 -0.09514031 0.022870209 -0.07982635 -0.0040709614 0.033262342 0.03221392
-0.09877794 0.053324293 0.1036655 0.089630604 0.08421972 0.02497833 0.050209947 -0.07462573
-0.11083938 0.031344395 -0.09178256 -0.04296376 -0.08074308 0.06659942 -0.0008494661 -0.012279685
0.015802464 0.11754691 0.07799563 -0.053769954 0.033513393 0.028435327 -0.096599445 0.10913077
-0.024155166 0.058364537 0.09184308 0.04951191 0.021342952 -0.042184874 -0.027452243 -0.10535564
0.066146106 0.037601348 0.01946023 0.100339785 -0.110366985 0.02332192 0.11977297 -0.06928794
0.114184655 0.041099247 -0.03550525 -0.114948615 0.05825475 0.054124106 0.09680707 -0.030880528
-0.05749286 0.017768338 -0.0751689 -0.08653134 0.013791213 -0.022431746 -0.0832423 -0.019817747
-0.05278 0.017742278 -0.074909106 0.009306219 0.12476626 0.0773002 0.060099542 -0.11069533
-0.06675635 0.113430135 -0.102661505 0.0077235587 0.10376144 -0.025980715 0.047596462 0.10451325
0.077636674 0.099071786 0.020394243 0.06680843 0.06317685 0.0924685 -0.021172047 0.014902979
-0.096043944 -0.011295094 0.08284132 -0.10856165 -0.10172015 0.096755154 -0.11575853 0.00359853
0.10237088 -0.043701224 -0.011841454 0.07096141 -0.1071026 0.084695116 0.06883102 -0.063263446

_func._diffusion._model.0.bias f4 [16]
00000000: d736 983c 113d f03d 30ba 49bd cf1f f9bd
00000010: 0555 be3d e957 fcbb 4f5a 8a3d 4dd4 f83c
00000020: 076b 85bd 522f c53d 475d 403d 7afc 9b3d
00000030: 5f9d f93c b2a7 debc 1f1a 7bba 0911 7abd
0.018580837 0.117303975 -0.049249828 -0.1216427 0.0929356 -0.0077009094 0.06755506 0.03037467
-0.065145545 0.09628166 0.046963956 0.076165155 0.030470548 -0.027179573 -0.00095787825 -0.061051402

_func._diffusion._model.2.weight f4 [48, 16]
00000000: 0704 073d b729 2e3c 98e9 d33d c8d3 c0bd
00000010: ca36 773d 8694 20bd 6b37 ce3c cc13 ef3b
00000020: 8dcd 29bd e60d 0e3d 616a 00bc f570 d33c
00000030: 7dab ba3d 05ff f03b c5c9 bc3d 6fe7 3ebc
00000040: 31fa 53bc 6d4c f7bd 3669 a53c 045c aebd
00000050: 3908 2ebd 0fb4 893c 8280 f53d b051 43bc
00000060: 3178 b3bd baff efbb 1946 94bd 10a6 f43d
00000070: 5d38 adbd aa8d cebd 4697 79bd 11d6 eb3c
00000080: 3223 d6bc 75c9 e33d cdb2 96bc c44f 7fbd
00000090: 2c18 8a3d 1a7e a23d d9b8 833d 6ce7 8bbc
000000a0: f459 cfbc 4a45 c23b 7ae3 103d 35b9 56bb
000000b0: 58a2 ea3b ab4f debc 1ccc be3b acf5 843c
000000c0: 4231 843d 632e 883d 9967 b43d a677 9c3c
000000d0: 9435 babd 1ce6 bb3d f991 02be ef64 ccbd
000000e0: 012e dfbc 4c23 863d ed7e 0a3c b9a4 86bd
000000f0: 82db 1dbd 9e4d 01bd 5ae2 41bd e8e3 f73d
00000100: 7963 c2bd 9267 e6bd 9c87 f43d 510d 9dbd
00000110: a40a 75bd ac1b 663d 8431 ddbd 5fd3 1cbd
00000120: bfd8 2b3d a2f5 d5bd fa92 9c3d bd2f e0bd
00000130: bbf4 63bd e402 6bbd 0329 4bbd ccb3 9fbd
00000140: 0c83 35bd c6bf c2bc 57af 3b3d b3ff 8bbd
00000150: 3bbf fa3c 18d5 e73d ca09 c9bd cd48 bc3d
00000160: 19a4 92bd 7aff 06bc 79f3 2dbd 8950 e53d
00000170: ab29 313d 494d 10bd bad6 523d acd4 aebd
00000180: 7b2a bbbd adcc 883d f905 92bd 71d5 723d
00000190: 0792 e93d 7642 c53d 7992 633d 164d a63d
000001a0: 8f82 e9bd 8723 353d a1e3 cfbb 4a1a 93bd
000001b0: 793a 1ebd a705 943d b75b fe3c 18a4 813d
000001c0: cd4d 19bd 284e b53c 5fb2 e6bd 3b05 a53d
000001d0: 03c4 82bc 301e da3d 3b70 2ebd 42e0 1e3d
000001e0: b681 b5bd 5047 7f3d 53ec c23d 7823 f83d
000001f0: 6aec 2dbd 6665 26bd e342 00be 315e dfbd
00000200: 63dc 01bd f4d8 003e 456d efbd 74d5 883d
00000210: 63ea 07be 496b babd 7681 c53d a68f 953d
00000220: 4176 05bd d16b 293d 5e2f e23d 0bbb 40bd
00000230: 6ea1 483d f8a6 583c b744 19bc 4704 04ba
00000240: 7167 ef3c a8a7 a83d fd09 403c 4864 043e
00000250: 2820 4ebd 71cc a23d 6aa8 babd 1903 ea3c
00000260: 0f08 cbbc 00fd ae3d 3ac2 263d 7113 aeba
00000270: e2b1 e13a 6c60 c9bd 7da1 833d 464a a93d
00000280: f45f adbd 8cab d1bd 38e4 d33d 3743 df3d
00000290: 7530 043e 97e0 6b3d 0d0b babc fa70 703c
000002a0: 8d8d b03d 1728 9ebc 298f 0f3d 329e 9b3c
000002b0: 2066 e23c 9adf 013e 057b ec3d ed99 543d
000002c0: 3d8e 14bd 5eda 133c 48ea d0bd ba0a ae3c
000002d0: 4fc8 a7bd f971 1e3d 0029 d43d dd38 63bd
000002e0: 71be 7abd fad0 663d 9e5b d2bd ec9f ed3d
000002f0: e07d cabc 7bb1 e2bd bd73 c83c c15b 3ebd
00000300: 038e abbd c967 05bd df6c ff3d cc86 ab3d
00000310: 45ea f4bc 6c7b 9bbb 7ba7 bf3d d32e 8bbd
00000320: a206 e93d d321 b0bb 5fc9 be39 f23c 3d3c
00000330: c2d2 cebd af8c dbbd 49f4 28bd 0e2b 4bbc
00000340: 5e1d 923c b279 36bd f2c6 993d 867b 9d3d
00000350: 2a16 2abd f41c f83b 9578 793c 133f a2bb
00000360: 8929 b93d 61e3 28bd d5fa 72bd e854 8b3d
00000370: 4a04 853c 1ec5 26bd d0a0 4b3d 27e8 5b3d
00000380: b4fd 82bd 09e7 bfbd 29a3 3cbd 2ffe a03d
00000390: ab6a c63d 98f0 9f3d 0a79 cdbc 542c ae3d
000003a0: 947b 99bd 713b 83bd 954a d83b 1cdb 2dbd
000003b0: 53c7 863d 5fa4 e33d f581 cc3d 58bb e6bd
000003c0: b60b adbd 8e6f 95ba 789a aebc d043 24bd
000003d0: 8d0b 04bd e0a4 553d 2b65 3dbd 520f 5dbd
000003e0: 2b1d 0abd f156 4ebd 09e2 a43d 791d da3d
000003f0: d8ae eb3b e9c2 e8bd 5e8a a8bc 25d9 943d
0.032962825 0.010630063 0.10347289 -0.09415394 0.060354985 -0.039204143 0.02517291 0.007296061
-0.041455794 0.034681223 -0.007837863 0.025810698 0.0911474 0.0073546194 0.09218172 -0.011651858
-0.012938068 -0.12075124 0.02019177 -0.08513644 -0.04248831 0.016809491 0.119874015 -0.011921331
-0.08763159 -0.007324186 -0.072399326 0.119457364 -0.08458016 -0.10085614 -0.06093528 0.028788598
-0.02613983 0.11122409 -0.018395806 -0.06233193 0.06742892 0.07934208 0.06431741 -0.017078124
-0.025311448 0.00592867 0.03537319 -0.00327642 0.007160466 -0.027137598 0.0058226716 0.016230427
0.06454708 0.066494726 0.08808822 0.019100022 -0.090922505 0.09174749 -0.12750997 -0.09980189
-0.027243616 0.06549701 0.008453113 -0.06574387 -0.038539417 -0.031568162 -0.047335006 0.121040165
-0.09491629 -0.11250223 0.11939928 -0.076685555 -0.0598246 0.056178734 -0.1080046 -0.038287517
0.041954752 -0.10447241 0.07645221 -0.10946605 -0.055653315 -0.057375804 -0.04959966 -0.077979654
-0.04431443 -0.023773085 0.045821514 -0.0683588 0.030608764 0.11319941 -0.0981632 0.09193573
-0.071602054 -0.008239621 -0.04246852 0.111970015 0.04325263 -0.035229955 0.05147431 -0.08536658
-0.09138962 0.06679664 -0.071300454 0.059285585 0.11404806 0.09631817 0.05555961 0.08120172
-0.11401855 0.044223335 -0.006344274 -0.071827486 -0.038629983 0.072276406 0.031049592 0.063301265
-0.037427712 0.022131994 -0.1126449 0.08057638 -0.015962606 0.10650289 -0.0425875 0.038788088
-0.08862631 0.06232387 0.095177315 0.1211614 -0.04246179 -0.040624045 -0.12525515 -0.109066375
-0.031704318 0.12582761 -0.116907634 0.06681338 -0.13273005 -0.09102494 0.09643833 0.073027894
-0.03258348 0.041362587 0.11044191 -0.047053378 0.048982076 0.013223402 -0.009354762 -0.0005036038
0.02922413 0.08235103 0.011721131 0.1292888 -0.050323635 0.0794915 -0.09114154 0.02856593
-0.024784116 0.0854435 0.040712573 -0.001328094 0.0017219151 -0.09832844 0.06427286 0.0826612
-0.08465567 -0.10237798 0.10346264 0.10901492 0.1290911 0.057587232 -0.022710348 0.014675373
0.08620749 -0.019306226 0.035048638 0.018996332 0.027636588 0.12682953 0.115469016 0.051904608
-0.03626846 0.009024231 -0.102009356 0.02124535 -0.08192503 0.03868291 0.10359383 -0.05547415
-0.061216775 0.05635164 -0.10271381 0.11602768 -0.024718225 -0.11069008 0.02446925 -0.046474222
-0.08376696 -0.03256968 0.124719374 0.0837532 -0.029896865 -0.0047449376 0.09358116 -0.067960404
0.11378218 -0.005375126 0.00036389657 0.011550175 -0.100987926 -0.10720193 -0.041248593 -0.012400402
0.017836269 -0.04454965 0.07508649 0.07689576 -0.041525044 0.007571811 0.015226503 -0.0049513667
0.09041125 -0.04123247 -0.059321243 0.06803304 0.016237397 -0.04071533 0.04971391 0.053688195
-0.06396046 -0.09370238 -0.04605404 0.07860982 0.09688314 0.078095615 -0.02508213 0.08504549
-0.07494274 -0.06407822 0.0066006877 -0.042445287 0.06580987 0.11115336 0.09985725 -0.11266202
-0.08449499 -0.0011401044 -0.02131389 -0.040103734 -0.03223758 0.05215919 -0.04623906 -0.05396969
-0.033719223 -0.050375883 0.08050925 0.10650153 0.007192474 -0.11365301 -0.020573791 0.072679795

_func._diffusion._model.2.bias f4 [48]
00000000: a84a 233d d47b ae3d 99e4 31bd 80b2 003c
00000010: a0ec 7cbd cd84 cdbd 56f7 773c 0e78 3ebd
00000020: 6399 c43d 152c a73d 9f07 8bbb 79d3 3d3d
00000030: b21d f3bd 12b1 56bd 7279 5e3d c218 98bd
00000040: 436f 08be 1da9 7abd afb2 83bc 3160 45bc
00000050: 1d50 863d 60ac fbbd 2674 c6bd 9699 c33d
00000060: c85a 86bd 3b40 7cbd 96b6 8abd 4028 683a
00000070: 84b1 7e3c 5387 47bd f49a 4abd 6bbc b0bd
00000080: 22a0 c83d 1777 28bd 0095 0c3d 65be 86bc
00000090: 9715 63bd 73a8 16bb 370c cdbd 2041 3dbd
000000a0: bc8d cdbd ebdb 9fbd 702f 333d fa44 983d
000000b0: 749f 783c 8b34 703d 11a8 dcbd c908 c7bd
0.03986612 0.08519712 -0.0434309 0.007855058 -0.0617491 -0.10035095 0.015134653 -0.04650121
0.09599569 0.08162705 -0.004242852 0.046344254 -0.11870898 -0.05241496 0.054315038 -0.07426597
-0.13323693 -0.061196435 -0.016076414 -0.01204686 0.06558249 -0.12288737 -0.09690122 0.095507786
-0.06560284 -0.061584692 -0.06773107 0.00088560954 0.015545253 -0.04871304 -0.04946418 -0.08629688
0.09796168 -0.041129198 0.034321785 -0.016448209 -0.05544051 -0.0022988587 -0.100120954 -0.046204686
-0.10036799 -0.07805618 0.04374641 0.07435031 0.015174735 0.05864386 -0.107742436 -0.097184725

_readout.weight f4 [1, 16]
00000000: ae06 5f3e 0a79 48be 560b 5ebe 894f 39be
00000010: d382 57be 4673 a9bd e628 e73d 58fb 84bc
00000020: 5a37 6d3d 6076 223d 775e b23a b2c6 e2bd
00000030: f538 46be b555 7dbd d768 6b3d 02c8 803d
0.21779892 -0.19577423 -0.21684012 -0.18096747 -0.21045999 -0.0827394 0.11287098 -0.016233131
0.057914115 0.039663672 0.0013608475 -0.110730544 -0.19357665 -0.061849315 0.05747303 0.062881485
