model_saves/generator_backprop.pth (torch, 13547 bytes, 13 tensors)

_initial._model.0.weight f4 [16, 5]
00000000: 9052 703f 4b6f 87bf f52e fb3e 64e2 0b3f
00000010: 8f31 a13d dd57 253f 7332 9abf b0cf aa3f
00000020: 7102 13be 092a 9d3f 4b90 43bf 41df 8d3e
00000030: 3366 88bf efa0 67be 3844 a33f 2639 723f
00000040: f736 433e f9a5 9d3f 9db2 143f 20a1 be3e
00000050: b3f1 ec3c 459d 893e ca0e cc3e 8cb1 f3bd
00000060: 4c72 3ebf 1e03 96be 461d 3b3e f701 d63e
00000070: 48fd 933f e1ff 8fbf 31f6 86bf ba9c e0be
00000080: 4ad6 053f 8bbb 7cbf a58c 62bf c22e 7dbe
00000090: 2b98 c0bc a1d7 0c3f e00b 12bf a952 1fbf
000000a0: b3e9 c1be b820 fbbe 5633 d83e 19cb 42bf
000000b0: d588 983e 70f7 283e d3d2 6e3e b9cb aa3e
000000c0: bba1 5dbf ad20 7c3f bf10 7c3f 09e6 a4bf
000000d0: da83 8abf 4019 753f 9a73 9fbf 3f4f e23e
000000e0: 9a35 de3e 7d36 61bf 559a 0b3f 61be 4ebf
000000f0: d81c 2abf 4ecb 95bf 51d4 d4be e799 9cbf
00000100: 0757 55bf 74a9 863e c441 3e3f 7da1 d43d
00000110: 78bb 2fbe 612d 3f3f 0415 993f 4f19 70bf
00000120: a00c 543f 83d5 a13c 493e b73e 6045 dd3c
00000130: 3506 7abf 917f 8bbe ff88 a83f b636 1abf
0.9387598 -1.0580839 0.49059263 0.5464232 0.07870781 0.64587194 -1.2046646 1.3344631
-0.143564 1.2278453 -0.7639205 0.27709392 -1.0656189 -0.22619985 1.2755194 0.9461845
0.19063936 1.2316276 0.5808504 0.37232304 0.028923845 0.268778 0.39855033 -0.11899099
-0.74393153 -0.29299253 0.18272886 0.41798374 1.156167 -1.1249963 -1.0543882 -0.43869573
0.52280104 -0.9872367 -0.88495857 -0.24724868 -0.02351006 0.55016524 -0.5704937 -0.62235504
-0.3787361 -0.490484 0.42226666 -0.7609115 0.29791895 0.1650064 0.2332261 0.33358553
-0.86574906 0.9848736 0.9846305 -1.2882701 -1.0821488 0.95741653 -1.2457154 0.44201085
0.4340027 -0.8797377 0.54532367 -0.80759245 -0.6645026 -1.1702669 -0.41568235 -1.2234467
-0.8333592 0.26301157 0.743191 0.10382364 -0.17161357 0.7467862 1.1959538 -0.9378862
0.82831764 0.01975513 0.35789707 0.02701062 -0.9766572 -0.27245763 1.3166808 -0.6023973

_initial._model.0.bias f4 [16]
00000000: a849 413f d6f3 413f 5f43 a6bf c565 403f
00000010: 1350 0e3f 14e6 4c3f 0180 833f 8db8 8fbf
00000020: 1435 2e3f 82d1 1fbf a031 a13f caae a5bf
00000030: 6116 9f3f f464 0a3f 8c9e 4bbf 0dea 86bf
0.75503016 0.7576269 -1.298931 0.7515529 0.55590934 0.8003857 1.0273439 -1.1228195
0.6804974 -0.6242906 1.2593269 -1.2943966 1.2428705 0.5406029 -0.795388 -1.0540177

_initial._model.2.weight f4 [16, 16]
00000000: 9c37 0b3e 302f 9bbe f6ba cebe f78c 21bf
00000010: 19bc 353e f86f d23e 6e8e aabe 1805 73be
00000020: c4b1 13bf 1026 b43e 55bc 123d acf4 b7be
00000030: 29cd debe 1e67 0c3f 7491 b8be cfc0 92bb
00000040: 2e71 033f 423d 173f 4ab7 613e b383 1c3f
00000050: 7e40 81be 6477 993e 158f b0be 7cc2 1d3f
00000060: 8f01 83be 5218 3fbf 451e 33be 52bb 86be
00000070: 4ce4 0dbf 3207 8dbe bc87 ca3e 8cf1 c7be
00000080: 39df 3c3e ef16 a7be fe1f f5be 4d24 9f3d
00000090: dfee 41be 78cf 3b3f 6737 213f 8532 0abf
000000a0: 9770 9cbe 49c1 07bf f8d7 1a3e 8729 d6be
000000b0: a1f2 37bf a95f fe3e 833c 7b3e 601d 1dbf
000000c0: c104 8d3e df45 313f 65c2 b43e a8bc 23bf
000000d0: 13c8 41bd cc1d ca3e db27 8dbe 6844 b7be
000000e0: 7625 193f 7617 b9be 35f5 f63e ad6b 02bf
000000f0: 7981 d5bd 028c 0fbf 5726 1c3e f377 38bf
00000100: 971e 8a3d c9b4 d1be b0b8 7abe cd48 c5be
00000110: 5559 e5bb 8a66 9a3e 8256 7b3e 0ae3 0a3f
00000120: 2913 3cbf 2e2b 32bf ff74 ee3d 4af4 95bc
00000130: 1d06 f93d ffb1 303f 1294 54be 5102 323f
00000140: 65d0 18bf 1bf2 3bbe 59bb eebd 42a6 ffbe
00000150: 4bff 1bbf 9c85 16bb 9051 1cbf 30a2 d93b
00000160: cfc3 2cbf 52fa 07bf 4df5 02bf 5185 1d3f
00000170: f2d0 25bf b21a 033e afb9 38be e2c3 08bf
00000180: 803a 00bf eb42 86bd 9ca0 a5be ab0f 44bc
00000190: f54f 143f 3625 07bf b8b1 72be 83f7 073f
000001a0: eb29 163f 4742 42bf 523b 513e 832b 14bf
000001b0: 7fd1 9e3e 33e0 2c3f d96a 613e 4ea7 cd3e
000001c0: 7558 053e 240e 23bf 5141 833e a5b7 78be
000001d0: d98c c43e 3f57 113f ac53 dc3e 4ccc 103f
000001e0: 4134 7abe 54d2 753e 3b68 adbe c1d2 193e
000001f0: 0390 d5bd c15a f5bb e040 e4bd 049e 2d3f
00000200: 6c37 063f b3e5 b33e ac6c 073f dfa9 32bf
00000210: 1975 563e 6443 7d3e 3263 a73e eef5 68be
00000220: 0ad8 0b3f c2f6 da3e 61da 323f c8b8 1fbf
00000230: 746c 4c3e f615 053f 14d5 16bf c43f dabe
00000240: 7e8d 27be c77e 1ebf 06cc 0fbd 2352 e8bd
00000250: 478f a63e 3bfe 55bf 3f5f 4a3e 9800 09be
00000260: ecbf 29bf 0667 37bf ca51 4f3e 08be babe
00000270: 46a6 b63e 8b73 533e 7d16 113d cbc2 00bf
00000280: 39d0 1a3f 089a 053f e369 c83d 1603 88be
00000290: dd15 4c3e 22fd ff3c 6f2f 53be daa1 423d
000002a0: 298b 27bf 4090 31bf af63 5d3e d4ad 123d
000002b0: aff0 be3e 7245 573e 14a6 2f3f 54cc 2bbf
000002c0: 02fd 23bf 5d60 30bd 8cc9 efbe 05e3 b9be
000002d0: 1849 fa3e d3f6 2fbf 522a e93e 4ee4 de3d
000002e0: ce6a d53e 0f86 8ebd 0a78 e5be 7915 95be
000002f0: 9c6b 1abf 268e d63e fd2c 8d3c c68e f43e
00000300: 213c b13e d6ee 2d3e d975 07be af37 173f
00000310: 43a6 72be d212 343e 50d3 16bf a88c 1dbf
00000320: 1c46 9abe dceb 6ebe 9546 0fbf 9552 bebe
00000330: c705 c13d b074 2d3f 3ac8 1f3f 5bdd 443e
00000340: bb8d 513d 6737 1a3f 6f81 13bf bcaf fd3d
00000350: 68a2 903d 3495 f7be 9f9e 383f f029 12bf
00000360: 8a5e d0be 9d2e 3c3f 4a11 f63d 6da4 71be
00000370: 767e 44be b424 b7be dd19 a13e 3328 dfbe
00000380: 0460 833e 15c7 f23e 2ccc edbe 9578 afbe
00000390: aa79 2c3f fb1b 0e3f 81d5 17be cc41 a3bd
000003a0: 29fa 2dbf 2b18 21bd 5ac0 1b3f 9cd8 263f
000003b0: 8c8b fc3e 9609 143f 91e8 093f aba7 eb3e
000003c0: bd69 86be 9b34 0a3e e72b a73e 875f 21be
000003d0: 2206 4c3e cf18 113f 36b4 8a3e fe0d 113f
000003e0: 1842 2a3d a966 01bf 3f61 7d3e ecec aa3e
000003f0: 4db5 21bc 4568 dd3e 401e f13e 1885 7ebe
0.13595432 -0.3030944 -0.40377015 -0.6310572 0.17747535 0.4110105 -0.3331179 -0.23732412
-0.57693124 0.3518529 0.03582414 -0.35928857 -0.435159 0.54844844 -0.36048472 -0.004478551
0.51344573 0.59077847 0.22042575 0.6113846 -0.25244516 0.299739 -0.34484163 0.61624885
-0.25587127 -0.74646485 -0.17492016 -0.2631479 -0.5542648 -0.27544552 0.39556682 -0.39051473
0.18444528 -0.32634684 -0.4787597 0.07770596 -0.18938778 0.7336345 0.6297516 -0.53983337
-0.3055465 -0.53029305 0.15121448 -0.41828558 -0.718546 0.49682358 0.24534802 -0.6137295
0.2754269 0.6924724 0.3530456 -0.6395974 -0.047309946 0.39475858 -0.2756947 -0.35794377
0.59822786 -0.36150712 0.48233953 -0.5094555 -0.104250856 -0.5607301 0.15249 -0.7205803
0.06744116 -0.4095824 -0.24484515 -0.38532105 -0.0069991746 0.30156356 0.24544719 0.54252684
-0.73466736 -0.69597137 0.11643409 -0.018304963 0.12159369 0.690216 -0.2075961 0.69534785
-0.59692985 -0.18354075 -0.116568275 -0.49931532 -0.6093642 -0.002296782 -0.61061954 0.0066416487
-0.6748628 -0.53116333 -0.5115555 0.6153155 -0.6477195 0.12803152 -0.18039583 -0.53423893
-0.50089264 -0.06555732 -0.32349098 -0.011966626 0.57934505 -0.52791154 -0.23700607 0.5311205
0.5865771 -0.7588238 0.20432785 -0.57878894 0.31019208 0.675296 0.22013415 0.40166706
0.13022025 -0.6369345 0.2563577 -0.24288805 0.38388708 0.5677375 0.43032587 0.5656173
-0.24433996 0.24006015 -0.33868584 0.15021802 -0.10427859 -0.0074876253 -0.111451864 0.6781924
0.5242832 0.35136184 0.52900195 -0.6979045 0.20943107 0.24732739 0.32692868 -0.22750065
0.54626524 0.42766386 0.6986447 -0.6239133 0.19963247 0.51986635 -0.5891888 -0.42626774
-0.16362569 -0.61912197 -0.03510668 -0.11343791 0.32531187 -0.8359105 0.19762896 -0.13379133
-0.66308475 -0.71641576 0.20246044 -0.36473107 0.35673732 0.20649545 0.035421837 -0.5029723
0.6047397 0.5218816 0.09785821 -0.26564854 0.19930215 0.031248633 -0.20623563 0.047517635
-0.65446717 -0.69360733 0.21620058 0.035810307 0.37293002 0.21022585 0.6861279 -0.67108655
-0.64057934 -0.04306065 -0.46833456 -0.36306015 0.4888389 -0.68736 0.455401 0.108833894
0.41683048 -0.069591634 -0.44818145 -0.29117945 -0.6032045 0.41905326 0.017233366 0.47765177
0.34616187 0.1698564 -0.13228549 0.5906934 -0.23696236 0.17585304 -0.5891619 -0.6154275
-0.30131614 -0.2333216 -0.55967075 -0.3717238 0.0942493 0.67756176 0.62414896 0.19225065
0.051160555 0.6024079 -0.57619375 0.12387034 0.070622265 -0.4835602 0.72117037 -0.5709524
-0.40697128 0.73508626 0.120150164 -0.2359788 -0.19188866 -0.3577019 0.31465045 -0.43585357
0.25659192 0.47417513 -0.46444833 -0.34271684 0.67373145 0.55511445 -0.14827539 -0.07971534
-0.6795984 -0.03932969 0.6084038 0.6517427 0.49325216 0.57827127 0.53870493 0.46026358
-0.26252547 0.1349663 0.32650682 -0.15759097 0.19924214 0.5667848 0.27090615 0.56661975
0.04156694 -0.5054727 0.24744128 0.33383882 -0.009869886 0.43243614 0.4709339 -0.24855459

_initial._model.2.bias f4 [16]
00000000: fec7 163d 4901 653d 44d7 833e 7108 febe
00000010: 01fd 1abf 3283 8fbe 56e7 edbd 1935 a1be
00000020: a1a3 d53e 2f05 d3be 1731 dc3e 7cce a7be
00000030: b69d 593e 46ab 443f f417 3fbf ea6f b6be
0.03681182 0.05590943 0.25750172 -0.49615815 -0.60542303 -0.28029782 -0.116163895 -0.31485823
0.417264 -0.41214892 0.43006203 -0.32774723 0.21251568 0.7682384 -0.74645925 -0.3563226

_func._drift._model.0.weight f4 [16, 17]
00000000: 11e2 97bd 9daa c13d d482 803d 7554 b6bd
00000010: 46a9 493d 2713 85bc 833d 02bd 97ff a8bd
00000020: 927d eebd c74c 13bc 597f 64bd 4490 ccbc
00000030: 2f48 9cbd 0a74 d0bc 42d8 d0bd 1189 0d3b
00000040: e7e1 8a3d e11d 173c df45 2b3c 241c 1c3d
00000050: 165a e1bd 3b78 bd3c cd5b ca3c b1e9 2d3d
00000060: d12e 58bb 96cf 78bd 9ece b7bd 1ab9 87bd
00000070: 7af6 a33d 343f b2bd f4c2 75bc 57ab 16bd
00000080: b69e 64bb 3471 95bc f77f 8b3d 9b46 a9bd
00000090: 18ed 723b 75e1 b9bc 5493 063d ea60 ee3d
000000a0: b26b 6b3d 11c4 df3d 5c8f c53d 6dcb d63d
000000b0: 7591 8fba 6beb 35bd b9b8 03bd 9116 f1bd
000000c0: 719a 2e3d 8791 98bd 74b0 d0bd 2b6a febd
000000d0: 7d90 5bbd 1e19 e43d d237 c2bd 354d 4abd
000000e0: c1f4 743d ae90 a13b ef90 863d 12f6 39bd
000000f0: d96e 9abd 922e 7abd 8dfc 323c ab35 a8bd
00000100: 3304 bebb 6b5e 583d b467 b23d 3486 793d
00000110: 8d93 823d 2a21 b5bd f717 d5bc 037e b63d
00000120: ecd9 2b3d 0a7a fa3c c922 b23d 78ca c73d
00000130: fcc6 b3bd 2cd6 76bd 38ab 88bd 3d3a 9bbd
00000140: 102d 3d3d af49 d9bd de8c 2f3b bdaa 30bd
00000150: 846c 87bd 69f5 ee3d c446 df3d cfa7 a73d
00000160: 131e 6b3d f5ea 93bd 01f7 58bd 11f6 92bd
00000170: c084 a13d eeb1 45bd 8522 b13d 5a8f 523d
00000180: e38b e33d 7b50 ffbc 191e 05bc 1080 5e3d
00000190: d5d0 11bd 1bbf b83d f7e1 e23c 5d28 06bc
000001a0: 6ed0 de3c 65bc 74bd 4981 c2bd 468a f2bc
000001b0: 4a89 e13d 60aa 963d 3ffd 033c dcb8 8fbc
000001c0: e1ce ebbc d91a 9c3d e326 993d dbae f4bd
000001d0: 83f0 bdbd 2912 723d 063d 6e3d 2218 9ebd
000001e0: 503d 82bd b7bb f63c 3509 ab3d 92d9 e0bc
000001f0: 6b41 dc3d aa7e 0b3c 1318 cf3d 8f6e 86bc
00000200: 60f6 263d efdc 2bbd dbf9 053d d5b6 a1bc
00000210: 08bb c0bd d634 c13c 93ee f63d 2ce1 973d
00000220: 8730 c13d 3644 c03d aa59 9ebd dd26 a2bd
00000230: 8f88 40bd 01e0 1cbd d76b 6dbd 39c1 33bd
00000240: 8f98 923d 2396 ad3d a863 81bd d46e 6a3d
00000250: 908d 453c 9054 003e 9c1e 923d e914 ed3d
00000260: a0ce e1bc de73 0d3b 71c2 e83d 0334 b3bd
00000270: dc4a 803d e1bc 4e3d e677 d63d e1ee c6bd
00000280: 2b4b e2bc 2ce2 a73d 8af4 78bd 5492 70bd
00000290: 5a24 a3bd f0da 573d 1dc7 bfbc f89e 303d
000002a0: 0870 523d 3c24 d1bb 01bb 933d a002 85bb
000002b0: 03c4 e3bc 5e32 2f3d 863c c6bd c47a 423c
000002c0: c49d a53d e5eb 4f3d 4c75 a3bc 94c4 e1bd
000002d0: 4f48 7c3d 3852 3c3d 3a3f 123e d634 993c
000002e0: 0c5e 13bd f5f1 70bd 5918 a23d 9b22 05be
000002f0: 494b d73d 50f5 04bd f7c5 febc 3c61 cd3d
00000300: 21ad a73d 989e 95bd 46e5 b13b b61c 95bd
00000310: c081 9c3d fc5e b4bc 2800 983d 7ed3 233d
00000320: 05d0 4d3d 919c afbc c74a 05be 74e7 13bc
00000330: f9a2 793d 1769 bbbd 7a6a 633d 3e83 9d3d
00000340: 5be0 db3d b36f 6d3d 84b6 ce3d 482a a03c
00000350: f251 35bd c876 0dbc 0b75 aa3d 027d ba3c
00000360: 1f40 70bd 237c c23d ada7 2e3d 0857 c03d
00000370: 69ce e73c 2f82 e1bd 638c 9f3d ad7e 0e3d
00000380: c1d5 963d bc73 a03d d103 cbbc 7cb5 b33d
00000390: b5e7 c7bd 0316 0dbd b718 bc3d 7c21 793d
000003a0: c593 85bd 5d0b e5bd 3d06 f5bc dbad 913c
000003b0: e6e4 583d 3339 35bd fbbf 97bd 82ba 03bd
000003c0: 16d5 a3bd 9eb2 8f3b 16c4 b0bd ebeb e1bd
000003d0: d205 a2bd df34 78bd d63d 9abd 7fad 103e
000003e0: a5dc 65bd ffbf 01bd e68c d2bc 0cdd 2c3d
000003f0: ad50 643d 3166 b8bd bcb5 aabd ddc5 ac3c
-0.074161656 0.0945637 0.062749535 -0.08902828 0.049233697 -0.016244484 -0.031796943 -0.08251875
-0.116450444 -0.008990473 -0.05578551 -0.024971135 -0.076309554 -0.025445957 -0.10197498 0.002159659
0.06781369 0.009223432 0.01045367 0.038112774 -0.11003511 0.02312862 0.024701977 0.042459194
-0.003298689 -0.060744844 -0.08974956 -0.06627102 0.08005996 -0.08703461 -0.015000094 -0.036784496
-0.0034884638 -0.018242456 0.06811517 -0.0826542 0.0037067588 -0.022690514 0.032855347 0.11639579
0.057475753 0.109260686 0.09646484 0.10488019 -0.0010953384 -0.044413965 -0.032158587 -0.11771882
0.042627756 -0.07449632 -0.10189906 -0.12422594 -0.05360459 0.11137603 -0.09483303 -0.049390037
0.059803728 0.0049305772 0.06570613 -0.045400687 -0.07540674 -0.06107957 0.010924471 -0.08213361
-0.0057988404 0.05282442 0.08711186 0.060919 0.06375799 -0.08844216 -0.026012404 0.089107536
0.041955873 0.03057577 0.08698041 0.09755415 -0.08778188 -0.060262844 -0.066732824 -0.075794674
0.046185553 -0.10609757 0.0026786844 -0.04313158 -0.066124946 0.11667902 0.10902169 0.08186304
0.057401728 -0.07222549 -0.052969936 -0.0717584 0.07886648 -0.04826539 0.08649162 0.051406242
0.11110666 -0.031166306 -0.008124852 0.05432135 -0.03559955 0.090208255 0.027695639 -0.008188334
0.027198996 -0.05974998 -0.094973154 -0.02960695 0.11012514 0.07356715 0.008055984 -0.017544203
-0.028785171 0.07622308 0.0747812 -0.119474135 -0.092743896 0.05909935 0.058163665 -0.07719447
-0.06359351 0.030118806 0.083513655 -0.027447496 0.10754665 0.008514086 0.10112014 -0.01641014
0.040762305 -0.041958746 0.032708984 -0.019740501 -0.094106734 0.023584764 0.12057223 0.07415995
0.09433084 0.0938801 -0.07731946 -0.07917569 -0.047005232 -0.038299564 -0.057964172 -0.043885443
0.071580045 0.08475902 -0.06317836 0.0572346 0.012057677 0.12532258 0.071347445 0.11576254
-0.027564347 0.0021583955 0.11365212 -0.08750155 0.06264278 0.050473098 0.104720876 -0.09713531
-0.027623734 0.08197436 -0.060780086 -0.0587333 -0.07965918 0.05269903 -0.023410374 0.043120354
0.051376373 -0.0063824933 0.072134025 -0.004059151 -0.027803427 0.042772643 -0.09679513 0.01187009
0.08086732 0.050762076 -0.019953392 -0.110238224 0.061592396 0.045976847 0.14281932 0.018701952
-0.035978362 -0.0588245 0.079148 -0.13001482 0.105124064 -0.03246051 -0.031100256 0.100283116
0.081873186 -0.0730564 0.005428943 -0.07280867 0.07641935 -0.022017948 0.07421905 0.039996617
0.05024721 -0.021436961 -0.13016807 -0.009027351 0.06094644 -0.09150904 0.055521466 0.07691048
0.10736152 0.057967853 0.10093406 0.019551411 -0.044267602 -0.008634277 0.083231054 0.022764686
-0.0586549 0.094963335 0.042640377 0.093916 0.028296666 -0.11011159 0.077904485 0.034788776
0.07364989 0.078345746 -0.024782093 0.0877485 -0.097609915 -0.03444482 0.091844015 0.06082295
-0.065223254 -0.11183808 -0.029910201 0.017783096 0.05295267 -0.044244003 -0.07409664 -0.03216029
-0.07999627 0.0043853065 -0.086311504 -0.11031326 -0.079112664 -0.060597297 -0.075313255 0.14128684
-0.056118626 -0.031677242 -0.025701951 0.042202994 0.055741 -0.090038665 -0.08335444 0.021090442

_func._drift._model.0.bias f4 [16]
00000000: 4f03 cfbd 9740 8f3c f950 5fbd a354 e3bd
00000010: a24b 113e a2f9 da3d 492e 81bd 39e7 8abb
00000020: 4fb9 c73d fdd9 ef3d c927 363c 799c 19bd
00000030: d6ae 203b 8d67 91bd 9260 673d edb1 6cbd
-0.10108053 0.017486854 -0.05452058 -0.111001275 0.14189008 0.10692145 -0.06307656 -0.0042389897
0.09752142 0.117115 0.011117884 -0.03750274 0.0024518273 -0.07099829 0.05648858 -0.05778687

_func._drift._model.2.weight f4 [16, 16]
00000000: 6ba4 bb3c 043b 293d 9a27 16bc fb54 c2bd
00000010: 2236 2abd 448e 63bc eaae 2cbc 3f8a fabd
00000020: 8438 d0bc a823 fabd 9194 42bd fe66 ef3c
00000030: 7946 73bd b701 363d f876 603d 5994 c0bd
00000040: 3f9a d338 4b4a d9bc 489f 15bd f55f a53d
00000050: 3922 d3bc 8966 ee3c c033 fb3d 10a1 4ebd
00000060: 1536 d23d 1ece a13d 3c37 fb3c c333 81bd
00000070: 202f 7cbd 66ce 393c 9f92 a13c 6e81 c7bd
00000080: a2ae 473d 8fcd a93d fab6 613d c8c8 4abd
00000090: 3fdd 48bd df57 8f3d 09b3 91bd 44d0 383d
000000a0: ad42 de3d 9cbb b93c b694 8d3d 6649 c4bc
000000b0: fcbf 413d d8df 9b3d 78b7 8e3d 59e1 ac3d
000000c0: 504a e2bd 8a1b 8fbd 4139 8fbd 5f4b 913d
000000d0: 281a 9ebd 1e2d d3bc cfe9 553d 9856 603b
000000e0: cbb7 7dbb 5721 863c b8e1 8f3d dd53 8f3d
000000f0: f6dd bdbb 858f 81bd 726c 6dbd 4dac fa3d
00000100: ab18 93bc e6fa f63d 90a5 ccbc c29d 10bc
00000110: 3f88 863d 0347 ecbd a07b 3d3d 5a6e 28be
00000120: f2a5 eeba d1d7 07be 0183 91bd c511 95bd
00000130: b9c7 61bb c2ba e4bc 41aa a1bc 348b ea3d
00000140: 0269 51bd 612f a13c d21b e43d 754d 0ebd
00000150: bef5 d9bd eab1 7dbd 71f2 9d3d 74cd f0bc
00000160: 135a 29bd bd48 8d3d c801 c3bc 8dee 42bd
00000170: 19a4 30bd a178 dfbd 75ad 91bd 40a4 cfbd
00000180: aa56 8d3d 0dbb c43d 8195 a9bd 7480 b33d
00000190: ba41 63bd 9369 c33c 68ea 8dbd d04c 97bd
000001a0: b1e0 90bc b4b2 8b3d 4555 0cbc 8013 b8bd
000001b0: 29f8 afbc 503e 9d3d 7b62 92bd 4784 d6bd
000001c0: 192d cebd 5264 5b3d d3a5 3f3d 28d6 d13d
000001d0: 3065 02bc 4144 aabc 3744 23bd de9c 07be
000001e0: 83f8 f0bd 79a7 c73d 22ef d83d b3c1 cabd
000001f0: a540 dd3d 7332 6d3c c9c7 ef3c 6ee9 a6bd
00000200: f15d 9cbd eba7 b6bd cc30 853c 7d78 b8bd
00000210: 3343 03be 2311 813c 8185 d2bd c88c 05bc
00000220: b80f fbbb 175f cebd d7c4 88bd 2866 013d
00000230: e536 4dbc 25c6 6c3d 5aa3 24bd 10df 103a
00000240: fac8 77bc cef0 83bd 91a9 d9bd 51aa cf3d
00000250: e9c3 cd3d fc7f df3c 8b78 243d e544 c53d
00000260: e427 de3d 72bd 213d 235b 6b3d e3a2 1bbc
00000270: aa44 f93c 626f ecbd 9ef7 063e f154 87bd
00000280: 3c79 af3c 1b50 823d 83d1 17bd 4e27 b7bd
00000290: f35a 07bd ff43 a13d 2708 8fbd 2a99 d9b9
000002a0: 67bb e13c 9feb 763c 9fd2 33bd 7c95 97bd
000002b0: cfc6 41bd b3f3 cfbd b297 74bd 0743 42bd
000002c0: 420b d43d f2c4 cc3d 9165 7b3c 0cd9 d2bd
000002d0: 019d 87bd 5575 fdbc 32a8 86bd c50d c8bc
000002e0: d3f7 133a 3347 9dbd 4a91 86bd 702f c23d
000002f0: 8964 b93d c259 51bd 393c 913d 8ccf a6bc
00000300: 8fa4 893d 8142 a73d cf2a 5fbd 1192 27bd
00000310: 77b6 803d 7183 023e 0141 e73d 2225 c5bd
00000320: 66ad c6bd 18e2 f4bd 3e8b 40bd 8d92 ddbd
00000330: 069b adbb 1d58 70bd 7e97 0f3e 0189 5e3d
00000340: 9a21 dbbc 8b4b 58bb 6382 ccbd e99a 84bb
00000350: 65e8 ce3d 8442 00be c9a7 8a3d 79bf 943c
00000360: d7a4 3b3d 6080 8cbd 9207 26bd 67d0 393d
00000370: 3dbe 953a a8b9 79bd 1861 813d 5994 8abc
00000380: 3acb d2bd 89f9 f4bd f971 4e3c 95c7 16bd
00000390: b592 9dbc c629 fb3c a25a 06be 0625 84bd
000003a0: fcab ac3d 73e7 2ebd 985a 1dbd e45f f3bd
000003b0: 463c fb3d 2c1a a7bd d094 61bd 1160 dfbd
000003c0: f96a d93d 1e8c b3bd 764b e73d 316e aa3d
000003d0: f9ff 8bbd 9e22 e43d 61ea 9bbb ec65 e33c
000003e0: 5cae ca3d 9abd c93d 9679 b23d 8cfc c23c
000003f0: 0bce a0bd 9b45 493d 64d2 90bd b327 8d3c
0.022905549 0.041316047 -0.009164715 -0.09488865 -0.04155553 -0.013888899 -0.01053975 -0.122333996
-0.025417574 -0.12213832 -0.047504965 0.029223915 -0.05939338 0.04443523 0.054800957 -0.09403295
0.000100899946 -0.026524683 -0.036528856 0.08074943 -0.025773155 0.029101627 0.1226573 -0.05044657
0.102642216 0.07900642 0.030665986 -0.06308701 -0.06156838 0.011340713 0.019723235 -0.09741484
0.048750527 0.0829116 0.05510614 -0.049507886 -0.04903912 0.06999182 -0.07114226 0.045120493
0.10852561 0.022672467 0.0691313 -0.02396078 0.04730223 0.07611054 0.06968588 0.08441419
-0.1104933 -0.069876745 -0.06993342 0.07094454 -0.07719833 -0.02577835 0.05222493 0.0034231301
-0.0038714285 0.01637332 0.07025474 0.069984175 -0.005794282 -0.06326202 -0.05796475 0.12239895
-0.017956099 0.12059574 -0.02498129 -0.008826675 0.06568956 -0.11536982 0.046260476 -0.16448346
-0.0018207415 -0.13265921 -0.07105065 -0.0727878 -0.003445132 -0.027921084 -0.019734504 0.11452332
-0.051125534 0.019675912 0.11138119 -0.034741838 -0.10642575 -0.06193725 0.07712258 -0.029394843
-0.041345667 0.06898639 -0.02380456 -0.04759078 -0.043125246 -0.1091168 -0.071131624 -0.1013875
0.069012955 0.096059896 -0.08280469 0.08764735 -0.055482604 0.023854053 -0.06929475 -0.07387698
-0.017685266 0.06821194 -0.008565252 -0.08988094 -0.021480637 0.07677901 -0.0714769 -0.10474449
-0.100671954 0.05356247 0.046789 0.10245925 -0.007958695 -0.0207845 -0.039859977 -0.13243434
-0.1176615 0.0974874 0.10592486 -0.099002264 0.108033456 0.01447736 0.02927007 -0.08149992
-0.076351054 -0.089187466 0.01625862 -0.09007356 -0.12818603 0.015755242 -0.1027937 -0.008151241
-0.007661786 -0.10076731 -0.06678169 0.031591564 -0.012525295 0.057806153 -0.040194847 0.0005526403
-0.0151236 -0.06442414 -0.10628045 0.10139907 0.100471325 0.027282707 0.04015402 0.09632281
0.10847452 0.03948731 0.05745996 -0.009499284 0.03042825 -0.11544682 0.13180396 -0.06607998
0.021420114 0.06362935 -0.03706504 -0.08943044 -0.03304572 0.07874297 -0.06983977 -0.0004150358
0.02755518 0.015070825 -0.043902036 -0.07401559 -0.04730874 -0.10153904 -0.05971498 -0.047427204
0.1035371 0.09998502 0.01534404 -0.10295305 -0.06621743 -0.030939737 -0.065750495 -0.024420628
0.00056445337 -0.07679596 -0.065706804 0.09481704 0.09052379 -0.05111099 0.07091565 -0.020362638
0.0672084 0.081669815 -0.054484185 -0.040910784 0.062848024 0.12745453 0.112916954 -0.09626223
-0.09701042 -0.119571865 -0.04700779 -0.10818968 -0.0052980212 -0.05867778 0.14022633 0.054329876
-0.02674942 -0.0033004011 -0.09985807 -0.004046787 0.101029195 -0.12525374 0.06770284 0.018157708
0.0458115 -0.06860423 -0.040534563 0.045364764 0.0011424493 -0.06096807 0.06317347 -0.01691644
-0.10292669 -0.119616576 0.012600415 -0.03681143 -0.019234994 0.030659568 -0.13120511 -0.06452374
0.08431241 -0.042701196 -0.038416475 -0.11883524 0.122673556 -0.08159289 -0.05507356 -0.10906995
0.106161065 -0.087669596 0.1129369 0.083217986 -0.06835932 0.11139415 -0.0047581648 0.027758561
0.09896538 0.09850617 0.08714597 0.023802064 -0.078517996 0.049138647 -0.07071379 0.017230844

_func._drift._model.2.bias f4 [16]
00000000: 4fd1 083d 3aca 973d aa32 e53d b62f a23d
00000010: 86de cc3d af51 00be bc88 82bc 4d1c b03d
00000020: 01b3 b93b 91a7 7a3c c624 1abd 1238 b7bd
00000030: a40f d33c 7807 8bbc 0b1f dc3d 4b12 f93d
0.033402737 0.074116185 0.11191304 0.079192564 0.100033805 -0.1253116 -0.01593434 0.08599148
0.005667091 0.01529874 -0.037632726 -0.089462414 0.025764294 -0.016971335 0.107481085 0.12161692

_func._diffusion._model.0.weight f4 [16, 17]
00000000: d8c4 bc3b 63d6 b4bd cdb9 71bc ee1b 2bbd
00000010: 159d e1bc 4004 b3bd 6387 1c3d cfbe 573d
00000020: 92c7 89bd 9bdc 97bd f068 86bc 63bd 063c
00000030: fe75 2abd 6ab0 e13d ad91 b13d cc0c 8f3d
00000040: 6e5e a5bd f5cd 8d3d 64f8 ed3c aae0 60bd
00000050: d8cb 8b3d 01d0 a3bd a583 acbd 4067 ec3d
00000060: 344c d23d 7ce3 e63c 625c 47bc 7718 e3bd
00000070: 1213 f8bb 411b 1c3d 91a5 7cbd 834c 94bd
00000080: 197d bdbd 3848 323d afa2 b7bd 7c18 1e3d
00000090: d842 543d fb05 303d a060 f83c 7f16 573d
000000a0: f552 85bd d958 6e3d 82f7 dd3c 12ad 9a3d
000000b0: 9d35 5fbc a7f2 84bd d2ef 1cbd 2743 21bd
000000c0: 8ef0 93bd 343b 32bd 17a7 c93d 2dc5 bf3d
000000d0: 67af 993d 10f7 d63d a5da 78bd a5f5 e3bd
000000e0: c43a 8dbd 7b59 a6bc 9fd2 fe3c f0ac 273d
000000f0: 17c0 e03b c774 86bc 729d 6b3d 690c b8bd
00000100: 3271 7fbd e0fd 91bd cfd8 c4bd 81d3 0a3c
00000110: 9928 733d 6497 9b3d 2e7b b93d f073 cd3d
00000120: 604f 0d3c b9c8 a3bd 7f8c d53d f73e 86bd
00000130: 5855 4abc c8bb c03c b03f c03d cf5d e13d
00000140: e1d0 e13d bb9e 9fbd 3bdc 953d eec8 6f3d
00000150: 4517 b03d bd8b e53c 6c2e 8dbd 105b 6d3c
00000160: b745 32bc 1ba5 983d ff2a b5bb 1de7 1abd
00000170: 9e3f 8a3d a600 c23d fdee 193d ef9d a33d
00000180: 4a7e f33d 4cb4 0fbd 12ee d1bd 02c3 ffbb
00000190: 4098 263d e400 c43d efa5 4dbd 27a5 79bd
000001a0: 53fc 8bbd 19a4 9a3d 4c3c d03d 2679 3abd
000001b0: e109 ca3c 4909 833c 7183 78bd 5c2c 4e3c
000001c0: 3bf5 95bd 6e9b 2cbd ec0f fc3b c23c bc3d
000001d0: 8193 b83d d298 f43c 3c00 6a3d 6c6b 983d
000001e0: 2783 85bd bc62 ca3d e0e2 f8bd 8518 fdbc
000001f0: c9ed 043d bbcb fe3c d436 83bd 7dc9 e73d
00000200: 7943 93bd 9a73 41bb fcdc e3bd c63f 8dbd
00000210: 4a68 2abd 2568 373d bec9 903c 8912 bdbd
00000220: 0036 09bd 54ee dc3d a069 933d 4ce6 dbbb
00000230: e475 6ebd fc10 923d 6cbc 333c d2b3 063c
00000240: a9fe 74bd 6917 cbbd 2c06 ea3c 3105 d4bd
00000250: 1e08 513a 7c53 013e e0b3 8bbd 961a 733d
00000260: 2338 b7bd 94d6 e23d 1dcb 003d 0975 dd3d
00000270: 19f9 d33d 51fb dd3d ea6f a6bd bc32 bbbd
00000280: 658c 0bbc e6bd d53d fa05 05bc 6746 02bd
00000290: a707 ac3d 35c2 e73d 9bd5 363d 1fff b5bd
000002a0: 5e52 dbbd 89cd 95bd ad22 bebd fa09 7c3d
000002b0: 487f bcbc 467a 9dbd 2fd7 9e3d 0b0e d83d
000002c0: 81a4 ab3d 35ac be3d 7961 afbd 0ee5 6dbd
000002d0: 4712 eb3d b450 173c 5055 9dbd 1622 cabd
000002e0: f9e6 d7bd 01f2 ee3d ad8e 9c3d ba1f 8dbd
000002f0: 2250 28bd 6304 243d 08fe 6d3d fd62 d9bd
00000300: 7feb 0a3d 2b96 0f3d a50e 853d 951d 5f3d
00000310: 2948 173d 7827 94bd 41b2 7abd 27e1 07bd
00000320: 7af1 89bd 1dfc a53d 0be4 c73d a4f6 d23d
00000330: b735 e93d 5f38 58bd ca22 c7bd 1812 7dbc
00000340: 4034 c13b 253d d83d 4683 1dbd aa5d f53d
00000350: 8466 60bd 2409 f3bd 3106 56bd 6c9d 3b3d
00000360: 4bbf 94bd 49bf e9bd e775 333c 2a6c a5bd
00000370: 2710 c9bc 238a 4b3d fafd 9c37 019f a63c
00000380: 38a1 913c 703e 1abd a770 97bd 9386 9abd
00000390: 12ab cbbd 68f6 7bbd f6f9 673c 7e1e e9bd
000003a0: 16f5 ddbd 0009 d03c abd1 97bd b16d c63d
000003b0: cf61 bf3d 869d fabc 0faa 553d 4df6 e2bd
000003c0: cc51 963d 3aee 88bc 007f b93d d6f4 a5bd
000003d0: 8b19 41bd bab7 e0bb f015 9d3c b588 a83d
000003e0: c54b 9dbd b4c6 5f3c b378 573d 1ac2 6ebd
000003f0: e761 2f3d 4f44 a73d 91bb 1e3d c9f8 26bd
0.0057607703 -0.088299535 -0.014753771 -0.041774683 -0.027540723 -0.08741045 0.038215052 0.052672204
-0.06727518 -0.07415124 -0.01640746 0.008223864 -0.041616432 0.110199764 0.086703636 0.06984863
-0.08074652 0.06924049 0.029049106 -0.054901756 0.068259895 -0.07998658 -0.08423547 0.11543131
0.10268441 0.028184645 -0.012168022 -0.11088651 -0.0075706327 0.03811193 -0.061681334 -0.07241156
-0.09252376 0.043525904 -0.08966576 0.03859757 0.05182156 0.042974453 0.030319512 0.05251169
-0.065099634 0.0581902 0.02709556 0.07552542 -0.013623622 -0.06491595 -0.038314648 -0.039370682
-0.072236165 -0.04351349 0.09846323 0.0936378 0.075041585 0.10496342 -0.06075539 -0.11130837
-0.06895974 -0.02030634 0.031106291 0.04093641 0.0068588364 -0.016413106 0.0575232 -0.08986742
-0.06236381 -0.07128501 -0.096116655 0.008473278 0.05936489 0.07597235 0.09056698 0.10031879
0.0086248815 -0.07997269 0.10427188 -0.06554978 -0.012349449 0.023527041 0.093871474 0.11004221
0.110261686 -0.07793947 0.07317396 0.05854123 0.08598188 0.028020734 -0.0689362 0.014487043
-0.010880879 0.07453366 -0.005528807 -0.037818063 0.06750415 0.0947278 0.037581433 0.07989108
0.11889322 -0.035084054 -0.102504864 -0.007805229 0.04067254 0.095704824 -0.050207075 -0.060948517
-0.068352364 0.075508304 0.10167751 -0.045525692 0.024662914 0.015995638 -0.060672227 0.012583818
-0.073221646 -0.042140417 0.0076923277 0.09191276 0.09012509 0.029858027 0.05712913 0.07442364
-0.06519156 0.09882113 -0.12152648 -0.03089548 0.032453332 0.031103006 -0.06406942 0.11317728
-0.07190604 -0.0029518367 -0.11126134 -0.068969294 -0.041603364 0.044777054 0.017674323 -0.09232051
-0.033498764 0.10787645 0.07197881 -0.006710803 -0.058217898 0.07132146 0.010970216 0.008221583
-0.059813175 -0.099165745 0.028567396 -0.10352553 0.0007973927 0.12629503 -0.06821418 0.059351526
-0.08946254 0.11076084 0.031443704 0.10813338 0.10350246 0.108389504 -0.08126815 -0.09140536
-0.008517359 0.10436611 -0.008119101 -0.031805422 0.08399897 0.11316339 0.044637304 -0.08886551
-0.1070907 -0.07314593 -0.09283958 0.061532952 -0.023009911 -0.076893374 0.07755887 0.105495535
0.08380986 0.0931019 -0.08563513 -0.05807977 0.114780955 0.00923555 -0.07682288 -0.098697826
-0.105421014 0.11667252 0.07644401 -0.06890817 -0.041092046 0.040043246 0.05810359 -0.10614584
0.033915993 0.03505532 0.06496934 0.05447157 0.03693405 -0.072340906 -0.061205152 -0.033173706
-0.06735511 0.081047274 0.097602926 0.10300949 0.113871984 -0.052788135 -0.09723432 -0.015446208
0.0058961213 0.105585374 -0.03845527 0.119807556 -0.054785267 -0.11866978 -0.052252 0.045804426
-0.07263049 -0.11413438 0.010953403 -0.08077271 -0.024543835 0.049692284 1.8714916e-05 0.02033949
0.01777707 -0.0376572 -0.073945336 -0.07545199 -0.099447384 -0.06151429 0.014158716 -0.11382769
-0.10837762 0.025394917 -0.07413038 0.09688891 0.093448274 -0.030592691 0.052164134 -0.110821344
0.0733982 -0.016715158 0.090574265 -0.081033394 -0.0471435 -0.0068578394 0.0191755 0.082292
-0.076804675 0.013658214 0.052605342 -0.05829058 0.042817976 0.08167326 0.038753096 -0.040764604

_func._diffusion._model.0.bias f4 [16]
00000000: 428b 9bbd 8057 a7bd 4d69 f1bd cc5e 83bd
00000010: f94d e8bd ecd9 0b3d 75d6 dabd 05c1 40bd
00000020: 43d7 993c bb49 9f3d fc55 bd3d 1ace e83d
00000030: ae2b 43bd 88e3 9b3a e6d0 65bd cc7d 823d
-0.07594921 -0.08170986 -0.11787663 -0.064145654 -0.11342997 0.034143373 -0.10685436 -0.047059078
0.018779403 0.07777735 0.09244916 0.11367436 -0.047649078 0.0011893371 -0.056107424 0.0637165

_func._diffusion._model.2.weight f4 [48, 16]
00000000: 6aae f0bc 68af 013c f18d 04bd a85d da3d
00000010: 3b45 e23d 8502 cc3d cb63 ea3a ed10 32bd
00000020: 007b b1bd a6fb d9bd f56b ce3d d619 a4bd
00000030: 1872 c2bd 636d 6a3d 7dd1 9cbc 0112 8dbc
00000040: a325 57bd 180b 89bc 86eb 273b 7295 06bd
00000050: 8bc1 d5bc 04fd 73bd c9c1 c0bd fca7 d13d
00000060: 77e6 d43d 9032 663c 3246 e8bd fe65 bf3c
00000070: 2f96 9abd 9056 db3d 2db8 85bd f6f5 34bd
00000080: d53d 98bd 9bbc dd3d 49d5 b0bc 7872 de3d
00000090: 80d7 e8bd 5ffd 8d3d e264 5fbb 9dab 6dbc
000000a0: 4ae0 c0bd d998 aebd 5e79 393d 3550 d7bc
000000b0: 5c8a c1bd dec6 b9bd 1daf 9fbd bbb4 d23d
000000c0: 0549 ac3d 2ed4 babc 44f3 c03d 28a0 45bd
000000d0: fc7a 0c3d 1d72 ad3d 69fd f1bd 38de 823d
000000e0: 2c6e ac3d 1b9e 0abd 6209 febd 5948 4a3d
000000f0: c3cf cc3c 5a95 7cbd 1483 a6bd f421 e2bd
00000100: 1185 4d3d 6b23 f4bd 21cb e8bd 706b d13d
00000110: a868 28bd 45c6 3dbd ac6e d73d fa1f 78bd
00000120: 5a7d f93d fe0f abbd 9c02 5ebd 47bb 11bc
00000130: 69d2 b9bd c544 fa3d 0ca1 1e3c d493 a23c
00000140: b9ce febc 415b a43d 064e eb3d 0787 d6bb
00000150: bfd8 51bd d33a 803d 3a40 68bd 2ce8 9ebd
00000160: 2d57 58bd 9135 333d f358 22bc 411b 39bd
00000170: fe86 50bd c9eb 2b3d 1e74 d0bd b91e 1ebb
00000180: cc02 33bc e23b 8ebd 3978 1cbd 8e64 c03d
00000190: bbfd 61bc 980a 7abc dfb1 8b3d cc8b 01be
000001a0: b7cc bebd 731f fb3d 544b b9bd 913f b33d
000001b0: 5a73 d4bd c8e8 ca3d b341 8e3c 4fce e03d
000001c0: f5a9 c7bd 7811 433c fa5d b5bd 3331 d2b9
000001d0: ec8e a0bc a206 c63d db4e ed3c c3c6 10bd
000001e0: 136d b8bd b3d6 953d 03ba ac3d 0489 4bbd
000001f0: 2223 423d 0c15 86bd d2a4 1a3d d93e b6bb
00000200: e143 4cbd c417 1e3d fa14 c0bd fec6 c93d
00000210: eb96 b2bc d238 e7bd 2ee3 cd3b 077c e73c
00000220: dc48 c3bc 84f2 cbbc 1e50 2fbd 6a25 46bc
00000230: bd02 03bd 3233 ebbc c7ce f9bc c57c 28bd
00000240: 98a0 6cbd 5cdf 46bd b8d2 fcbc c194 a23d
00000250: 5654 c33d 7900 f53c 82dd 493c 3d03 af3d
00000260: 052c b0bc d927 e93d 852e aabd 715b 863d
00000270: 96e7 23bc b8e9 783c e7ac d4bc 2441 06be
00000280: 0278 c33a ab08 54bd 8c1f 873d 4f7f cd3d
00000290: 6746 f5bd 6113 983d 0f21 b53c 1815 4bbd
000002a0: 9bfa 843d a69a 643d f499 b0bd 1eee 853c
000002b0: 1fe3 a8bd d470 d9bd 660d 83bc 4563 78bc
000002c0: 6a43 d6bc 7d50 65bc f2a3 78bb 870f fe3d
000002d0: cef6 b83d d5f9 ebbc e828 b73d 88d7 b1bd
000002e0: 23d4 da3d aa9b acbd 2fd3 25bc c3ba 6b3d
000002f0: afd4 8d3c 6194 45bd ac68 9ebd 69e6 c83d
00000300: a0d9 4f3d 6d90 49bd 1149 9dbd 10ca 6c3d
00000310: 73e2 1fbd 4c10 3c3c eda4 893d 7dae efbd
00000320: b722 dbbd 61d0 9f3c 7566 77bb 88c0 013e
00000330: 557b e2bc 914e 2abd 67dc abbd 9f35 aa3d
00000340: 5a61 803d 5d21 f13d a631 923d c1d7 22bd
00000350: fb07 e2bd cb5f 63bc 0286 b5bd f19e f3bd
00000360: 465f 3c3d 1bdd 77bb 1b2a e13d 23c8 9bbd
00000370: fc52 91bd b004 4e3d a0e8 9e3d ee11 323d
00000380: 8cc5 9bbd e406 eebc 0299 553d 53f0 57bd
00000390: 5199 93bd 59f2 223c 5676 bfbd 235b 5bbd
000003a0: a219 57bd ebf7 993d 61aa 7cbd b27b 9cbd
000003b0: 6399 873d e539 d83c 016e 463d 0af6 90bd
000003c0: 4867 8ebc 23dc c73c 2525 613c e713 0fba
000003d0: 1ad0 4dbd 04a0 da3d 437b 8a3d e7c4 c0bd
000003e0: 4762 993d 5695 c7bd f5bf bb3d f0ae 503d
000003f0: d361 373c e325 8c3a 67ed 703d 998c 07bd
-0.029380042 0.007915355 -0.03236193 0.10662395 0.11048361 0.09961418 0.0017882524 -0.043473173
-0.086660385 -0.10643701 0.10079185 -0.0801274 -0.09494418 0.057233226 -0.01914286 -0.017220499
-0.052526128 -0.016728923 0.002562256 -0.032857366 -0.026093265 -0.059567466 -0.094119616 0.102371186
0.1039552 0.014050141 -0.11341514 0.023364063 -0.075481765 0.1070987 -0.06529269 -0.04417988
-0.074336685 0.10826989 -0.021586077 0.10861677 -0.11369228 0.06933092 -0.003408723 -0.014506248
-0.0941778 -0.08525247 0.04528176 -0.026283363 -0.09450218 -0.09071134 -0.07797072 0.10288378
0.08412365 -0.022806253 0.09421399 -0.04824844 0.034296975 0.08469031 -0.11815912 0.06390041
0.08419451 -0.033842187 -0.124041334 0.049385402 0.025001412 -0.06166587 -0.0813047 -0.11041632
0.05017573 -0.11920818 -0.11366869 0.1022557 -0.041115433 -0.046331663 0.10519156 -0.06057737
0.12182112 -0.0835266 -0.054201707 -0.008894748 -0.09073336 0.12220148 0.009681951 0.01984588
-0.031104432 0.08025218 0.11489491 -0.006546858 -0.051232096 0.0626122 -0.056701876 -0.07759127
-0.052817512 0.043752257 -0.009908902 -0.045192007 -0.05090999 0.04197291 -0.101783976 -0.00241272
-0.01092596 -0.069450155 -0.03820059 0.09394179 -0.013793404 -0.015261315 0.068210356 -0.12650985
-0.0931639 0.12261858 -0.09047571 0.08752359 -0.10373564 0.09907681 0.017365312 0.1097685
-0.097492136 0.01190602 -0.08855815 -0.00040090978 -0.0195994 0.09669234 0.028968265 -0.035345804
-0.09005179 0.07316341 0.084339164 -0.049691215 0.047396787 -0.06546983 0.03775484 -0.0055616912
-0.049869422 0.038596883 -0.09379001 0.09852408 -0.021800479 -0.112901345 0.0062831854 0.028257383
-0.023838453 -0.024895914 -0.042801015 -0.012093881 -0.031985033 -0.028710935 -0.030494107 -0.041134614
-0.05777034 -0.048552856 -0.030862197 0.07938529 0.0953757 0.029907452 0.012320878 0.085455395
-0.021505365 0.113845535 -0.08309654 0.0656041 -0.010003945 0.015192442 -0.025961353 -0.13110787
0.0014913084 -0.05176608 0.06597814 0.10034048 -0.11976319 0.07425571 0.02211049 -0.049580663
0.06493112 0.055811547 -0.08623114 0.016348895 -0.08246445 -0.106172234 -0.0159976 -0.015160386
-0.026155192 -0.013996241 -0.0037939516 0.12405305 0.09031449 -0.028805653 0.08943349 -0.086836874
0.10684993 -0.08428128 -0.010121151 0.057551157 0.01731333 -0.04823721 -0.07734808 0.09809572
0.050744653 -0.04921 -0.07679952 0.05780989 -0.03903432 0.011478495 0.0672091 -0.11703203
-0.10699981 0.019508542 -0.0037750278 0.12671101 -0.0276467 -0.041578833 -0.08391648 0.08311009
0.06268568 0.11773942 0.07138376 -0.03975654 -0.110366784 -0.013877819 -0.088634506 -0.1189555
0.045989297 -0.0037820998 0.10994359 -0.076065324 -0.07095906 0.05029744 0.077592134 0.04347413
-0.076060385 -0.02905602 0.052147873 -0.052719425 -0.07206977 0.0099454755 -0.09348743 -0.05355371
-0.05251468 0.0751799 -0.061685923 -0.076407805 0.06621053 0.026394794 0.04844475 -0.07078178
-0.017383233 0.024396962 0.013741766 -0.0005457983 -0.05024729 0.10675052 0.067617916 -0.09412556
0.07489448 -0.097452804 0.09167472 0.050948083 0.011192757 0.0010692443 0.058820155 -0.03309307

_func._diffusion._model.2.bias f4 [48]
00000000: 4375 393d 5f94 e9bd d9ec 87bc 6489 633d
00000010: 90f8 713c 5792 1ebd 6f22 463d 3926 aa3d
00000020: d4fd dbbd 1be0 353c 56d1 3dbc fcac debd
00000030: cab2 b4bc 8f9d e93c 675c 8c3b 8378 c6bd
00000040: 3eb9 52bc 75cd b93d ca5a b4ba 28ea 653d
00000050: 65ac 703d 76c6 843d 6136 513d fed6 a3bc
00000060: 5961 ec3d 5fe0 db3c 1b29 91bd 9301 c73b
00000070: a786 e33d 90fa 913a a959 ce3d 839e 923d
00000080: d5e5 173d 5304 0dbc 19a9 36bd 5450 b03d
00000090: b0f5 debd eaf4 b5bd ca32 98bd b8e8 0fbd
000000a0: d24c 8c3d 2a60 e8bc a258 3a3b 99eb 94bd
000000b0: 7f7f d5bd 7acc c13c d0a4 99bb 2a73 593d
0.045277845 -0.11405253 -0.01659243 0.055550948 0.014768735 -0.03871378 0.048372682 0.08308072
-0.10741773 0.011100794 -0.011585554 -0.10872838 -0.02205791 0.028517513 0.004283476 -0.096909545
-0.012861548 0.09072391 -0.0013759967 0.056131512 0.05875816 0.06483166 0.05107725 -0.019999977
0.11542005 0.026840387 -0.07087918 0.0060731857 0.11109667 0.0011137296 0.10075695 0.0715914
0.03708442 -0.008606988 -0.044594858 0.086090714 -0.10886705 -0.08884604 -0.07431562 -0.035134047
0.0685059 -0.028366167 0.0028434177 -0.07271499 -0.104247086 0.023657072 -0.0046888366 0.053088345

_readout.weight f4 [1, 16]
00000000: 0833 7d3e 1bba 3d3e 692e 293d 2686 babc
00000010: ec47 67bd ad9b 46be 5c22 743d 817a 693e
00000020: 0bcf 74bc 481d 193e cb82 1a3e 9c51 42bd
00000030: f53e a63d de9f 2bbe 8fc1 573e 3575 fbbd
0.24726498 0.18528025 0.041304026 -0.022769045 -0.056465074 -0.19395323 0.05960308 0.22800638
-0.014941941 0.14952576 0.15088956 -0.04744111 0.08117477 -0.16760203 0.2106993 -0.12278215
