model_saves/generator_reverseHeun.pth (torch, 13595 bytes, 13 tensors)

_initial._model.0.weight f4 [16, 5]
00000000: 2437 753f 058e 87bf 9cca fc3e 8178 0c3f
00000010: 6b5c 693d 1d05 223f a8b9 9abf 1ee3 aa3f
00000020: 2c8e 15be 997f 9f3f 5cec 46bf 60d2 8e3e
00000030: 4ccc 89bf 7f0b 67be cee6 a43f 6fce 743f
00000040: 1060 423e 5211 9e3f b80e 153f 5baf b93e
00000050: ed0f 503d f0bb 8c3e ebea cf3e 5a44 f0bd
00000060: 7cdf 43bf 5192 9bbe 0a79 393e bd0c d53e
00000070: 8be1 933f 0594 8fbf 0429 85bf 457b dfbe
00000080: 9051 063f 7a95 7cbf b860 68bf 7b94 83be
00000090: 8c61 bfbc 6ec4 0c3f 7440 12bf fa8f 1ebf
000000a0: a5c4 ccbe 7de4 fdbe 8597 d53e 440a 43bf
000000b0: b02d a43e 568b 313e 9a4b 743e 1ed8 a93e
000000c0: dc8a 5dbf 9e13 793f 8aa1 7e3f 675e a5bf
000000d0: 102c 8abf 3f11 753f 61f0 a0bf b5e3 dd3e
000000e0: 811a df3e 9960 63bf ca92 0b3f 28b8 4ebf
000000f0: 8ad3 25bf 0b44 96bf e95f d4be a171 9cbf
00000100: 9f52 5abf 40f5 903e 65d4 3f3f 2ea1 e33d
00000110: bbb8 2dbe 9a06 3b3f ea21 993f 255b 70bf
00000120: a0d3 543f 027e b43c 75f9 ba3e ad39 c23c
00000130: b36b 79bf 0404 8dbe fb2c a93f 6403 1abf
0.9578726 -1.0590216 0.4937333 0.54871374 0.056972902 0.6328905 -1.2087908 1.3350561
-0.14605016 1.2460815 -0.77704406 0.27894878 -1.0765471 -0.22562979 1.2882936 0.9562749
0.18981957 1.2349036 0.58225584 0.36266598 0.050796438 0.27487135 0.40608916 -0.11731787
-0.76512885 -0.30385068 0.18112579 0.4161128 1.1553205 -1.1217047 -1.0403142 -0.43648735
0.52468204 -0.98665583 -0.9077258 -0.2569922 -0.023361944 0.5498723 -0.571296 -0.6193844
-0.39993778 -0.49588385 0.41717163 -0.7618754 0.32066107 0.17338309 0.23856965 0.33172697
-0.8654001 0.9729556 0.9946524 -1.2919434 -1.0794697 0.9572944 -1.2573358 0.4333779
0.43574908 -0.8881927 0.5452086 -0.8074975 -0.6477591 -1.1739515 -0.41479424 -1.2222177
-0.8528232 0.2831211 0.74933463 0.11114727 -0.16965 0.7305695 1.1963475 -0.93889076
0.83135414 0.022032741 0.36518446 0.023709143 -0.9742996 -0.27542126 1.3216852 -0.60161424

_initial._model.0.bias f4 [16]
00000000: 2266 423f 4b7a 413f 8731 a4bf c14d 413f
00000010: 4587 0f3f c345 4c3f 7b2a 833f c9e0 8fbf
00000020: 7d2c 2f3f d3c3 21bf 4eca a13f 5c4a a6bf
00000030: f21a 9f3f 5f91 093f 6060 4abf 97ee 86bf
0.7593709 0.7557723 -1.2827615 0.7550927 0.5606578 0.7979395 1.0247339 -1.1240474
0.6842726 -0.6318943 1.2639863 -1.2991443 1.2430098 0.53737444 -0.79053307 -1.0541562

_initial._model.2.weight f4 [16, 16]
00000000: 3e3f 143e 5155 9dbe 2fbc d7be a939 1fbf
00000010: 59d7 3f3e 685f d53e 60f1 abbe f65a 6fbe
00000020: 1820 16bf 0bf5 b03e 7be3 2c3d f307 babe
00000030: 327f e0be 4814 0c3f c801 b5be a089 933a
00000040: 3075 063f 1b0f 183f bcae 593e 5af9 1f3f
00000050: 6877 7abe ea81 9c3e 23c1 b0be 8bbc 1d3f
00000060: 1bcd 84be 7c5c 3fbf 86ba 2dbe 0b6e 89be
00000070: cf42 0ebf cd57 8bbe 101c ce3e 52d5 c5be
00000080: 4459 383e 954f a8be 003b f8be d131 973d
00000090: 3c39 48be 7070 3a3f 98ef 1e3f 8552 09bf
000000a0: 8e99 a0be fa13 08bf 6d55 153e b12e d4be
000000b0: 7047 3abf dbf8 fc3e 07e3 7d3e cbde 1dbf
000000c0: b126 8a3e 53e1 323f e66f bb3e a82d 25bf
000000d0: 94b5 59bd 318b c83e 25af 8abe 3770 b9be
000000e0: b96e 1b3f 130d b7be d6a1 f43e 8648 02bf
000000f0: 65ce cbbd 44d9 0ebf c6bc 163e eed6 39bf
00000100: 665c 653d deec d1be 5302 70be 2cbe cabe
00000110: 1205 2dbc 2497 993e 7ef9 7f3e 6b48 0a3f
00000120: 0265 3abf f9b2 31bf 8618 e63d 46ee 6fbc
00000130: afaa 003e 7b37 313f 0769 60be 97fb 303f
00000140: 23e8 1abf a4d4 37be 3181 cdbd 3dc7 01bf
00000150: 8c7c 1ebf 01d9 09bc 4eb1 1bbf 0ee7 1f3b
00000160: 43a5 2abf 8376 06bf b7df 04bf e77c 1e3f
00000170: 712f 25bf 62ea 053e 9816 3fbe 83a9 0abf
00000180: a1ec 01bf 813d 83bd f009 a0be 742b 8ebc
00000190: 873f 123f 2191 08bf b640 73be a6c7 073f
000001a0: d927 173f 47e6 40bf bb50 4a3e 9218 13bf
000001b0: fe4f 9e3e 6485 2d3f 3be5 5c3e 3e47 cb3e
000001c0: 363c 0e3e bbaf 23bf 3fb4 7b3e 7df4 6fbe
000001d0: 6179 ce3e 0cd7 143f 6eea de3e a2b5 103f
000001e0: cc1c 7fbe 4310 6e3e 08f6 a6be 272e 173e
000001f0: 8281 cdbd e5a3 b0bb 5987 dcbd 7d82 2f3f
00000200: 153b 063f 1932 b23e 2e47 073f e2c9 34bf
00000210: 117b 513e 30ad 7b3e f92f a53e 6907 67be
00000220: 0984 0a3f 37d0 d83e 2149 343f 4124 1ebf
00000230: 2e34 4b3e 2648 033f f1ed 15bf 16fc d7be
00000240: d887 1dbe 2371 1fbf 3ce1 5ebd 6085 d4bd
00000250: 82f6 ac3e 5e36 54bf a5bf 483e b3f0 06be
00000260: ed24 2cbf d931 39bf 0fc9 573e d1a4 bcbe
00000270: 89b5 b53e 6c02 543e 52df 2d3d 507f febe
00000280: 5d56 1d3f 9801 053f d74b ab3d d09e 82be
00000290: 9f3d 523e 8878 0e3d 3b20 58be 1e3d 4b3d
000002a0: 6d16 2abf 865f 32bf 3dac 613e 8d50 0c3d
000002b0: 431c bc3e 710a 583e 5b92 313f 3533 2bbf
000002c0: d2f9 25bf 9197 27bd 8e18 ecbe 88b2 bbbe
000002d0: bb29 f73e 857b 31bf 2ba7 e83e 62e9 db3d
000002e0: c722 d73e 1fd3 84bd c01a ebbe 5de8 94be
000002f0: c748 1bbf 9d43 d93e 9cdc 563c fc59 f03e
00000300: 9a3c b73e cf49 2c3e 4080 17be 4561 1a3f
00000310: 1b99 6bbe 2dcd 383e b50e 18bf 2dfe 1cbf
00000320: 9b0c 9fbe 8775 74be a7b1 0dbf 54f4 bfbe
00000330: da3e b73d b33d 2d3f a202 233f 323f 4a3e
00000340: 711e 693d 146d 193f fd27 17bf c415 043e
00000350: ad25 a43d 7477 f4be 0515 383f 808b 11bf
00000360: 6657 d4be 9eb9 3a3f 4bc7 023e f9b0 70be
00000370: 65ce 46be b831 b8be 1329 a43e bf9e dcbe
00000380: 862b 813e 572e f43e 1b67 edbe f4a2 b1be
00000390: 3736 2b3f 3646 0d3f a04a 16be 15c7 a6bd
000003a0: 13fa 2cbf ca41 13bd 43c3 1a3f 0772 283f
000003b0: cb0f fd3e 1c4c 143f 3065 093f 42d2 e93e
000003c0: 01ed 87be 7a91 093e fde8 a33e 57c4 20be
000003d0: 6201 4d3e d5ca 103f 349d 893e 14d0 113f
000003e0: 09ad 1f3d 4af8 00bf 516b 773e 6d2c ac3e
000003f0: 2825 73bc e289 dd3e 2058 f03e 1a29 81be
0.1447725 -0.30729154 -0.4213576 -0.6219736 0.18734492 0.41674352 -0.33582592 -0.23374543
-0.5864272 0.34561953 0.04220913 -0.3633419 -0.43847042 0.54718447 -0.3535292 0.0011256225
0.52522564 0.5939805 0.21258062 0.62489855 -0.24459612 0.30567867 -0.34522352 0.6161582
-0.25937733 -0.74750495 -0.16965684 -0.2684177 -0.5557069 -0.27215424 0.40255785 -0.38639313
0.18002802 -0.32873216 -0.48482513 0.073825486 -0.19553083 0.72827816 0.6208434 -0.5364154
-0.31367153 -0.5315548 0.14583369 -0.41441873 -0.72765255 0.49408612 0.24793635 -0.6166808
0.26982644 0.6987507 0.3660881 -0.6452279 -0.053151682 0.39168695 -0.2708675 -0.36218426
0.60715824 -0.35752162 0.4777972 -0.5089191 -0.09951476 -0.5580027 0.14720449 -0.7259358
0.05599632 -0.41001028 -0.23438387 -0.39598215 -0.010560291 0.29998124 0.24997517 0.5401675
-0.72810376 -0.69413716 0.11235146 -0.014644211 0.1256511 0.6922528 -0.21915065 0.69133896
-0.6051046 -0.1795221 -0.10034407 -0.5069464 -0.61908793 -0.008413554 -0.6081742 0.0024399194
-0.6665842 -0.52524585 -0.5190386 0.61909336 -0.64525515 0.13077691 -0.18660963 -0.54164904
-0.5075169 -0.06408215 -0.31257582 -0.017354704 0.57128185 -0.5334645 -0.23755154 0.53039014
0.5904518 -0.75351375 0.19757359 -0.57459366 0.30920404 0.6778166 0.2157182 0.3970279
0.13890156 -0.6394002 0.24580477 -0.23433109 0.4032698 0.58140635 0.4353823 0.5652715
-0.24913329 0.23248391 -0.32609582 0.147637 -0.10034467 -0.0053906315 -0.10768003 0.68558484
0.524339 0.34803846 0.52842987 -0.7062055 0.20457102 0.24577785 0.32263163 -0.2256142
0.5410772 0.42346355 0.70424086 -0.6177407 0.19844124 0.51281965 -0.58566195 -0.42184514
-0.15383852 -0.6228201 -0.05441402 -0.10377002 0.3378182 -0.8289546 0.19604357 -0.13177757
-0.67243844 -0.72341686 0.21072792 -0.36844495 0.35490063 0.20704049 0.042449303 -0.49706507
0.61459905 0.51955557 0.08364075 -0.2551179 0.20531319 0.034782916 -0.21106045 0.049618833
-0.6644047 -0.6967701 0.2203836 0.034256507 0.36740312 0.21097733 0.69363946 -0.6687501
-0.6483432 -0.04091603 -0.46112484 -0.36659646 0.48274025 -0.693291 0.4544004 0.107378736
0.4201872 -0.06485581 -0.45918846 -0.2908353 -0.60657924 0.42434397 0.013114121 0.46943653
0.35788423 0.1682503 -0.14795017 0.6030467 -0.23007624 0.18047018 -0.5939744 -0.6132534
-0.31064305 -0.23872958 -0.553492 -0.37491095 0.08947535 0.6767227 0.6367589 0.1975067
0.056913797 0.59932065 -0.5904539 0.12898928 0.080149986 -0.47747386 0.71907073 -0.56853485
-0.4147293 0.7293948 0.12771337 -0.2350501 -0.19414671 -0.35975432 0.32062587 -0.43089864
0.25228518 0.47691604 -0.46367726 -0.34694636 0.668796 0.5518526 -0.14676905 -0.08143441
-0.6756908 -0.035951413 0.60454196 0.6579899 0.49426112 0.57928634 0.53670025 0.45668226
-0.26548007 0.13434401 0.32013693 -0.15699898 0.20020059 0.565595 0.2687775 0.5695813
0.03898338 -0.5037886 0.24162032 0.33627644 -0.014840402 0.4326926 0.46942234 -0.2522667

_initial._model.2.bias f4 [16]
00000000: fa3f 113d 55a1 723d 45e5 7d3e d6c5 fbbe
00000010: 971f 1abf 3d95 8ebe 5d85 f1bd 354c 9dbe
00000020: c33e d33e c470 d2be 6b04 db3e e788 a8be
00000030: 244b 573e 3e7e 443f 9322 3fbf c872 b8be
0.035461403 0.05923589 0.2479449 -0.49174374 -0.6020445 -0.27848235 -0.11793015 -0.30722204
0.4125882 -0.41101658 0.42776808 -0.32916948 0.21024758 0.7675513 -0.7466213 -0.3602507

_func._drift._model.0.weight f4 [16, 17]
00000000: 289e a0bd 2bf6 c93d 5b4d 883d 0335 b6bd
00000010: d4a0 3d3d 49cf 57bc 4730 efbc 4749 a9bd
00000020: ce6d e6bd b861 6cbc 55a2 5ebd 0d90 d9bc
00000030: 448a 97bd 7d34 c8bc 862f d2bd 3cb2 743a
00000040: 0443 863d 6e04 993b 1393 553c f2ec 2c3d
00000050: 1c44 dbbd de73 aa3c e39b d33c f4f6 313d
00000060: 16ff 96bb b364 66bd 8f89 c3bd 470d 8abd
00000070: 2a89 a23d 22a4 b3bd 99c9 5cbc f5fe 17bd
00000080: 9156 59bb 5f32 a0bc 0511 9f3d 828a bbbd
00000090: ed3e faba f9cd 95bc 9a0c 123d 81c7 d93d
000000a0: 1dbc 523d 1c5e df3d 95b0 c03d c13b e43d
000000b0: 38eb 803b 2e7a 26bd dc87 12bd 1cd0 f0bd
000000c0: 2a29 213d ccc9 8fbd 0cb2 c1bd 62f7 f3bd
000000d0: 0e63 68bd bb3f ed3d 0508 babd dba1 41bd
000000e0: cc53 6d3d 4f40 49ba 9411 873d a5fc 3cbd
000000f0: 9896 8dbd 3fd5 80bd 3fe7 7c3c 25d4 b5bd
00000100: 6bca 16bb dd5a 603d 2bce bb3d 43ac 863d
00000110: 5934 603d 5c1a 94bd cf27 cdbc 89cf ad3d
00000120: 6f4d fb3c 5154 363d 42c9 c33d 2142 d33d
00000130: 0670 a4bd 182a 8dbd 5f71 92bd 132a a9bd
00000140: b8c0 4e3d 681c e0bd 018d 9f3b a5c1 4cbd
00000150: 3952 98bd d3e8 e93d bd61 e23d ce4e b53d
00000160: 8ddf 6d3d 2cff 91bd e97e 56bd d809 92bd
00000170: 785b 9f3d df8e 4cbd fa70 a93d 95f8 4d3d
00000180: 032b e63d 7eaf 0bbd 3da9 eebb 9282 5b3d
00000190: 75e3 0ebd 66c4 b53d 8052 043d d306 47bc
000001a0: 0c1c e53c 8b94 69bd a486 c7bd b217 04bd
000001b0: b176 d93d 3f45 993d c51b 1d3c 0849 5bbc
000001c0: bb75 ccbc ee22 a23d 888f 993d 2f99 edbd
000001d0: bc9f c1bd 7e17 7d3d 3bb2 7c3d aa22 a0bd
000001e0: d028 7fbd 6cbb bc3c fd41 a53d a827 f5bc
000001f0: 61ed e03d f4ca 3d3c abe2 d23d 1baf 44bc
00000200: 52ed 1c3d 2c5e 31bd 91a1 ed3c c00f 6abc
00000210: b5dd c7bd d992 d13c 16ee f03d 93f3 943d
00000220: db3e b93d edeb c53d 6762 9cbd 0f81 a3bd
00000230: c36a 4abd 295e 13bd 57c1 61bd caf5 30bd
00000240: e3a9 963d 1728 9a3d c176 83bd ed29 613d
00000250: ffb3 4a3c 9f30 fb3d 3fbd 923d 6d73 eb3d
00000260: 0bfe f3bc eecf 823b 68b8 e43d d143 c2bd
00000270: e369 803d d70c 513d e995 d33d 4995 c9bd
00000280: 65ea eabc b890 a63d e633 73bd d650 6abd
00000290: ec60 acbd e205 663d 6d7a bdbc 78e3 2d3d
000002a0: bd5f 513d 7d2d bcbb 3cd8 8e3d 1316 44bb
000002b0: ea57 e2bc c836 2c3d 1d7d cabd 0e35 543c
000002c0: 564f a73d b202 553d 23b9 97bc 6467 e9bd
000002d0: 090c 7a3d fc46 3a3d bc3c 113e 49fd 933c
000002e0: 788f 12bd 68f1 74bd f1ed 9e3d 1db8 04be
000002f0: 9e23 d83d e1e6 fcbc 37d5 e3bc 304b cf3d
00000300: f9b3 a63d 1838 9cbd 7dcc 9f3b c7a3 96bd
00000310: 8a22 a23d 56e7 98bc c1d5 9d3d cf4d 123d
00000320: 24c8 4f3d 82bf bbbc 1363 02be 17a4 fdbb
00000330: cfbb 753d 1fc5 bcbd 9587 6d3d d2cf a03d
00000340: ab3c dd3d 9be2 693d 014a cb3d f714 9c3c
00000350: 2aed 3abd 65c0 0dbc 5b09 ad3d a901 cd3c
00000360: 4c84 80bd f2f4 c33d 8afb 283d c516 c43d
00000370: d67a e83c d618 e5bd b566 a23d be85 053d
00000380: 54a5 943d fcb7 9e3d 906e c2bc 085a b73d
00000390: 1f17 c7bd 1cac 07bd 6e30 b93d 0757 733d
000003a0: e588 8abd b274 e3bd b3b3 03bd c190 923c
000003b0: f6ba 543d 4bd9 38bd ffec 9dbd 06df eabc
000003c0: 8997 9bbd 69de 1d3c 9f08 adbd 46d1 dcbd
000003d0: 77ba a2bd bd68 7ebd b891 97bd 7fed 0e3e
000003e0: af0a 4fbd 4d8f e5bc 2e5f 04bd 7800 273d
000003f0: 463c 4f3d 4425 acbd b7f9 a9bd 535e b83c
-0.07842666 0.09861406 0.066553794 -0.0889683 0.046295956 -0.013171979 -0.029197825 -0.0826593
-0.11251412 -0.014427595 -0.05435403 -0.026557947 -0.07399419 -0.02443909 -0.102629706 0.00093344203
0.06555751 0.0046697175 0.0130355535 0.042218156 -0.1070635 0.020807203 0.025831169 0.043448403
-0.0046080453 -0.056248378 -0.095477216 -0.06740814 0.07936318 -0.0877154 -0.013475799 -0.03710838
-0.003316317 -0.019555269 0.07766918 -0.09157278 -0.001909224 -0.018286692 0.03565655 0.106337555
0.05144893 0.10906622 0.0940868 0.1114421 0.0039342903 -0.040643863 -0.035774097 -0.11758444
0.039345898 -0.070209116 -0.09457788 -0.11912419 -0.05673509 0.11584421 -0.09083561 -0.047273498
0.057941243 -0.0007677124 0.0659515 -0.046139378 -0.06913489 -0.062906735 0.015435993 -0.08878354
-0.0023008834 0.054774154 0.09170183 0.06575825 0.054737423 -0.0723159 -0.025043396 0.0848685
0.030676572 0.044514004 0.09559871 0.103153475 -0.08029179 -0.06892794 -0.0715053 -0.08259978
0.05047676 -0.10942918 0.004869104 -0.04998936 -0.07437558 0.11421361 0.11053798 0.088529214
0.058074523 -0.07128748 -0.052367125 -0.07130784 0.07781118 -0.04994094 0.08273502 0.050285894
0.112386726 -0.03410291 -0.0072833584 0.05359132 -0.03488489 0.08875351 0.03230524 -0.012147623
0.027967475 -0.057026427 -0.097424775 -0.03224916 0.10618342 0.07483911 0.00958914 -0.013384111
-0.024958482 0.079168186 0.074980795 -0.11601483 -0.09454295 0.061789982 0.06169341 -0.07819112
-0.06229478 0.023038588 0.08069227 -0.029926136 0.109827764 0.011584032 0.1029714 -0.012004639
0.038312264 -0.0433027 0.029007705 -0.014285982 -0.09759084 0.025582718 0.11764161 0.072730206
0.09045192 0.0966414 -0.07635956 -0.079836 -0.049418222 -0.03597847 -0.055116024 -0.043203153
0.07356622 0.07527178 -0.06419135 0.054971624 0.012372016 0.12265133 0.07165002 0.11496625
-0.029784223 0.0039920723 0.11167985 -0.09485591 0.06270196 0.051037636 0.103313275 -0.09842927
-0.028676221 0.08133072 -0.059375666 -0.057205997 -0.08416924 0.056157954 -0.023129666 0.04245326
0.051116694 -0.0057427273 0.06974837 -0.0029920384 -0.027629811 0.04204443 -0.09887145 0.012952102
0.08169429 0.052004524 -0.018520897 -0.11396673 0.061046634 0.045477852 0.14183325 0.018065112
-0.035781354 -0.059800535 0.077602275 -0.12960859 0.105536684 -0.03087181 -0.02781163 0.10121763
0.08139796 -0.076278865 0.004876672 -0.07355457 0.07916744 -0.018664997 0.07706786 0.035718735
0.05072798 -0.022918466 -0.12733106 -0.0077405083 0.05999356 -0.09217285 0.05799063 0.078521386
0.10802587 0.057100873 0.099262245 0.019052966 -0.045636334 -0.008651827 0.0844905 0.025025206
-0.062752336 0.09568204 0.04125551 0.095746554 0.028378885 -0.11186378 0.07929746 0.03259825
0.07258096 0.07749936 -0.023734361 0.08952719 -0.09721207 -0.03312312 0.0904244 0.059409168
-0.06764392 -0.11106242 -0.032153796 0.01789129 0.051936112 -0.0451291 -0.07711219 -0.028670799
-0.075972624 0.009635546 -0.0844891 -0.10782103 -0.079457216 -0.062111605 -0.074008405 0.13957785
-0.050547298 -0.028022433 -0.032317333 0.04077193 0.05059459 -0.08405545 -0.082995825 0.022505915

_func._drift._model.0.bias f4 [16]
00000000: 09b0 d9bd e9fd 633c f704 43bd ef42 d0bd
00000010: ade5 0a3e 0544 d43d 120f 6abd 545b cfbb
00000020: 1b6c bd3d dcb8 f53d 9661 0c3c 5a01 11bd
00000030: a237 143b c485 99bd 6c1f 5a3d 73b0 68bd
-0.10629279 0.013915517 -0.047612157 -0.101690166 0.13564177 0.10364536 -0.05714328 -0.006328026
0.09249135 0.1199815 0.008568188 -0.03540168 0.0022616168 -0.07496217 0.053252622 -0.0568089

_func._drift._model.2.weight f4 [16, 16]
00000000: c0ae da3c fc70 313d f8aa 61bc ddf1 b9bd
00000010: d59f 34bd ea8f 70bc 52cd 4cbc 45e3 edbd
00000020: 8542 dfbc 866c f5bd ac60 53bd 42aa f73c
00000030: 18a7 74bd 07cc 4c3d 6db3 453d 2f98 bfbd
00000040: 911a 393b e9fd cdbc b628 20bd 1ebf a93d
00000050: 1362 e1bc ac18 ec3c cb2b f53d 68bb 3bbd
00000060: 3dc0 d03d ba00 a53d 5fde e83c 5f95 7cbd
00000070: 6758 7abd f8ad 763c 5aeb 923c 7afb c4bd
00000080: c95d 5e3d 0220 b83d 87e1 583d e515 33bd
00000090: 0fad 36bd b3a4 843d d58a 84bd b09b 333d
000000a0: 90a4 d13d 26ff a03c 6796 883d 9690 8cbc
000000b0: 63cb 343d bd01 aa3d a9d7 803d 2902 aa3d
000000c0: 2d40 ebbd f22d 97bd 20d9 85bd 5b7e 843d
000000d0: 2040 9ebd f539 c2bc 584d 483d 4bba fdb7
000000e0: c76a 95ba 770c 683c 1303 923d 6742 893d
000000f0: c04b acbb 4713 8fbd 300b 51bd 6d38 fb3d
00000100: 4fd2 abbc eb54 f53d 0adc 94bc 5505 51bc
00000110: 7b25 913d 7ae1 efbd d189 433d 96ab 23be
00000120: 74ce 70bb 5304 05be 3412 94bd 5e18 93bd
00000130: d6b3 b5bb 0dba fbbc 3b08 88bc fbaf e63d
00000140: e526 63bd f830 8e3c 2970 ee3d e51a 22bd
00000150: 0fc5 d3bd bc68 79bd 6277 a23d 6751 11bd
00000160: 7c42 21bd 0f88 883d 13e5 a2bc cffc 47bd
00000170: eef6 2fbd 771c ecbd 8d41 85bd c9ce d0bd
00000180: 30bb 933d cc67 d13d 9bfb 99bd c90f b53d
00000190: 6b60 48bd e8cf 9b3c cc4d 85bd 193d a0bd
000001a0: ae7c b9bc ea82 8b3d 1acc 35bc 5cb5 a8bd
000001b0: c6dc c5bc 95a5 9c3d 256a 8fbd 9cf0 dabd
000001c0: 9799 c9bd 74f2 5e3d 8017 383d b2a1 d53d
000001d0: e0f4 1fbc f7a5 a9bc de30 2dbd 0943 01be
000001e0: 6764 f2bd 6def cc3d ba4e d33d 8148 cabd
000001f0: e82b de3d ba6f 943c 5dbb d73c 5ed9 a4bd
00000200: 92a0 9ebd 4e68 b7bd d5b5 973c c179 bbbd
00000210: 27a0 01be 650c 7e3c ea22 cbbd 434b 3bbc
00000220: 361f edbb 81db d1bd dab4 84bd ee45 fa3c
00000230: 408f 56bc f4d0 663d 8cc0 2cbd 8cbf 53ba
00000240: c2d4 47bc a535 81bd f605 e3bd 5bae d63d
00000250: 72cf c73d 34e8 df3c a44b 1b3d 8072 d23d
00000260: 1149 dc3d 0fdc 2c3d 63b2 5e3d 9434 18bc
00000270: a0a0 fe3c b9b7 e2bd b82c 003e 68ed 84bd
00000280: 5156 cb3c 8f67 883d c446 2abd cd35 afbd
00000290: d38d 09bd 8b92 9e3d 2765 91bd 8097 5d3b
000002a0: 8361 d33c d1be 893c edb5 3dbd bef2 91bd
000002b0: e2ca 42bd e940 c7bd 0297 86bd 9c4f 40bd
000002c0: 0787 cd3d f7ed cd3d 5ff4 653c 343c d7bd
000002d0: a61d 81bd 901f ffbc 5005 81bd 4ea3 eebc
000002e0: 553b 29ba a01a a1bd 3a7f 81bd 7f89 c53d
000002f0: 372a b93d 0da5 65bd b061 903d 9338 a5bc
00000300: b82e 923d b4df ab3d 1419 86bd f9f6 11bd
00000310: 766b 703d 7a02 033e 4f5f df3d 59d7 bbbd
00000320: 79a9 c6bd 23d7 f1bd 203f 4ebd feec dcbd
00000330: 2a0d 81bb 2813 5abd 8583 073e 151a 683d
00000340: 7f8a d7bc 99b5 40bb 03be d8bd bdc1 f739
00000350: c562 cb3d cc9a fdbd 7a6b 903d a573 c13c
00000360: b82b 3c3d 24ae 8dbd 3b6f 19bd d5e3 283d
00000370: 15e4 c23a 2134 6cbd b853 6f3d 03fe 9abc
00000380: 764c cfbd 8ed7 ecbd 6dca 893c 8bd9 15bd
00000390: a498 7dbc c877 e73c 2621 04be 3c92 7cbd
000003a0: 16cc a63d dcf9 2cbd f672 29bd 279b e7bd
000003b0: 95de f83d 5da2 a4bd 8818 5ebd bbc7 dfbd
000003c0: b503 db3d dfb7 acbd 1fce e03d 3b84 b33d
000003d0: 684d 81bd 3411 dd3d 9d1d 0e3b 090b da3c
000003e0: 66b6 c03d d0c9 c43d b6aa b73d bfdb d53c
000003f0: a1e7 a7bd 3627 493d 9c9a 9bbd 01d9 543c
0.026694655 0.04332064 -0.013773672 -0.09079335 -0.04409774 -0.014682749 -0.012500124 -0.11615614
-0.027253399 -0.1198359 -0.051605865 0.030232552 -0.059729666 0.049999263 0.048266817 -0.093551986
0.0028244595 -0.025145488 -0.039101325 0.08288406 -0.027512586 0.028820358 0.119712435 -0.04583302
0.101929165 0.08056779 0.028426347 -0.06166589 -0.061119463 0.015056126 0.01793449 -0.09618278
0.05428866 0.0899048 0.052949455 -0.043722052 -0.044598635 0.064767264 -0.064717926 0.043849647
0.10236466 0.019652914 0.06669312 -0.017158788 0.044139277 0.08301113 0.06291134 0.08301193
-0.1148685 -0.0738181 -0.06535554 0.06469413 -0.077270746 -0.023709277 0.048901886 -3.02467e-05
-0.001139962 0.014163128 0.071294926 0.06702118 -0.0052580535 -0.06986099 -0.05103606 0.12266622
-0.020974306 0.119790874 -0.018171329 -0.012757619 0.07087227 -0.11712928 0.047738854 -0.15983424
-0.003674415 -0.12989931 -0.072300345 -0.07182382 -0.0055451198 -0.030728364 -0.016605487 0.11264034
-0.055457015 0.017357334 0.116424866 -0.03957643 -0.1034032 -0.060890898 0.07932927 -0.035478022
-0.039370045 0.06666576 -0.019884622 -0.04882508 -0.0429601 -0.11528867 -0.065066434 -0.10195691
0.072134376 0.10224876 -0.07518693 0.088409014 -0.048920076 0.019020036 -0.06508979 -0.078241535
-0.02264246 0.06812079 -0.011096025 -0.082377166 -0.024153125 0.0764877 -0.07002667 -0.10690424
-0.09843748 0.05443044 0.044944286 0.104312316 -0.009762973 -0.020709021 -0.04228293 -0.12623228
-0.118355565 0.10006604 0.1031775 -0.0987711 0.10848218 0.018119682 0.026334459 -0.08049272
-0.0774547 -0.089554414 0.018519321 -0.09154082 -0.1265875 0.015505885 -0.09918769 -0.011431518
-0.0072363866 -0.10246945 -0.06479807 0.030550923 -0.013095677 0.056351617 -0.042175815 -0.0008077554
-0.0121967215 -0.0630906 -0.11085121 0.104824744 0.09756364 0.027332403 0.037913933 0.102757454
0.10756124 0.04220205 0.05436934 -0.009289879 0.031082451 -0.110701986 0.12517059 -0.06490594
0.024821432 0.06660377 -0.041571394 -0.085551836 -0.03358252 0.077427946 -0.070993714 0.0033812225
0.025803333 0.016814621 -0.046316076 -0.071263775 -0.047556765 -0.097291775 -0.06571771 -0.04695092
0.1003552 0.10055154 0.014035313 -0.1050953 -0.06304483 -0.03114298 -0.062998414 -0.029130604
-0.00064556795 -0.078664064 -0.06323095 0.09645366 0.09041255 -0.056065608 0.070498824 -0.020168578
0.07137817 0.08392277 -0.06547752 -0.035635922 0.058696233 0.12793913 0.109068505 -0.09171934
-0.09700293 -0.11808612 -0.05035317 -0.1078739 -0.003938337 -0.053240925 0.13233764 0.0566655
-0.026311157 -0.0029405116 -0.10583117 0.00047255857 0.09930948 -0.12383041 0.070517495 0.023614714
0.04594013 -0.0691798 -0.037459593 0.041232903 0.0014868999 -0.0576669 0.05842945 -0.01891995
-0.10122006 -0.11564551 0.016820157 -0.03658442 -0.015478287 0.028255358 -0.1290327 -0.061662897
0.08144395 -0.042230472 -0.0413694 -0.1130889 0.12151829 -0.08038781 -0.054222614 -0.109267674
0.106940664 -0.08433508 0.109768145 0.08765455 -0.06313592 0.10794297 0.0021685131 0.02661659
0.0940979 0.09608805 0.089681074 0.02610576 -0.081984766 0.04910966 -0.07597849 0.012991191

_func._drift._model.2.bias f4 [16]
00000000: 272e ff3c 6473 953d d580 d43d 2ad5 aa3d
00000010: 533c ce3d ec41 fbbd 26ad b6bc b895 ae3d
00000020: 1b40 c73b b4b6 643c e344 25bd d2fa b7bd
00000030: fe17 c43c 0bd9 90bc 641b d43d eacd ef3d
0.031149937 0.072974 0.10376135 0.08341439 0.100701 -0.12268433 -0.02229936 0.0852465
0.00608064 0.013959575 -0.0403489 -0.08983387 0.023937222 -0.01768162 0.10356787 0.11709197

_func._diffusion._model.0.weight f4 [16, 17]
00000000: 95b4 063c 9412 b7bd 7249 50bc 3c70 22bd
00000010: 3650 dbbc dbd8 b5bd 9051 153d 6172 553d
00000020: 1465 90bd 2ec6 91bd cebc 7abc 1ea6 2e3c
00000030: 8093 31bd 6e70 e73d cb33 b63d d20a 943d
00000040: 13b0 a3bd 27f1 8a3d 39dd f33c 4d53 59bd
00000050: ec8a 8e3d 2014 a0bd 8817 acbd 4702 f13d
00000060: 74e7 cb3d 5748 023d 168e 7fbc d5bc e2bd
00000070: 9ee0 0fbc 2e47 223d d5fb 84bd d91f 9abd
00000080: da0d c0bd 441a 343d 7215 b4bd 4a7f 1a3d
00000090: 9608 483d 95e1 353d b02a ff3c 6551 573d
000000a0: aed2 8bbd 374e 743d 768a d03c f70d a53d
000000b0: 91a0 4bbc 28c7 81bd e90f 2cbd c26b 2fbd
000000c0: 1ab8 91bd 932f 28bd d1e3 ca3d 8019 be3d
000000d0: 2e01 9c3d df23 d63d d4d1 7cbd 3af5 e7bd
000000e0: c24e 8bbd 1201 9fbc 4e27 073d 454b 343d
000000f0: 1dea ad3b 3b2c 86bc 42ab 653d b19b b7bd
00000100: 91cd 82bd d9ec 97bd 7fdc c6bd 3f05 093c
00000110: 8e86 7e3d 548e 983d 31fd ba3d 92b7 d13d
00000120: 593d 0a3c 0f6e a6bd 579a d23d 81b7 87bd
00000130: f734 74bc 1412 dd3c 9260 c43d 2857 e83d
00000140: 5037 dd3d 7c86 9ebd 59be 973d 9f48 7a3d
00000150: 5f47 b43d b017 d63c 82b3 89bd a15f 163c
00000160: f220 5bbc bdc6 923d f4e0 03bb f6ff 15bd
00000170: 1339 913d f0dd cb3d e513 1b3d 0786 a63d
00000180: af54 ed3d 65b3 14bd 22f8 dabd ca75 ecbb
00000190: 7cd8 223d 4c9f c13d c441 53bd 7ae4 75bd
000001a0: 5968 82bd 3212 973d 87ad cd3d 9ad6 34bd
000001b0: 9315 d03c f693 953c 9610 80bd a619 3b3c
000001c0: 8dec 9cbd 6111 23bd 2b20 e93b 1680 bc3d
000001d0: 7779 c03d 1017 e53c 6250 653d a0d1 a23d
000001e0: a084 8dbd 0327 cc3d b2e9 f1bd 11fa f1bc
000001f0: 4bc3 eb3c f42f d83c 1e63 82bd 8faa e63d
00000200: c2fa 8abd c8ce 413a c92e dcbd a82a 90bd
00000210: ff36 1abd 3085 2f3d c5e2 b53c 8625 b5bd
00000220: 288a 12bd acb3 df3d b1aa 923d cd41 04bc
00000230: 067b 76bd a3e1 953d e035 503c c03d 1b3c
00000240: 8061 70bd 2e22 d2bd 13d6 e33c 0644 d8bd
00000250: 464d 583a f4cd ff3d f5b2 8bbd e5fc 6d3d
00000260: 26e7 bbbd 045a df3d 3728 053d b438 e33d
00000270: 8459 d43d 2f0d e03d a96c a5bd 07e9 b8bd
00000280: 896c 24bc ee6f d93d 8516 4dbc 14c9 08bd
00000290: 6f0f a93d ebdf eb3d a88a 3f3d e638 babd
000002a0: eee7 debd 0e19 98bd cd08 bfbd 3592 7f3d
000002b0: b202 ddbc 7458 a0bd 2946 9d3d 6ab0 de3d
000002c0: 042c aa3d 121a c33d c38c acbd 4c97 65bd
000002d0: 9c79 e93d 8f80 313c f10a a2bd 9243 d3bd
000002e0: f1c7 d0bd ec9f f03d 3cea 9d3d b4fa 8abd
000002f0: e62f 35bd c3b6 323d 90f6 743d e32d d3bd
00000300: 2e65 f63c 5643 0e3d 6734 783d 01c0 593d
00000310: 5f7c 103d d3a9 92bd 7ffc 70bd 58ad 03bd
00000320: 965c 83bd fd93 a33d 57fc c93d 6262 d73d
00000330: 86a3 eb3d 401e 5cbd b7a6 c5bd c3d4 71bc
00000340: 624a 1b3c 797b d23d a09b 24bd 684f f03d
00000350: e2ea 6bbd dd0d f0bd 1e2d 5cbd 7837 423d
00000360: 8c3e 93bd 5126 e4bd 3998 4b3c 07b5 a5bd
00000370: 1220 c5bc 345c 4c3d ac43 46b8 3a81 933c
00000380: 7258 8d3c d1ca 15bd 1d66 99bd 9835 9cbd
00000390: 71ce cbbd 100d 78bd 168a 7b3c b63e e9bd
000003a0: 9d5b e4bd 3882 d43c 7799 96bd ff1d c53d
000003b0: 4d89 bf3d 9b82 00bd d25f 5c3d 1dc1 e9bd
000003c0: b951 9b3d 4485 76bc f5e1 bd3d 251e acbd
000003d0: 5c62 49bd 5dac 13bc 3f0b 873c cf77 ab3d
000003e0: 7f1d 9dbd a359 863c fe66 543d 59fa 6bbd
000003f0: 6076 283d 4853 aa3d 5dd7 293d e112 3bbd
0.008221765 -0.0893909 -0.012712823 -0.039657816 -0.026771646 -0.088792525 0.036454737 0.052111033
-0.07050529 -0.07117878 -0.015303804 0.010659723 -0.043353558 0.11300741 0.088965975 0.07228626
-0.07992568 0.067842774 0.029768573 -0.053057957 0.06960091 -0.078163385 -0.08402926 0.117680125
0.099562556 0.03180727 -0.015597841 -0.11071173 -0.00878158 0.039618663 -0.06493346 -0.07525606
-0.09377642 0.04397036 -0.08793153 0.03771905 0.048836313 0.044404585 0.031148285 0.05256786
-0.06827293 0.059644904 0.025456648 0.08059304 -0.012428419 -0.06336814 -0.04200736 -0.042827375
-0.07115193 -0.041060995 0.09906734 0.092822075 0.076174125 0.104560606 -0.061723545 -0.1132607
-0.06802131 -0.01940969 0.03299647 0.044017095 0.0053074495 -0.016378513 0.056071527 -0.08965243
-0.06386865 -0.07418222 -0.09710025 0.008363067 0.06214004 0.07449022 0.09130324 0.102400914
0.008437478 -0.08126461 0.10283344 -0.066267975 -0.014905206 0.02698616 0.09588732 0.11344749
0.10801566 -0.077404946 0.07409353 0.061104413 0.088026755 0.026134342 -0.067236915 0.009178073
-0.013374554 0.071668126 -0.0020123096 -0.036621056 0.07090964 0.099544406 0.03786077 0.081310324
0.11588418 -0.036303896 -0.10691859 -0.00721619 0.039757237 0.094542116 -0.05157639 -0.060032345
-0.06367559 0.07376517 0.10042863 -0.044149972 0.025400912 0.01825903 -0.062531635 0.011419689
-0.07662306 -0.039811496 0.0071144304 0.09204118 0.093981676 0.027965099 0.055984862 0.07950139
-0.06910062 0.099683784 -0.11812152 -0.029538186 0.028779646 0.026390053 -0.06366561 0.11263
-0.067861095 0.00073931785 -0.10751111 -0.07039386 -0.037650105 0.042851627 0.022202859 -0.08845048
-0.035776287 0.109229416 0.07161463 -0.008072329 -0.060175918 0.073184274 0.012708157 0.009475172
-0.058686733 -0.102604255 0.02781204 -0.105598494 0.0008251261 0.12490454 -0.06821243 0.058102507
-0.091749474 0.10905841 0.032509055 0.110948 0.10368636 0.109400146 -0.08077366 -0.090288214
-0.010035642 0.10617052 -0.012517576 -0.033394888 0.08254897 0.11517318 0.046763092 -0.09092884
-0.10884081 -0.07426654 -0.093278505 0.062395293 -0.026978824 -0.07829371 0.076793976 0.10873492
0.083091766 0.09526457 -0.08425286 -0.05605249 0.11400148 0.010833873 -0.07912243 -0.103156224
-0.10194386 0.11749253 0.07710692 -0.06786099 -0.044235133 0.043631326 0.059805453 -0.103114866
0.030077543 0.034732185 0.06059685 0.053161625 0.03527486 -0.07161298 -0.05883455 -0.032147735
-0.06414144 0.07987211 0.09862583 0.10516812 0.11505799 -0.053739786 -0.09650939 -0.014760199
0.009478183 0.10277457 -0.040187478 0.117338955 -0.05759705 -0.11721394 -0.053753965 0.04741618
-0.07189664 -0.11140121 0.012426429 -0.08091169 -0.024063144 0.04989262 -4.7269903e-05 0.018005956
0.017254088 -0.036570374 -0.0749018 -0.0762741 -0.09951485 -0.060559332 0.0153527465 -0.11388914
-0.11150286 0.025941 -0.0735349 0.09624862 0.0935236 -0.031374555 0.05380232 -0.114137866
0.07583947 -0.015046421 0.092716135 -0.08404187 -0.04916607 -0.009013263 0.016484855 0.08372461
-0.076716416 0.016400164 0.051856034 -0.057611797 0.041128516 0.08316666 0.041465152 -0.0456723

_func._diffusion._model.0.bias f4 [16]
00000000: 00c4 91bd b493 adbd ccd5 e7bd 62a0 86bd
00000010: 1cac dfbd 5b65 0f3d 97bf dabd 1474 29bd
00000020: c664 843c f144 973d 9abd c33d 85f1 e43d
00000030: 12e8 41bd a153 fa3a 98ce 68bd 7489 7c3d
-0.07117462 -0.08475438 -0.113200754 -0.06573559 -0.10921499 0.03500877 -0.10681074 -0.041370466
0.016161334 0.073861964 0.09557648 0.11178879 -0.04734046 0.001909841 -0.05683765 0.061654523

_func._diffusion._model.2.weight f4 [48, 16]
00000000: 6a04 01bd 14a8 9b3b ca31 febc 4199 dc3d
00000010: bc7b e03d 1435 cb3d 37f4 18ba f758 37bd
00000020: 604c bcbd 4e15 debd c4e7 cd3d b8b6 9abd
00000030: 002c b8bd 528c 663d 6f6a abbc 71ec b0bc
00000040: e1eb 5bbd 17a7 90bc 902e 603b 7560 00bd
00000050: a646 edbc 382c 7abd e1f4 c4bd 4c78 d33d
00000060: 044f d03d 1511 4d3c 3a41 edbd 1527 b93c
00000070: 69b3 93bd c769 db3d a13d 88bd a39d 3ebd
00000080: 0047 a2bd b266 e23d 6c62 87bc b637 df3d
00000090: 09bc ecbd 9365 8b3d 7a9e 0dbc cb30 3bbc
000000a0: cc64 bcbd 5e9b b2bd 53c0 503d 58ab cabc
000000b0: 222a c8bd c49a c2bd 2120 a5bd 9296 db3d
000000c0: 25f4 a83d fcb7 bcbc f09d c03d 3944 47bd
000000d0: 6fed 063d 1092 aa3d a6a2 f6bd a101 843d
000000e0: ca6a a63d a820 11bd c718 fcbd b776 543d
000000f0: 31c2 e13c 4e33 82bd 6ee3 aabd dace e6bd
00000100: 998b 4f3d 8cd4 f8bd e5c9 e6bd 2752 d23d
00000110: 7c9b 34bd 6b24 46bd 49fa d63d bef7 77bd
00000120: 8962 f33d 59bf adbd dbe4 67bd 1556 0ebc
00000130: baec b2bd 10fe fa3d 32db 0d3c 6ae7 8e3c
00000140: f089 05bd ea84 a63d 3249 f23d 0ca4 a6bb
00000150: 2a69 46bd 4915 853d 53d0 54bd 6074 9cbd
00000160: 351a 55bd dcf8 403d 67e1 fbbb 457b 37bd
00000170: 6764 62bd a80f 373d ffe9 cabd fcdb 0e3a
00000180: 21f5 12bc eaed 90bd 4c73 2ebd c8a4 c63d
00000190: 86b4 56bc 0160 66bc 472e 883d d9d6 01be
000001a0: da99 c7bd 303a fd3d ec6b c2bd 8dd6 b13d
000001b0: a3a1 c9bd 38d5 ce3d 9854 9a3c 9f02 d93d
000001c0: d401 c6bd ae29 103c b607 babd 8ac1 353b
000001d0: cf7b a4bc 5878 c93d 4e73 eb3c 887a 18bd
000001e0: 526c c2bd bcd1 963d f81f a83d 3581 4abd
000001f0: 48f1 5a3d 07a8 81bd fb04 233d d80b 16bc
00000200: cd2b 54bd 3363 2a3d 3429 c6bd 6310 cb3d
00000210: 6025 b3bc 4248 ebbd a689 db3b be63 fe3c
00000220: a94b bfbc 34e5 c5bc 00b3 2cbd b241 88bc
00000230: 5f9b 0cbd 5934 ebbc 0be0 fbbc 52a4 1dbd
00000240: 615e 66bd 496b 36bd 9d06 0cbd 7565 a33d
00000250: db45 c63d bafb df3c b756 7b3c b933 b63d
00000260: 0c52 90bc 8d93 ee3d e856 aabd 501d 793d
00000270: a73f 65bc be46 763c 9277 d3bc 3067 02be
00000280: cc47 8b3a ef53 55bd 2918 8b3d 95d1 ce3d
00000290: 86dd f6bd 0c0b 963d 7bc6 a23c 0d9a 50bd
000002a0: d4f8 833d 9bab 5c3d 0ff1 acbd 3e28 9b3c
000002b0: 7a30 a8bd 50fe ddbd b6fe 90bc 236a 70bc
000002c0: 59b0 bcbc f812 74bc 821d 05bc 5ad2 ff3d
000002d0: 95eb ba3d 2e9b dfbc bfeb ba3d 9521 b6bd
000002e0: d1fb d53d d23a aabd 827b 66bc aab7 683d
000002f0: 712e b23c f89d 3abd 08cd 99bd cfd0 c23d
00000300: 1c38 5a3d fd9a 3dbd 4252 a5bd 4418 6d3d
00000310: e215 25bd 4128 013c 903c 853d e6e0 e5bd
00000320: 0201 d6bd 7eea 903c facc 96bb 5390 fa3d
00000330: 466d fcbc e76e 33bd 8616 b1bd 92b7 b03d
00000340: 4594 7e3d b7ad f03d 90fa 933d 803b 1dbd
00000350: 6288 e1bd e303 57bc 94c7 b4bd a180 f1bd
00000360: 40bc 393d 9466 56bb 3548 e43d 68de 98bd
00000370: 46ae 8cbd 9197 4c3d 707e 9f3d 1b15 323d
00000380: 6661 a3bd d2c9 f5bc 7e93 543d 9deb 43bd
00000390: c09b 90bd 0f84 4a3c b31c c2bd f06c 67bd
000003a0: 90d7 68bd e372 9c3d f123 82bd 15d4 9bbd
000003b0: 80ca 8e3d af28 eb3c 68dc 4f3d db9f 94bd
000003c0: a8d8 80bc ac18 de3c 4b4b 673c b8ff c8ba
000003d0: 1c85 4bbd bf59 db3d ff66 8e3d 3632 bfbd
000003e0: e0bd a33d 070d c5bd 664a bd3d 45de 423d
000003f0: dd93 d73b 68f3 ec3a dabf 763d 478e ebbc
-0.03149835 0.004750261 -0.0310296 0.10771418 0.109611005 0.09922233 -0.00058347307 -0.044762578
-0.09194255 -0.10843907 0.100539714 -0.07554382 -0.08992767 0.056286164 -0.020924775 -0.021597119
-0.05369175 -0.0176578 0.003420744 -0.03134199 -0.028964352 -0.061077327 -0.096170194 0.10325679
0.10171321 0.01251628 -0.115847066 0.022601644 -0.07211954 0.10713535 -0.0665238 -0.046537053
-0.079236984 0.11054744 -0.016526423 0.10899298 -0.11559302 0.06806483 -0.008643741 -0.011425207
-0.09198913 -0.0872104 0.050964665 -0.024739906 -0.09773661 -0.095021755 -0.08062769 0.107220784
0.08249692 -0.02303695 0.09405124 -0.048649047 0.032941278 0.083286405 -0.120427415 0.06445623
0.08125837 -0.035431534 -0.123094134 0.051871028 0.027558418 -0.06357442 -0.0834416 -0.112699226
0.05067024 -0.12149915 -0.11268977 0.102695756 -0.044093594 -0.048374575 0.10496957 -0.060539
0.118840285 -0.08483762 -0.056614738 -0.008687516 -0.08736558 0.1225549 0.008658217 0.017444331
-0.03260225 0.0813082 0.11830367 -0.005085474 -0.048440136 0.064982004 -0.051956486 -0.07639384
-0.052026946 0.04711233 -0.007686782 -0.044795293 -0.055271532 0.044692665 -0.099079125 0.00054496503
-0.008969576 -0.070766285 -0.042590424 0.09699398 -0.013104564 -0.014060975 0.06649452 -0.12679614
-0.09746142 0.12364614 -0.09493241 0.086835004 -0.09845283 0.10099262 0.018839166 0.10596203
-0.096683174 0.008799 -0.09083502 0.0027733766 -0.020078568 0.09837407 0.028741505 -0.03722623
-0.09493317 0.073642224 0.082092226 -0.049439628 0.05345276 -0.06330877 0.03979967 -0.009158097
-0.051799584 0.04159851 -0.096758276 0.09915235 -0.021868408 -0.114883915 0.0066997586 0.03105342
-0.023351507 -0.024157144 -0.042162895 -0.016632888 -0.03432786 -0.028711485 -0.03074648 -0.038486786
-0.05624235 -0.04453591 -0.034185994 0.07978336 0.096812926 0.027341712 0.015340499 0.08896584
-0.017617248 0.11649237 -0.08317357 0.06081897 -0.013992227 0.015031515 -0.025813852 -0.12734675
0.0010626256 -0.052082 0.067917176 0.10098568 -0.12053971 0.07326326 0.019870033 -0.050928164
0.064439446 0.053874593 -0.08444416 0.018940087 -0.08212371 -0.10839522 -0.01769958 -0.0146737425
-0.023033308 -0.014897101 -0.008124711 0.12491293 0.09126965 -0.027295675 0.09126996 -0.08893124
0.10448421 -0.08312 -0.0140675325 0.05681578 0.02175066 -0.045560807 -0.0750981 0.09512483
0.053276166 -0.046290386 -0.0807233 0.05788447 -0.040304072 0.007883132 0.06505692 -0.112245366
-0.10449411 0.01768994 -0.004602072 0.12234559 -0.030813824 -0.043806937 -0.08646874 0.08628763
0.06215312 0.117518835 0.072255254 -0.03838682 -0.11012341 -0.013123485 -0.08827129 -0.11792112
0.045345545 -0.003271495 0.11146585 -0.074642956 -0.068691775 0.049949232 0.07787788 0.04347716
-0.07977562 -0.030003462 0.051898472 -0.04783212 -0.07060957 0.012360587 -0.0947813 -0.056500375
-0.0568462 0.076391004 -0.063545115 -0.07608811 0.069722176 0.028705923 0.050747305 -0.072570525
-0.01572831 0.027111374 0.014117072 -0.0015334999 -0.04968749 0.10710477 0.06953239 -0.09335749
0.079952 -0.096216254 0.09242706 0.047575254 0.006578906 0.0018077912 0.060241558 -0.028754367

_func._diffusion._model.2.bias f4 [48]
00000000: 8b5c 4b3d ce4f e7bd 2a24 adbc 1520 6a3d
00000010: 7cf9 873c 39a1 24bd 6fbf 553d 9c65 b13d
00000020: 4b06 e1bd b4da d33b d6db 3fbc d71b d8bd
00000030: 119a d3bc d973 eb3c 17e8 d53b e424 cfbd
00000040: 5c42 51bc 218d c43d d5ab e0ba 69dd 703d
00000050: 7f10 7a3d c5c2 883d 269d 563d ae4d c0bc
00000060: 77b7 e73d 9477 e03c 0fb7 8ebd 78d0 383c
00000070: 3170 e63d 5fce 57bb 12a9 d73d 40eb 963d
00000080: 4b16 163d 82eb fdbb 215e 2ebd 6f8b b73d
00000090: 9234 d4bd d5fe b2bd a02b a1bd b9a3 04bd
000000a0: 18d3 893d bfd7 f9bc b352 f5b9 5107 91bd
000000b0: a958 d3bd 4df1 e73c 78f6 57bb 1d4c 6b3d
0.049648803 -0.112945184 -0.021135408 0.057159502 0.016598456 -0.040192816 0.05218452 0.086619586
-0.109875284 0.0064652804 -0.011710128 -0.10552185 -0.0258303 0.028741764 0.0065279114 -0.10114458
-0.012772169 0.09597231 -0.0017141054 0.058804903 0.06105089 0.06677774 0.052395962 -0.02347454
0.1131429 0.02740077 -0.069685094 0.011280172 0.112518676 -0.0032929403 0.105302945 0.07369089
0.036642354 -0.007749022 -0.042570237 0.08962142 -0.103615895 -0.087400116 -0.07869649 -0.0323827
0.06729716 -0.030498384 -0.00046791657 -0.070814736 -0.10319645 0.028313303 -0.0032953303 0.057445634

_readout.weight f4 [1, 16]
00000000: da0f 7d3e aaf4 3b3e 3f84 2a3d 6c16 b9bc
00000010: 1736 66bd af51 47be 6237 733d fee5 673e
00000020: 03ea 89bc 06ed 183e 4363 1b3e faad 4cbd
00000030: 88e8 a43d 00c1 2bbe 192c 583e b9cc fcbd
0.24713078 0.1835505 0.041630026 -0.0225937 -0.056203928 -0.19464754 0.05937899 0.22646329
-0.016835218 0.14934167 0.15174584 -0.049970604 0.08052164 -0.16772842 0.21110572 -0.12343735
