model_saves/generator_midAdjoint.pth (torch, 13579 bytes, 13 tensors)

_initial._model.0.weight f4 [16, 5]
000000 12 48 cb be ec d7 9a bf 63 2c 89 be e9 ab 08 bf
       -0.39703423 -1.2097144 -0.26791677 -0.53387314
000010 b7 e3 ea 3e 4f 21 80 bd 0a ba 8f be f5 37 44 bf
       0.45876858 -0.06256353 -0.28071624 -0.76647884
000020 2e 86 73 3f a8 ad 28 bf 0f e7 2a 3f 4a ff eb be
       0.95126617 -0.6588998 0.6675882 -0.46093208
000030 2c c5 18 bf ad ce 36 3e 6f 89 9d bd 6b 0b 9b bd
       -0.5967586 0.17852278 -0.07692229 -0.07570537
000040 fa 76 8e 3e 03 31 f4 3c 8a 9f 17 3f 51 bf d1 be
       0.27825147 0.029808527 0.5922781 -0.40966275
000050 fa 46 0a 3f 9b 36 9e 3f f4 e1 a3 3f 6e 69 30 bf
       0.5401455 1.2360414 1.280333 -0.6891087
000060 0f d3 79 be a3 74 f6 3c bc 40 2d bf 54 55 4b 3f
       -0.24396919 0.030084914 -0.676769 0.79427075
000070 65 fb 84 bf 6f 0d d8 be 5d a2 84 3f 25 e7 31 3d
       -1.038922 -0.4219775 1.0362049 0.043433327
000080 e0 ce 36 bf 80 e4 8d 3e 12 58 f7 bd bd 7c 25 bf
       -0.71409416 0.27713394 -0.12077345 -0.6464346
000090 71 b3 0f bf 13 f8 a5 3f fa a7 e4 3d 2f 92 74 3f
       -0.5613318 1.2966331 0.111648515 0.9553556
0000a0 03 32 f0 bd 24 72 2c bf a5 c8 7a 3d 95 2f a9 bf
       -0.11728289 -0.67361665 0.061226506 -1.3217646
0000b0 6d 66 04 bf b8 2e 4a bf f5 8f 68 3f 22 c9 a2 3d
       -0.5171879 -0.7897754 0.9084466 0.07948519
0000c0 6b 29 9c 3f 9a 89 7a 3f 93 23 97 3f 60 05 73 3f
       1.220014 0.97866213 1.1807731 0.94930077
0000d0 97 30 6c bd 7e eb 8f 3f 45 59 d9 3e 18 4c 70 3f
       -0.057663526 1.1243742 0.4245092 0.9386611
0000e0 19 26 e9 bd cc 9c 6b 3f e1 a1 e4 bd 20 7c a9 3f
       -0.1138422 0.9203613 -0.111636885 1.3241005
0000f0 66 6f 43 3f af 28 2d be 18 5b b7 3e eb 49 95 bf
       0.76341856 -0.16910051 0.35811687 -1.1663183
000100 7c 8b 3c 3f 5a 3f 48 3f d9 12 8f 3f 5d 92 25 3f
       0.73650336 0.78221667 1.1177627 0.6467646
000110 91 0e 29 3f 3e 14 d9 be 6e 7f 95 bf 85 9c 7f 3f
       0.6603785 -0.42398256 -1.1679513 0.99848205
000120 e7 34 25 bf fd 07 51 3f d3 e4 03 3c 7b ec ef 3e
       -0.6453385 0.81652814 0.008050161 0.46860108
000130 33 cb 27 bf 33 76 7b 3e e7 0f 82 3f 45 9b 28 bf
       -0.6554443 0.24556808 1.0161103 -0.6586192

_initial._model.0.bias f4 [16]
000000 d9 f1 de 3e ae f8 17 bf 21 10 92 bf 34 67 a2 3f
       0.4354389 -0.5936383 -1.1411172 1.2687745
000010 a5 09 a7 bd d8 b6 fa bd 73 ab e6 3e e5 f0 10 be
       -0.081561364 -0.12241906 0.4505268 -0.14154394
000020 ff e7 3e 3f 4e a1 06 bf 50 78 8a 3f 61 92 92 3e
       0.7457275 -0.5258988 1.0817966 0.28627303
000030 3b 39 76 bf 0a 3b 51 bf 4a 0b 90 3f e8 ee ab 3c
       -0.96181077 -0.8173071 1.1253445 0.020987943

_initial._model.2.weight f4 [16, 16]
000000 d6 11 34 3f b6 79 2c 3d ba 77 49 3e 03 47 f0 3e
       0.70339715 0.04210826 0.19674578 0.46929178
000010 7f e2 68 3e 30 86 10 bf f4 0b 1e 3f a8 16 bf 3e
       0.22742651 -0.56454754 0.6173699 0.37321973
000020 f1 57 ff 3e 9e b3 81 be d6 53 44 be d4 f0 f6 be
       0.4987178 -0.2533235 -0.19172606 -0.48230612
000030 8e ec 7f 3e cc 30 16 bf 82 cd 0e bf 5c c7 7a bb
       0.24992582 -0.5866821 -0.5578233 -0.00382658
000040 96 a3 88 3e 95 96 b5 3d 5b 20 00 3f 95 ae ba bd
       0.26687306 0.08866612 0.5004937 -0.0911533
000050 cc 65 1b 3f b0 79 a2 be 82 7c 74 bd ce 9e b8 3e
       0.60702205 -0.31733465 -0.059689052 0.36058658
000060 30 47 1b 3f 55 2e 7a 3d 76 43 62 bb 2a bf 3b bf
       0.606555 0.061079342 -0.0034525073 -0.7333857
000070 11 fb 56 3e f6 04 d2 3e 95 d5 8f 3d c5 e9 a9 3d
       0.20994212 0.4101941 0.070231594 0.08296541
000080 29 3b d6 bd 68 6a ca be 97 94 dc be b6 2c 79 3e
       -0.10460503 -0.39534307 -0.43082115 0.24333462
000090 24 4a 1b bf 51 11 ae 3e f1 f3 2f bf 18 e8 2c 3f
       -0.60660005 0.33997586 -0.687316 0.67541647
0000a0 9a 7b 19 be 68 da c9 be 03 fd 2e bf 14 3d 9f be
       -0.14988557 -0.39424443 -0.68354815 -0.31101286
0000b0 0f db ad be 72 6d f4 3d ca 87 6a 3e f4 be 1e 3f
       -0.3395619 0.119349375 0.22903362 0.6201012
0000c0 03 c2 8c 3e 1e ce 26 bf b7 6e 19 3f 8f 74 dc be
       0.2749177 -0.6515826 0.5993456 -0.43057677
0000d0 85 1c 0d be db b5 a2 3e 36 af 86 3e 6b 28 42 3e
       -0.1378041 0.3177937 0.2630555 0.1896073
0000e0 5b 45 bc 3e 06 31 ea be 43 b4 94 3e d2 d5 0f bf
       0.36771664 -0.45740527 0.2904378 -0.5618564
0000f0 20 ef ca 3e 75 78 2c 3d 78 40 f4 be 10 01 0c bf
       0.39635563 0.042107064 -0.47705436 -0.5468912
000100 70 d0 01 3f ee e6 dd 3e 7c 77 31 3e 65 7e 87 be
       0.50708675 0.43340248 0.17330736 -0.2646362
000110 f2 5e 2b 3f 72 19 d9 3e d8 c6 29 bf 6c 0e 55 3e
       0.6694175 0.42402226 -0.66319036 0.20806283
000120 76 1f e8 be ef be 3a 3e 94 21 d4 3e f1 e7 b1 bb
       -0.45336503 0.18236898 0.41431868 -0.005429261
000130 f6 1f dc be 71 85 9c 3e b4 e9 d9 be dc 29 03 bf
       -0.42993134 0.30570558 -0.42561114 -0.5123575
000140 e6 24 8b 3e 70 d6 0b 3f 96 a2 26 be 97 cb 87 3d
       0.2717659 0.5462408 -0.16272959 0.066306286
000150 13 64 dd be 72 d4 39 bd d8 14 22 3f e5 09 d9 3e
       -0.43240413 -0.04536862 0.63313055 0.4239036
000160 ad e3 17 3f b0 7b f8 3e 37 bd 89 3e 9b ec a4 3d
       0.5933178 0.48531866 0.26902172 0.080529414
000170 3b f1 19 bf 4a 40 f5 be 37 61 ea be c9 63 30 be
       -0.60133713 -0.4790061 -0.45777294 -0.17225565
000180 9c aa 56 3c 1b 40 ec 3e 49 c9 83 3e 68 1a 42 3f
       0.0131022 0.4614266 0.25739506 0.7582154
000190 ff 0d c7 3e 0e 47 d7 be aa 24 24 bf 91 2f c4 bd
       0.38877866 -0.42046398 -0.64118445 -0.09579385
0001a0 a7 7d 03 bf 88 aa 07 3e 67 b2 22 bf 58 6e a0 3d
       -0.51363605 0.13248646 -0.6355347 0.078335464
0001b0 32 80 3b 3f 16 04 a7 3d 83 ca 85 3e 89 34 8f be
       0.73242486 0.08155076 0.26131067 -0.2796977
0001c0 a1 a6 8a 3e ff 59 15 bf ac c6 3f be e6 0e 11 3d
       0.27080253 -0.5834045 -0.18728131 0.0354146
0001d0 6f 0c 04 3f 07 b8 11 3e 66 1a ee be 32 90 ee 3d
       0.5158147 0.14230357 -0.46504515 0.11648597
0001e0 45 47 84 be 55 59 78 3e a6 13 21 3e dc 2e 7c 3e
       -0.25835624 0.24252827 0.15730152 0.2462725
0001f0 b2 7e fd 3e 9a 91 e0 be dc 0e 13 3f 9e f6 c3 be
       0.49510723 -0.43861085 0.5744455 -0.3827409
000200 1a 11 01 3f ea 47 ca be ff 7a 5d 3e 81 1d 40 bf
       0.5041672 -0.3950799 0.2162895 -0.7504502
000210 b5 ef 44 3e 7e 5c f1 3e a2 e2 86 3e 2e a0 de 3d
       0.19232066 0.47140878 0.26344782 0.108703956
000220 69 17 f2 3e a7 2b 99 be be 61 1f be 1e 2e bb 3c
       0.47283486 -0.29916117 -0.1556463 0.022849139
000230 36 ab 2c 3e 2b 73 c9 3d c3 c4 23 bf e8 ed 20 be
       0.16862187 0.0983642 -0.6397211 -0.15715754
000240 b4 b8 fa be 6a 08 b3 3d a5 cd 65 3e 64 5b 13 3f
       -0.48969042 0.08741839 0.22441728 0.57561326
000250 fa a2 c9 bd 2b 39 b2 bd 5f 7a c9 bd 21 42 20 bf
       -0.098455384 -0.0870231 -0.098377936 -0.62600905
000260 ea 6f 1a 3f f0 cf 06 bf 87 62 10 3f 45 14 d6 3d
       0.6032702 -0.5266104 0.5640034 0.10453085
000270 8a 94 3a bf 56 2e 6c be 1a 3c a8 bd 9c ac ee 3e
       -0.728829 -0.23064551 -0.082145885 0.46616066
000280 88 d8 38 3e 01 27 de bd a8 d4 08 3f fc 5e c7 be
       0.1805135 -0.10847283 0.5344949 -0.38939655
000290 5f da c7 3d 0b d2 e7 be b5 3b 1d bf 23 3f c6 3e
       0.09758448 -0.45277438 -0.6141923 0.38720044
0002a0 5c 89 e7 be fd d4 39 bf f2 a6 9d bd 31 43 a5 3e
       -0.45221984 -0.7259062 -0.07697858 0.32277825
0002b0 32 62 9c 3e 71 8d dc be 44 4f 33 bf f3 8a 2f be
       0.30543667 -0.4307666 -0.70042825 -0.17142849
0002c0 3d 0b 56 3d 71 5b 0a bf f7 73 cb 3e 39 39 ed 3d
       0.05225681 -0.5404578 0.39736912 0.1158318
0002d0 10 1f b1 3e 7e 98 24 3f 13 81 80 be 7a 6a 58 be
       0.3459401 0.64295185 -0.25098476 -0.21134368
0002e0 5f a4 05 bf c0 57 36 3e 6a cf 11 3f 89 ce 30 bf
       -0.52203935 0.17806911 0.56957114 -0.6906515
0002f0 78 3b 25 3e 83 08 1e bf e3 00 1c bf 66 9f 8f 3e
       0.16135967 -0.6173174 -0.60938853 0.280513
000300 1d fc f8 3e 62 2c 1e 3f 6c 91 c3 3e 86 87 25 3f
       0.48629847 0.6178647 0.38196886 0.6465992
000310 c6 ad c1 be d4 40 e9 be fe 96 c5 bd 31 d1 b3 be
       -0.3782789 -0.45557272 -0.0964794 -0.35120538
000320 d3 d5 0f 3e e1 d6 3b 3f 45 f6 9f 3e 7c 85 cc 3e
       0.14046411 0.73374754 0.31242576 0.3994559
000330 e3 d1 97 3d f0 06 62 be 9f 33 75 3e 34 b7 0c be
       0.074130796 -0.22072959 0.23945473 -0.13741761
000340 bb ea 00 bf 2a e6 23 bf 05 35 12 bf 96 c6 01 3d
       -0.5035817 -0.6402308 -0.5711215 0.031683527
000350 7d eb 18 3f f9 cd 3a 3f ff 61 29 bf 1c 62 fe 3e
       0.59734327 0.7297054 -0.66165155 0.49684227
000360 2b 23 41 bf a0 86 11 3f 6f 96 e7 be dc e1 14 3e
       -0.7544429 0.56846046 -0.4523196 0.14539284
000370 c4 8b b3 be e9 04 7d 3e 80 86 2e bd 33 55 06 bf
       -0.3506757 0.24708904 -0.042608738 -0.52473754
000380 d7 d2 3a bf 90 2a ce be c8 fe 08 bf b5 32 4d be
       -0.72977966 -0.40266848 -0.53513765 -0.20038874
000390 52 aa 11 3f ba 00 b8 3d f4 be 01 3f b0 0e 7a 3d
       0.56900513 0.089845136 0.50681996 0.061049163
0003a0 32 ca b7 be e3 15 2b 3e 0a 76 a8 bd 9a 96 a1 be
       -0.3589645 0.16707568 -0.08225639 -0.31560212
0003b0 58 93 37 bf 60 6c 89 be d5 ed 57 bd 93 0c a0 3e
       -0.71709204 -0.26840496 -0.05271705 0.31259593
0003c0 8d 2b 87 be 26 96 f5 3e 94 88 26 3e 0e 3f 8b be
       -0.26400414 0.47966117 0.16263038 -0.27196544
0003d0 e9 01 12 3f 23 0e 8a 3e 9f 9c 2e 3f e5 b6 9e 3d
       0.57034165 0.2696391 0.68207735 0.07749728
0003e0 bd e2 3a 3f 0c 9c 47 3e 55 c6 ae 3e 79 2c 12 3f
       0.73002225 0.19493121 0.3413569 0.5709911
0003f0 c4 14 ad 3d b0 7f 1b 3f c6 f5 0f bf 61 95 16 3f
       0.08451226 0.6074171 -0.56234396 0.58821684

_initial._model.2.bias f4 [16]
000000 39 0b 09 bf 18 26 1c bf 2b bc 9e 3e 08 db 02 be
       -0.5353275 -0.60995626 0.31002936 -0.12778866
000010 e1 63 ed 3e 9c 8d 7b be 8b 7a 4e bb f4 e3 32 bf
       0.46365264 -0.24565738 -0.0031506147 -0.6987908
000020 fd e3 b1 be 6a 64 63 be f9 fb 24 3f 82 d3 17 3f
       -0.34744254 -0.22206274 0.6444698 0.5930711
000030 1e 27 88 be 40 30 5f be 5e 95 eb 3e f7 f7 36 3f
       -0.26592344 -0.2179575 0.46012396 0.71472114

_func._drift._model.0.weight f4 [16, 17]
000000 6d fc 1d be 36 3f c2 3c 17 fb 5e 3d 22 c8 8e 3c
       -0.15428324 0.023711782 0.054438677 0.017429415
000010 74 3a d2 bc d7 f3 8c 3d 51 43 b4 3d 63 3e ac bd
       -0.025662638 0.06882446 0.08801902 -0.08410337
000020 ca 80 83 bc e9 34 b6 bc 0f 21 33 bd 54 28 f3 bd
       -0.016052622 -0.022242026 -0.0437327 -0.11872926
000030 78 ad b7 bd ed 5d 43 bd 80 8e df bd 38 0e e9 3c
       -0.089686334 -0.047696996 -0.109158516 0.028449163
000040 be 99 84 3d 1e d0 86 3d 2c 5a 07 3d a8 62 6a bc
       0.064746365 0.06582664 0.03304498 -0.014305748
000050 14 f8 4a bd 36 6f 58 bd 47 40 b2 3d 90 03 30 bd
       -0.049552992 -0.052840434 0.08703666 -0.042972147
000060 ef f6 c8 3d 71 6e b6 3d 07 2b 99 bd 98 ce 49 bc
       0.09812724 0.08907784 -0.0747891 -0.012317322
000070 1a 38 d8 3d bf 21 78 3d f0 0a 67 bc af 4d b0 bd
       0.105575755 0.060579058 -0.014101729 -0.08608567
000080 eb fa 85 3d c8 eb 65 3c 37 c1 ba 3d 4c 24 a6 3d
       0.065419994 0.014033265 0.09118884 0.08112392
000090 4c 54 94 3d 0e 53 7d 3d b3 cb 15 3d 74 dd b4 3d
       0.07242641 0.061846785 0.036571216 0.08831301
0000a0 05 2a 3f 3d 87 4f 95 3d 96 8e e3 3d e3 7f f8 3d
       0.046670932 0.07290559 0.111111805 0.121337675
0000b0 7a df be bd 19 4c 92 3d b1 25 af bd 32 ed 86 3c
       -0.093199685 0.07143421 -0.08552111 0.016470525
0000c0 02 50 c8 3d 14 f3 82 3c db b0 9f 3d 88 10 14 bd
       0.09780885 0.01598505 0.077974044 -0.036148578
0000d0 d0 ee 91 3d c4 43 a3 bd 3c 49 b5 bd ba fb 32 3d
       0.07125628 -0.0797191 -0.08851859 0.043697096
0000e0 7c 12 d6 3d b0 3f 84 bd e7 af 05 3e 34 ed f0 bd
       0.10452744 -0.0645746 0.13055383 -0.11763993
0000f0 7c 91 c5 bd ea ca ff bd f1 ea ea bd 11 21 89 39
       -0.096468896 -0.12489875 -0.11470593 0.00026155313
000100 f9 78 ad 3d 34 b3 18 bd 08 d8 0d 3e a6 61 5a bd
       0.08470339 -0.037280276 0.1385194 -0.05331578
000110 62 7d d8 bd 52 33 97 bd fe 36 d0 bd e9 58 bd bd
       -0.1057079 -0.073828354 -0.10166739 -0.09245474
000120 84 f6 d3 3d 2d be e7 3d 6f c3 bc bd 01 7b c7 bd
       0.103497535 0.1131557 -0.092169635 -0.09740258
000130 03 86 ed 3b 4e fd 3f 3c 12 88 9a bd 22 ec c5 3c
       0.0072486415 0.011718107 -0.075454846 0.024160448
000140 90 b4 38 bd 71 9e 07 bc 6e 3f 82 3b fe 1b af bd
       -0.045094073 -0.0082775215 0.0039748466 -0.08550261
000150 ad 41 c4 3d 78 76 b9 3d 12 bb c8 3d 46 92 11 bd
       0.09582839 0.09055799 0.09801306 -0.035539888
000160 9f f3 aa 3d 75 db e0 3d a9 d1 f4 bc f8 0f fe 3d
       0.08347248 0.10979358 -0.02988513 0.124053895
000170 d3 61 46 3d 56 89 17 bd 9b ff a1 3b c6 04 4e bd
       0.048433136 -0.036996208 0.0049438006 -0.05029752
000180 c7 ee b7 bd 96 fe 03 bd 78 58 fd 3d 9c 73 28 3d
       -0.0898109 -0.032225214 0.1237039 0.04112588
000190 4a 4b 22 bd f2 ad 97 3c e0 b2 f7 bd 1a 43 89 3d
       -0.039622582 0.01851556 -0.120946646 0.06702252
0001a0 7b e5 4c bc d7 fb 50 bd b0 df a8 bd c3 ab a4 3d
       -0.012505884 -0.051021423 -0.0824579 0.080405734
0001b0 82 37 b5 3d f2 7f 69 bd bb 09 9d 3d b3 31 e2 bd
       0.08848478 -0.057006784 0.076678716 -0.110446356
0001c0 4b b6 03 3d 87 9c cf 3d a4 c5 dc 3d 5f 52 f7 bd
       0.03215627 0.10137277 0.107798845 -0.12076258
0001d0 0c 6d bb 3d f3 3f 01 bd a0 d9 f3 3d ef 84 db 3d
       0.091516584 -0.031555127 0.11906743 0.107187144
0001e0 b3 da f5 3d 05 5a e6 bc eb 8a a1 bd bc 4e 02 be
       0.12004604 -0.028119097 -0.078878246 -0.12725347
0001f0 ba 46 a8 bd fe 3f 1c bd bd cf 5f bb 88 6c 44 bd
       -0.08216615 -0.038146965 -0.0034150921 -0.047955066
000200 6b ac b5 3d e7 12 a3 3d f5 56 db bd 56 ed b6 3d
       0.08870777 0.0796259 -0.10709945 0.08931987
000210 db 18 eb 3c 16 b2 f3 bd 5c d2 9a 3d 85 e9 be bd
       0.028698375 -0.118992016 0.07559654 -0.09321884
000220 27 8f 72 3d ca 89 c2 3d 8a 0f bd 3c 26 04 9c 3c
       0.059218552 0.094989374 0.023078699 0.019044947
000230 92 21 86 bd fa 5d 24 3d c9 16 ee 3d ee 10 1e bd
       -0.06549372 0.040128686 0.1162544 -0.038590364
000240 ca eb fc 3c 9c 41 ec 3c bb c2 bd 3d ef 9c eb bd
       0.030874152 0.028839879 0.092656575 -0.11504542
000250 2b 60 9d bd 10 e6 7a 39 0b c2 a8 bd 3e 99 48 bd
       -0.07684358 0.00023927563 -0.08240136 -0.04897427
000260 01 00 4c 3e 7e f8 f4 bc 35 c0 94 bd a8 76 0f bc
       0.19921876 -0.029903647 -0.07263223 -0.008756317
000270 ac ab 23 3c 33 4e a9 bc 88 2e 1a 3d c3 e5 89 3c
       0.00998966 -0.020667171 0.037642032 0.016833192
000280 f3 e7 0d 3d ed 73 c8 bd 7a fa 81 3b b9 7f 8b bd
       0.034645032 -0.09787736 0.0039666267 -0.068114705
000290 50 cd 60 bc 71 65 4b bd 89 e4 88 3d 7a f9 3c bd
       -0.013720825 -0.04965729 0.066842146 -0.046136357
0002a0 2f af 44 bd aa db c8 3d e7 c5 d6 3d 06 a3 85 3b
       -0.04801863 0.098075226 0.104869656 0.004078272
0002b0 4c 45 e4 bd c4 a2 de bd 4e 43 fd bd 32 f3 ee bd
       -0.1114603 -0.10870889 -0.12366353 -0.116674796
0002c0 3d dc f0 bd 4e f4 09 bd e0 bc 54 3d 40 d5 37 bc
       -0.11760757 -0.033680253 0.051937938 -0.011220276
0002d0 4b ab d6 3d fe 72 5e 3c ce e2 da bc 1e c0 c0 3c
       0.1048189 0.013577221 -0.026719477 0.023529109
0002e0 ed e5 22 bd 3f 6b e5 3b 19 b1 ce 3d 2e 89 ef bd
       -0.039770056 0.00700131 0.100923724 -0.11696087
0002f0 a7 15 ee 3d cf 6b 90 bd 21 0d be 3c bf d7 8f 3d
       0.116252236 -0.07051813 0.02319962 0.07023572
000300 29 83 5f bd 67 6c 43 3d 47 7e c3 3c 0d 18 9d 3d
       -0.054568443 0.047710802 0.023863925 0.07670603
000310 7f c2 1a bd e8 44 a3 bd 0e 98 64 3c 78 4d a6 bd
       -0.037783142 -0.07972127 0.013952268 -0.08120245
000320 56 c4 a3 3c 80 4d 79 bc e5 27 b8 3d 5a 15 ca 3d
       0.019991081 -0.015216231 0.08991984 0.09867354
000330 fb ea 38 bd a8 27 e9 bd 41 cf fd bd d9 e0 dd bd
       -0.04514597 -0.11384517 -0.12393046 -0.10833902
000340 f2 aa 83 bb cc 1b e0 bd 8c f5 7b bd d0 64 f5 3d
       -0.004018181 -0.10942802 -0.06151347 0.11982119
000350 a9 3a 49 bd 2d a3 f8 3b 2c ed 57 bd bc af ca 3d
       -0.04912821 0.0075878114 -0.05271642 0.098968
000360 37 b5 25 bd 84 b7 8d bd ae 04 08 3e 42 d7 74 bd
       -0.040456023 -0.069197685 0.13283035 -0.0597756
000370 95 15 7f 3c 81 7a 1d 3d eb 46 a0 3c 71 61 88 bd
       0.01556911 0.038446907 0.019565066 -0.066592105
000380 96 94 95 3d 94 2b 21 bd 97 35 b9 3d ed 33 11 3c
       0.07303731 -0.0393482 0.090434246 0.008862478
000390 11 13 34 bc c4 11 ef bd 19 73 e5 3d 12 38 ae bd
       -0.010990874 -0.116733104 0.11203594 -0.08506788
0003a0 c5 c4 d2 bc 8e ce fb 3c 8e 02 5f 3d fe 47 96 3d
       -0.025728593 0.030738141 0.054445796 0.0733795
0003b0 58 1b b9 bd f2 27 cb 3d be 7e b8 3c 39 12 a1 bd
       -0.090384185 0.09919728 0.022521373 -0.07864804
0003c0 dc 18 c0 bd 1c 6f 54 bc 4d 15 81 bd 8c 13 86 bd
       -0.093797415 -0.012965944 -0.06302891 -0.06546697
0003d0 1d 45 d4 3b ab bc 53 bd ac 43 99 bd f8 20 8d bd
       0.0064779655 -0.0516936 -0.074836105 -0.06891054
0003e0 48 83 bd bd 8f ca 1b bb 78 40 2d bd a9 f5 89 bd
       -0.092535555 -0.0023771857 -0.04229781 -0.06736309
0003f0 46 8d 5e bd fc 4e bf 3d 6b cb 4c 3c 8d a9 e2 3d
       -0.054333948 0.09341237 0.0124996705 0.110674955

_func._drift._model.0.bias f4 [16]
000000 7a 5d 9b 3d 61 9b c8 bd 01 cc fb bd e8 b5 a5 bd
       0.075861886 -0.09795261 -0.1229477 -0.080913365
000010 ac b6 14 bd 77 4d d2 bc 82 35 f8 3c e8 00 cb bd
       -0.036307022 -0.025671704 0.030298952 -0.09912282
000020 7c 9e 5c 3d 3b 25 47 bd 57 05 8e bd e4 ec c1 bd
       0.05386208 -0.04861949 -0.06934612 -0.094690114
000030 6a 80 e7 bc 6b ee 1a be 09 df f8 3c 2d 6b c8 3d
       -0.028259475 -0.15130012 0.030379789 0.09786067

_func._drift._model.2.weight f4 [16, 16]
000000 62 92 f2 bd 42 6a 00 3e 11 8f 8e 3d 57 4e d0 3d
       -0.118443266 0.12540534 0.069608815 0.10171192
000010 65 4c 86 3d 7d 2a 2b bd 3c fd c1 bd 68 03 50 bd
       0.0655754 -0.041788567 -0.09472129 -0.0507845
000020 cb 00 29 3d f8 b9 06 be a4 49 e8 bd ba d8 b0 bd
       0.04126052 -0.13156879 -0.11342171 -0.08635087
000030 ce 19 a4 3d fd a0 af bd f3 c4 61 3d 29 ff 04 bd
       0.08012734 -0.08575628 0.055119466 -0.032469902
000040 bb 77 e1 bc 14 a8 b5 3d e8 95 b2 bd 46 b4 13 3d
       -0.027522912 0.08869949 -0.087199986 0.036060594
000050 00 9c 27 3c 2b 0c d3 bd 7f 44 1c bd 9f 1e c3 bd
       0.010230064 -0.10305055 -0.03815126 -0.09527325
000060 73 d8 73 bd 72 9c 7e bd dc 32 a6 bd a5 1c cb 3c
       -0.059532594 -0.062160917 -0.081151694 0.024793932
000070 e0 b5 53 bd 96 55 d6 3d c1 f5 9a 3d 55 0e 82 bd
       -0.05168712 0.10465543 0.07566405 -0.0635039
000080 d4 36 1b 3e 0e 1e ad bb 19 77 b0 3d 07 8e 0f be
       0.15157634 -0.005283124 0.08616466 -0.14019023
000090 77 6c 80 3b 3c a2 64 3c a3 a0 a0 3d 75 d7 c7 bd
       0.00391918 0.013954695 0.07843139 -0.09757892
0000a0 63 ff 91 bd f9 58 1c bd 23 d4 3f bc 54 f0 25 3d
       -0.07128789 -0.03817079 -0.011708292 0.040512398
0000b0 1a 84 2e 3d 46 1a d3 3d c7 a7 9b 3d a1 e8 cf bd
       0.04260645 0.10307746 0.0760036 -0.10151792
0000c0 fb 73 8c 39 dc 47 a7 bd ef 33 84 3d 30 3b 32 be
       0.00026789293 -0.08168003 0.06455218 -0.1740539
0000d0 80 a6 66 3d 3b 1d b7 3c 48 ce 81 ba 62 01 04 3d
       0.05631113 0.022352805 -0.0009903396 0.03222788
0000e0 62 bf f5 bd 5e d0 21 3e da f8 00 be b8 fc 81 3d
       -0.11999394 0.15802142 -0.1259493 0.063470304
0000f0 23 e0 dd bc 76 a1 d0 3d 15 8e 0f 3d 54 f1 0b ba
       -0.027084416 0.10187046 0.03504761 -0.000533839
000100 f4 7b 25 bd 42 28 a3 ba fa 0f c5 bd 15 f0 17 3a
       -0.040401414 -0.0012447911 -0.09622188 0.0005795968
000110 89 70 a3 bd 7a 9c ca bd 59 f2 d6 3d 69 60 9d 3d
       -0.07980449 -0.09893127 0.10495443 0.076844044
000120 16 b7 9d bd 79 56 ee 3d b4 03 8d 3d b9 49 c3 bd
       -0.077009365 0.11637587 0.06885472 -0.09535546
000130 b9 ea e6 3d 70 56 be bd 2b fc ff bd 57 ca 1e bb
       0.112752385 -0.092938304 -0.12499269 -0.002422949
000140 a7 ec b1 3d 05 4d d0 3d 08 31 5f 3d 30 6a 9b 3d
       0.08687716 0.1017094 0.05449012 0.07588613
000150 62 46 0b 3d 7a 6e f3 bd 1d f8 e0 3d 46 6b d8 bc
       0.03400267 -0.11886306 0.10984824 -0.02641834
000160 6d 90 e8 bd 8d 62 05 3d e4 f1 45 bd 29 51 a7 bd
       -0.11355672 0.03256469 -0.048326388 -0.08169777
000170 bc dc d8 bc fe 05 01 3d c1 b1 af bd f2 f6 8d 3c
       -0.026472442 0.031499855 -0.08578826 0.017329667
000180 cb a9 cb bc 33 10 3c 3d 50 31 b8 bd 4a 54 9a bd
       -0.024861237 0.045913886 -0.089937806 -0.07535608
000190 fb a6 10 3d 60 d2 97 3d 3e 35 22 bd d8 87 f5 3d
       0.035315495 0.07413173 -0.039601557 0.11988801
0001a0 34 e1 fd 3d 6f 09 7e 3b 0a f3 d3 3d 72 e1 a8 3d
       0.1239647 0.0038762947 0.103490904 0.08246125
0001b0 94 a4 20 3d 59 8d bb bc a1 f2 07 3e 0c f2 36 3d
       0.039219454 -0.022894548 0.1327615 0.044664428
0001c0 2d 29 99 bd b1 f5 09 be 57 e5 b3 3c e7 55 dd bd
       -0.07478557 -0.1347263 0.021959944 -0.108074
0001d0 18 28 d2 3d 45 d1 36 3d c1 23 51 b9 84 61 e0 bd
       0.102615535 0.04463317 -0.00019945113 -0.109561
0001e0 f4 ba 79 bb 53 36 54 3d 29 2a 34 bd 30 0a 27 3d
       -0.0038105818 0.05180962 -0.04398552 0.0407812
0001f0 98 f0 97 3b 6a ff 6f bd 9e 8b e8 bc ca d2 dc 3d
       0.0046368353 -0.05859319 -0.028386887 0.10782392
000200 51 80 85 3d 8f 8a b6 bc 3b 8a 3a 3d c1 23 b7 3d
       0.06518615 -0.022282867 0.045541983 0.089423664
000210 45 4e 56 bd 2c 9e 7b bd 30 4c d8 bd cf 94 7b bd
       -0.052320737 -0.06143014 -0.105614066 -0.06142121
000220 07 d7 f5 bc e4 8b ba bd 2d 06 fa bd d9 62 40 3d
       -0.03000976 -0.09108713 -0.12208209 0.04696927
000230 ec 99 be bc 8c 70 d2 3c 62 e7 d5 bc a8 a3 fd bb
       -0.023266755 0.025688432 -0.026111308 -0.0077404566
000240 fb f0 88 bd 8c 7e 4f bd 1c 65 d1 3d 49 de b8 bd
       -0.066865884 -0.050657794 0.10224363 -0.090267725
000250 93 3e 8e 3d bd 55 31 bd da 08 f2 bd c7 a9 8a bd
       0.06945529 -0.043294657 -0.118180946 -0.06770664
000260 b0 46 f6 3d d7 14 51 3d c2 73 f5 3d 28 7f af bc
       0.12025201 0.051045265 0.1198497 -0.021422938
000270 b5 0c 75 bd 1a a9 32 3c 20 b2 e0 bd d0 7b e2 bd
       -0.05982657 0.010904575 -0.10971475 -0.110587716
000280 25 8c 8c 3d 77 3c 03 be 74 b2 0c 3d 57 eb f3 3d
       0.06862668 -0.12816034 0.034349874 0.11910122
000290 20 08 7e 3d ed 20 c6 bd 96 79 d9 3d 20 ec 99 bb
       0.062019467 -0.09674249 0.10618894 -0.0046973377
0002a0 be 9e b6 bd fa 1d 91 b8 42 67 a4 bd 34 8e d7 3d
       -0.089169964 -6.9197224e-05 -0.08027507 0.1052517
0002b0 8c 17 c7 bc 52 24 5f 3d d0 fe ef 3d 22 ea a6 3d
       -0.02430322 0.054477997 0.117185235 0.08150126
0002c0 93 49 14 3e ba 74 16 bd 18 67 1a bd 27 a5 ab 3c
       0.14481191 -0.036732413 -0.037695974 0.020952774
0002d0 3c 1a c8 bd 43 1c b0 3d 35 99 51 bd ed 8d e4 3d
       -0.09770629 0.085991405 -0.0511715 0.11159883
0002e0 34 79 21 bc a4 5a a7 bc 23 f3 dd 3d 6d bd 19 bd
       -0.009855557 -0.020428963 0.1083739 -0.037534166
0002f0 4c cb ad bc ea 5f 1b bd a8 1c cb 3d 41 7e 5d 3b
       -0.021215104 -0.037933268 0.09917575 0.0033797177
000300 12 f1 16 3d 6e 60 bc 3d 15 ad 94 3d a0 14 97 bd
       0.036850996 0.0919808 0.07259575 -0.07376981
000310 8f dd b0 3d 28 5b c3 bd 7b 5b 99 bc 8f 82 b6 3d
       0.08636009 -0.09538871 -0.01872038 0.08911621
000320 d8 15 6b 3d ac f1 05 3e 28 3c 9a 3b 83 43 b1 bc
       0.05739388 0.13080472 0.004706878 -0.021638637
000330 cd bc 2e 3c 4a bb c8 bd 5a 70 1c 3d 98 9b 82 bd
       0.010665131 -0.098013476 0.038193084 -0.063773334
000340 be 23 1d 3e 93 81 1a 3d c1 41 88 bd 88 94 1c 3c
       0.15345666 0.037721228 -0.066531666 0.009556897
000350 93 2e b4 3d b0 36 07 3d 21 08 fb bc 8f 31 89 3d
       0.08797946 0.03301114 -0.030643525 0.06698906
000360 38 28 70 bd 9d 9e ac bd bf b3 7f bd 58 51 bc bc
       -0.058632106 -0.084286906 -0.06242728 -0.022988006
000370 11 d2 60 bd 0e ef bd 3d fc 64 27 bc bd 69 a1 3d
       -0.054887835 0.09274112 -0.010216948 0.07881496
000380 c1 89 1c bc 11 30 0b 3e d8 64 9e bd 2c 14 b6 3c
       -0.009554327 0.13592555 -0.07734078 0.022226416
000390 bc c2 a5 3c ec 32 c5 bc f3 12 46 3d b7 7f ee 3d
       0.020234458 -0.024072133 0.048357915 0.116454534
0003a0 9e 17 f2 3b 19 1f 58 3d ab 75 c1 3d 20 94 14 be
       0.0073880693 0.052764032 0.094462715 -0.1450963
0003b0 3b 55 e4 bc e3 fa 53 3d 38 8b be bc 40 87 a1 bd
       -0.027872672 0.051752936 -0.023259744 -0.07887125
0003c0 a9 6f eb bc e0 8f f0 bd a2 97 91 bc e6 ec 1e 3d
       -0.028739767 -0.11746192 -0.0177725 0.038800143
0003d0 14 8a 0b be 1b 18 c2 bc 48 2d b5 bd 8e a6 51 bd
       -0.13626891 -0.023693135 -0.08846527 -0.05118423
0003e0 80 25 b3 3d 86 37 77 3d 3a 10 8c bb 5a 43 0d bd
       0.08747387 0.060355686 -0.0042743953 -0.03448806
0003f0 d7 da aa bd ce 33 e1 bd f6 d3 54 bc 62 4f 6e 3d
       -0.08342522 -0.10996209 -0.012989989 0.058181174

_func._drift._model.2.bias f4 [16]
000000 39 66 0f 3d 82 fc d0 3c 3b e2 d6 bc 35 da 96 bd
       0.035009596 0.02551103 -0.026230922 -0.073658384
000010 40 f3 a3 3d b3 31 aa 3d 90 8a ba bc b8 96 c8 3d
       0.08005381 0.083102606 -0.02277115 0.09794372
000020 2f 2f f7 bd 13 c7 d3 3d 74 3c 22 bd 7e a9 dc 3c
       -0.120695464 0.10340705 -0.039608434 0.026936289
000030 ec 75 2a 3d 68 23 8e bd 7c 26 c2 bc 74 b8 c0 bc
       0.041616365 -0.06940347 -0.023699991 -0.023525454

_func._diffusion._model.0.weight f4 [16, 17]
000000 7f e2 a9 bc 8c eb 17 bd 39 57 88 3d a8 ff 55 3d
       -0.020737885 -0.03708987 0.066572614 0.052245766
000010 f4 a8 22 3d d4 75 22 3d 91 11 ac bd fc 1c 6d 3d
       0.039711908 0.03966315 -0.08401788 0.05788897
000020 cf b7 6c 3d 10 e1 35 3d 7a 59 1d 3d 77 b9 16 3b
       0.05779248 0.04440409 0.03841541 0.002299873
000030 a7 25 98 3d 24 e7 c7 bc 7e d6 89 3d 96 2f 27 3c
       0.074290566 -0.024402209 0.06730364 0.010204216
000040 bb 11 1b 3d a4 06 34 bd 20 d7 d1 bd 5f 79 82 3d
       0.037858706 -0.043951645 -0.1024611 0.06370806
000050 34 6e 6c 3d 45 1b be 3d 45 7d 85 3c 34 09 74 bb
       0.057722285 0.09282545 0.016295085 -0.003723693
000060 e1 3c e1 bd 3e fc a3 3d 14 b2 ba bd 87 a0 8a 3d
       -0.1099794 0.08007096 -0.09115997 0.067688994
000070 f4 96 db bd 43 37 bc bd 5b 36 92 3d 8a de db bd
       -0.107221514 -0.09190228 0.07139274 -0.10735805
000080 05 7e 9b bd a3 43 76 3c 5b 9b 52 bc e6 c9 8e 3d
       -0.07592396 0.015030774 -0.012854422 0.06972103
000090 8b 00 83 3d ca d3 cb 3d 91 6d f4 3b b1 a5 0b 3b
       0.06396588 0.09952505 0.0074593504 0.0021308477
0000a0 78 ed b2 3c 52 7d 1c 3d df 24 c9 bc ff 97 8d 3d
       0.02184175 0.038205452 -0.024553714 0.069137566
0000b0 f2 4e bc 3c f7 d9 bd 3c d2 a6 09 bd 16 95 d3 bd
       0.022986863 0.023175223 -0.033606358 -0.1033117
0000c0 56 3f 36 3d f4 25 c7 bc 6a 91 cb 3d a7 3a b9 3d
       0.044493996 -0.02431009 0.09939845 0.0904439
0000d0 78 0c 91 bd 88 36 53 3d 9d ea 9f bd 5d 91 9e 3b
       -0.07082456 0.051565677 -0.07808421 0.004839106
0000e0 1d 0d 93 bb 60 85 59 3d 03 0b 9a bc 6f f8 fd 3d
       -0.004487647 0.053105712 -0.018804079 0.124009006
0000f0 5e 35 ae bc 84 ed e6 bd f0 1b c9 3d 34 a1 cd 3d
       -0.021265682 -0.11275771 0.09819782 0.10040513
000100 19 bb 73 3d 0c a5 75 bd 19 71 a1 3d 19 6a e1 bd
       0.059504602 -0.059971854 0.078829 -0.11006565
000110 5f bb 16 3c 95 26 96 3d 09 83 d3 3d 19 bf b2 bd
       0.009199946 0.07331578 0.10327727 -0.08727855
000120 3d 17 fb bc 74 e0 fc 3d 44 c3 a4 3d 51 26 f1 3d
       -0.03065073 0.123474985 0.080450565 0.117748864
000130 b6 c7 9e 3d 1b d8 b5 bd 80 5a aa bd a5 e7 b7 3d
       0.077529356 -0.088791095 -0.08318043 0.089797296
000140 f8 34 52 3d c6 51 e2 bb f6 fc e0 3d 5f 6f cd 3c
       0.051320046 -0.006906721 0.109857485 0.02507752
000150 f1 8b d4 3c e8 c2 4d 3d 94 fb de 3c 77 29 90 bd
       0.025945636 0.050234705 0.027219571 -0.07039159
000160 9e 5b f8 3c e0 3a bf bd 9f d5 0d 3d 6d e8 a0 3d
       0.030317124 -0.093374014 0.034627553 0.07856832
000170 34 80 cc bd 40 2c c3 bd 38 c7 b9 bd 2c 9d b6 3d
       -0.0998539 -0.095299244 -0.09071201 0.08916697
000180 96 49 a6 3d 84 a7 8b bd 0a ff 81 bd 9a 55 37 bd
       0.08119504 -0.068190604 -0.06347473 -0.04475937
000190 1b f1 9e 3b 52 10 d0 bd 65 c8 a1 3a 7b 29 36 bd
       0.0048505194 -0.10159363 0.0012343047 -0.044473153
0001a0 b5 58 05 3d 61 a1 e1 bd e5 c0 53 3d 65 ee c0 bd
       0.0325553 -0.11017109 0.05169763 -0.0942047
0001b0 1e b5 37 bd e6 22 75 3b 5b 36 3e bc 64 21 2a bd
       -0.04485046 0.0037404834 -0.011609639 -0.04153575
0001c0 e5 ee 72 bd 3c a7 d7 3d d0 61 4b bd f0 e1 1d bd
       -0.05930986 0.10529944 -0.04965383 -0.03854555
0001d0 23 9a fd 3d b8 a6 e3 3d 74 b1 b9 3d 4c 90 2b bc
       0.12382915 0.111157835 0.090670496 -0.010471415
0001e0 46 31 3d 3d 94 50 11 3c a9 51 ac bd 0d 0b 2b bc
       0.04618957 0.008869309 -0.08414013 -0.010439646
0001f0 ba 28 f4 bd 7a 4f b6 bc ea 9a b3 3d d2 0e 99 bd
       -0.119218305 -0.022254694 0.08769782 -0.0747353
000200 00 a5 15 3d d7 09 92 bd 65 fa 1f 3d 07 1e e3 3d
       0.03653431 -0.07130783 0.039057154 0.11089712
000210 22 ba 90 3d 4d 32 f3 3d 66 12 50 bc 1f 7c fe 3c
       0.07066752 0.118748285 -0.012699699 0.031065045
000220 55 f8 2a bc 25 38 86 bd 65 85 d7 bc 5e 84 7b bc
       -0.0104351835 -0.065536775 -0.026308725 -0.015351383
000230 57 7f cb 3a 2b f1 a9 3d d7 5d c4 3c 3d 42 e8 bc
       0.0015525621 0.08297952 0.023970528 -0.028351897
000240 26 eb 2a bc b9 9f 4e bd 4a 2c 29 3d 7f 07 a6 3d
       -0.01043204 -0.050445292 0.041302003 0.081068985
000250 10 e6 29 bb 15 c6 1f 3d 12 91 82 3d 2a 9f e9 bd
       -0.0025924481 0.039007265 0.06375326 -0.11407311
000260 f3 88 28 bc c2 d8 d6 3d 67 2d c3 bd 25 c9 b8 3c
       -0.0102865575 0.10490562 -0.09530144 0.02255685
000270 75 94 a5 bd 7b 7f a0 bb cf 60 09 3d 0a 77 05 3d
       -0.080849566 -0.0048980094 0.03353959 0.032584228
000280 5c 00 c9 bd 49 6d 58 3d bc 4b d3 3d 4b 74 b8 3d
       -0.09814522 0.052838597 0.103171796 0.09006556
000290 66 32 ac 3d 0e 55 d3 3c 73 12 50 3d aa d7 99 bd
       0.0840805 0.025797393 0.050798845 -0.07511838
0002a0 5b 17 e2 bd db 4c 01 3d 0b ef bb bd 68 ee 30 bd
       -0.11039611 0.031567436 -0.09176453 -0.043196112
0002b0 20 56 a6 bd 94 8b 88 3d 63 38 96 ba 9d 41 47 bc
       -0.08121896 0.066672474 -0.0011460896 -0.0121616395
0002c0 56 8c 81 3c d3 fa f1 3d 97 4a a0 3d 65 21 5e bd
       0.015813988 0.11815419 0.07826727 -0.054231066
0002d0 52 1d 0a 3d 90 09 e7 3c 2c 44 c6 bd b4 be e0 3d
       0.03371937 0.028202802 -0.096809715 0.10973874
0002e0 7f 5f c7 bc 4a 6b 70 3d 70 40 bd 3d c8 eb 51 3d
       -0.024337528 0.05869607 0.09240806 0.05125025
0002f0 01 ec b3 3c 6a 86 31 bd 37 2b ea bc 59 ea da bd
       0.021963121 -0.043341078 -0.02858506 -0.106892295
000300 f3 fe 87 3d 7a 4a 1b 3d 61 d0 a8 3c a2 ae ca 3d
       0.066404246 0.037912823 0.020607175 0.0989659
000310 01 2c e6 bd 72 4a b8 3c 52 34 f5 3d 39 eb 8a bd
       -0.11238862 0.022496436 0.1197287 -0.067831464
000320 03 51 ec 3d 9b 82 2a 3d 6b 47 0b bd df 60 ec bd
       0.11538889 0.04162846 -0.034003656 -0.11541914
000330 da 9b 70 3d 1a ae 5f 3d a0 27 c7 3d e0 0d fe bc
       0.05874238 0.054609396 0.09724355 -0.031012475
000340 8b 77 6d bd 37 56 95 3c 4e 0b 9b bd bc 5d b0 bd
       -0.057975333 0.018229587 -0.075705156 -0.086116284
000350 7f 7d 62 3c 12 41 b9 bc ae 10 ab bd 0a 6a a7 bc
       0.013823866 -0.022614036 -0.08352791 -0.020436306
000360 d7 f8 56 bd a6 25 90 3c 03 a2 99 bd 9f f4 1a 3c
       -0.052483406 0.017596077 -0.075016044 0.009457736
000370 08 57 00 3e dc 4b 9e 3d 3c 58 7d 3d 92 95 e2 bd
       0.125332 0.07729313 0.061851725 -0.110636845
000380 13 8f 89 bd 44 0a e8 3d fe 9b d2 bd 10 f5 12 3c
       -0.06716742 0.11330083 -0.102836594 0.00896956
000390 72 8c d5 3d 6c e7 da bc 0c 19 44 3d 3c ef d2 3d
       0.104271784 -0.026721679 0.04787545 0.102995366
0003a0 fe 01 a4 3d 81 1c cc 3d 28 6b a2 3c 58 7a 8c 3d
       0.080081925 0.09966374 0.019826487 0.06859273
0003b0 1e 85 82 3d c0 95 ba 3d af 68 b3 bc b5 e1 6d 3c
       0.06373046 0.09110594 -0.021900503 0.014519145
0003c0 85 25 c6 bd f3 dc 2f bc a3 ed ab 3d 83 8c de bd
       -0.09675125 -0.010733831 0.08394935 -0.10866644
0003d0 5b b4 d1 bd da a6 c4 3d c2 ba ec bd 7d 1b 8f 3b
       -0.10239478 0.09602137 -0.11559059 0.0043672905
0003e0 57 53 d3 3d db 82 35 bd 53 8f 4d bc 6d df 91 3d
       0.1031863 -0.044314247 -0.012546378 0.07122693
0003f0 35 d7 dd bd d3 a6 ac 3d be b4 8d 3d d8 cc 81 bd
       -0.10832063 0.08430257 0.069192395 -0.06337899

_func._diffusion._model.0.bias f4 [16]
000000 13 db 99 3c d1 80 f1 3d 1f 7a 4a bd e6 8a f9 bd
       0.01878122 0.11792148 -0.04943287 -0.12184696
000010 8f 2a bf 3d 41 71 f5 bb c2 c4 8a 3d ac e5 fa 3c
       0.09334289 -0.0074903076 0.0677581 0.030627094
000020 f6 86 86 bd 28 79 c6 3d 16 84 41 3d 0a 79 9d 3d
       -0.065687105 0.096910775 0.047245108 0.07689102
000030 d2 3e fc 3c 63 e1 e2 bc a6 c2 70 ba 2b c7 79 bd
       0.030791674 -0.027695363 -0.00091842783 -0.060980957

_func._diffusion._model.2.weight f4 [48, 16]
000000 3b 0e 08 3d 3e 66 2e 3c 50 14 d5 3d ff d8 bf bd
       0.033216696 0.010644494 0.10404265 -0.093675606
000010 de 5b 7a 3d f4 f1 1f bd c0 b6 d3 3c 97 a9 01 3c
       0.061122768 -0.039049104 0.025843978 0.0079139685
000020 a2 05 2b bd e0 b7 0e 3d fc 56 02 bc 98 34 d6 3c
       -0.04175342 0.034843326 -0.007955309 0.026148126
000030 6d 7b bb 3d b2 f6 fd 3b a0 8d bc 3d c1 0e 3b bc
       0.09154401 0.0077503556 0.092067 -0.011417092
000040 a1 f7 57 bc d8 5d f8 bd b9 3e a5 3c 35 01 ae bd
       -0.013181598 -0.12127274 0.02017151 -0.08496324
000050 05 a1 2d bd ce b4 8c 3c ac c0 f6 3d b8 a0 3e bc
       -0.04238989 0.017176058 0.12048468 -0.011634998
000060 ad a3 b4 bd cb 85 dc bb cb a4 94 bd bd fa f4 3d
       -0.08820281 -0.0067298166 -0.07257994 0.11961887
000070 da da ac bd 72 13 ce bd 44 00 79 bd 6b d1 eb 3c
       -0.0844018 -0.10062303 -0.06079127 0.028786382
000080 ce 47 d6 bc 85 a4 e5 3d 5e 7f 99 bc 27 53 81 bd
       -0.026157286 0.1121302 -0.018737491 -0.06314688
000090 ae a2 89 3d bb 5c a0 3d d8 cc 81 3d 2d 88 96 bc
       0.06720482 0.07830187 0.06337899 -0.01837548
0000a0 0f 12 cc bc 8f e2 eb 3b fe 87 14 3d d3 5c 6c bb
       -0.024910955 0.0071986387 0.036262505 -0.003606607
0000b0 92 2b 00 3c 23 c7 e9 bc ed 17 9d 3b ac de 86 3c
       0.007822888 -0.028537339 0.004794112 0.0164636
0000c0 ff 3d 84 3d 6b dd 88 3d 38 e9 b4 3d 39 61 a8 3c
       0.06457137 0.06682857 0.088335454 0.020554172
0000d0 72 c0 b7 bd 33 22 be 3d fb e7 02 be 36 37 cb bd
       -0.08972253 0.09283867 -0.12783806 -0.0992264
0000e0 a8 38 e1 bc b2 6a 86 3d 6f 9c 0b 3c 62 1c 84 bd
       -0.027492836 0.06563319 0.008521183 -0.06450726
0000f0 2a 6d 1e bd c1 b5 fb bc 53 35 40 bd fa de fa 3d
       -0.038678326 -0.030726315 -0.046925854 0.12249561
000100 7e ff c2 bd d6 00 e7 bd 99 c6 f5 3d f0 24 9d bd
       -0.095213875 -0.11279456 0.1200077 -0.07673061
000110 48 a2 73 bd c4 4e 66 3d c3 91 dd bd c6 8a 1b bd
       -0.059480935 0.05622746 -0.108188175 -0.03797414
000120 e4 40 2d 3d c6 a4 d7 bd 0e 50 9d 3d da 90 e0 bd
       0.042298213 -0.10529475 0.07681285 -0.10965128
000130 14 71 66 bd 5a 81 6c bd 91 9b 4d bd 56 68 a0 bd
       -0.056260183 -0.057740547 -0.050197188 -0.078324005
000140 b4 77 36 bd 3d b4 c5 bc 28 6f 3d 3d 2d 01 8a bd
       -0.04454775 -0.024133796 0.046248585 -0.067385055
000150 6d ee 00 3d f0 eb ea 3d b5 f9 c6 bd 2b 7e bf 3d
       0.03147738 0.11470783 -0.097155966 0.093502365
000160 60 b8 93 bd 00 69 10 bc 1b 06 30 bd 8c c7 e6 3d
       -0.07212901 -0.008814096 -0.042974573 0.11268529
000170 1f 24 30 3d e3 11 0c bd 65 42 54 3d 90 d1 af bd
       0.043003198 -0.034196746 0.05182113 -0.08584893
000180 2f 37 bc bd 74 6f 89 3d a3 d9 92 bd f1 b4 76 3d
       -0.09190213 0.06710711 -0.07170417 0.060231153
000190 a2 6e ec 3d 13 5f c6 3d fd a9 64 3d a9 24 a7 3d
       0.11544539 0.09686103 0.055826176 0.08161289
0001a0 bc 89 ea bd cd a9 35 3d 82 80 cc bb 00 b3 91 bd
       -0.11452052 0.044351388 -0.0062409053 -0.0711422
0001b0 28 1a 1f bd e9 03 95 3d 45 81 ff 3c 60 fb 83 3d
       -0.038843304 0.072761364 0.03118957 0.0644443
0001c0 f4 9e 1a bd 8b b8 b7 3c 6d 32 e8 bd e3 c7 a8 3d
       -0.037749246 0.022426864 -0.11337743 0.0824125
0001d0 aa 9a 67 bc 63 cb dc 3d 73 c8 2a bd 38 0f 26 3d
       -0.014135996 0.107809804 -0.04169507 0.040541857
0001e0 67 e7 b6 bd 80 35 7e 3d bf 5b c3 3d 0a 10 fc 3d
       -0.08930855 0.06206274 0.095389836 0.12307747
0001f0 06 ae 2b bd 48 24 21 bd 6b 0c 00 be ca 16 dc bd
       -0.04191401 -0.03934124 -0.12504737 -0.10746534
000200 2d b6 01 bd 52 32 01 3e e9 01 f0 bd 84 62 8a 3d
       -0.031667877 0.12616852 -0.11719114 0.067570716
000210 42 39 07 be 76 ef b8 bd 92 3e c8 3d cb a7 97 3d
       -0.13205436 -0.090300485 0.09777559 0.07405051
000220 d3 6a 05 bd bf be 29 3d aa 08 e3 3d 22 d8 3e bd
       -0.03257258 0.041441675 0.11085637 -0.04659284
000230 fb 43 45 3d 01 bf 5c 3c 4a 06 2d bc 9e f3 16 bb
       0.048160534 0.013473273 -0.010560581 -0.002303339
000240 98 bf ee 3c e9 5b a9 3d 3c e5 3e 3c 0c fa 03 3e
       0.029144093 0.082694836 0.011651333 0.12888354
000250 7b b6 50 bd 5a cc a1 3d bb c3 bc bd b1 c3 e3 3c
       -0.050955277 0.07900305 -0.0921702 0.027803274
000260 d7 af cc bc fe b0 af 3d 66 67 27 3d 89 97 d9 ba
       -0.02498619 0.085786805 0.040870093 -0.0016600947
000270 a1 67 01 3b a0 7d ca bd 70 19 85 3d b2 b4 ab 3d
       0.0019745606 -0.09887242 0.064989924 0.08384074
000280 28 43 ae bd 1d 19 d2 bd c2 bc d4 3d da 0c e1 3d
       -0.08508903 -0.10258696 0.10387565 0.10988779
000290 3f 48 05 3e 08 72 6d 3d 19 ac b9 bc 79 5f 7b 3c
       0.13015841 0.057970077 -0.02266507 0.015342587
0002a0 cc 45 b1 3d d8 f2 a0 bc 9f 1c 10 3d 7d 25 9f 3c
       0.08655891 -0.019647047 0.035183545 0.019427055
0002b0 0a 2d e3 3c 1c b9 02 3e 40 b9 ed 3d 3e 51 57 3d
       0.027731437 0.12765926 0.11607599 0.052567713
0002c0 d7 5d 14 bd 26 d8 14 3c 9f 86 d1 bd 1f b8 ad 3c
       -0.036222305 0.009084737 -0.10230755 0.02120596
0002d0 10 f5 a7 bd 2a 86 1f 3d ac b1 d5 3d c2 db 62 bd
       -0.08201039 0.03894631 0.10434279 -0.05538536
0002e0 c0 f3 7a bd ee 55 68 3d d5 04 d3 bd f5 df ed 3d
       -0.061267614 0.056722574 -0.10303656 0.11614982
0002f0 75 6d d0 bc 6c 03 e4 bd f9 06 c1 3c 0f 8a 46 bd
       -0.025442818 -0.11133465 0.023562895 -0.048471507
000300 95 89 ac bd 97 be 05 bd 37 3b 00 3e 2e 25 ab 3d
       -0.08424679 -0.032652464 0.12522589 0.08356701
000310 6d 5f f8 bc c5 b1 9d bb 88 31 bf 3d ea 1a 8c bd
       -0.03031894 -0.0048124515 0.09335619 -0.06841071
000320 1a 2e ea 3d 9c c1 b0 bb 41 79 e7 39 72 eb 3b 3c
       0.114345744 -0.005394174 0.00044150095 0.011469709
000330 f1 b2 cf bd 4a 5e dc bd 2a e2 28 bd 9d fb 4d bc
       -0.10141552 -0.10760172 -0.04123131 -0.012572196
000340 2c 31 93 3c 65 c2 36 bd e1 5f 9a 3d 9c bc 9c 3d
       0.017967783 -0.044618983 0.07537819 0.07653162
000350 e8 0a 2c bd 56 32 e8 3b 95 54 68 3c 3f bc b4 bb
       -0.04200259 0.0070860786 0.014180322 -0.0055156047
000360 71 2f ba 3d 38 06 2c bd 13 cc 74 bd 0e 04 8b 3d
       0.0909108 -0.04199812 -0.059764933 0.06787883
000370 01 a9 81 3c 0f 51 29 bd 3c ac 4b 3d b7 c2 5c 3d
       0.015827658 -0.04133707 0.049724802 0.053896632
000380 a2 58 83 bd 85 f8 c0 bd d9 ac 3c bd d2 5e a2 3d
       -0.0641339 -0.09422401 -0.046063278 0.07928242
000390 07 cc c6 3d 64 aa a1 3d cc f6 cb bc 75 a6 b0 3d
       0.09706884 0.078938276 -0.024897955 0.08625499
0003a0 c5 89 9a bd d5 cd 84 bd ab 1c cf 3b 17 49 2e bd
       -0.07545809 -0.06484572 0.006320556 -0.042550173
0003b0 ab 4f 86 3d 30 09 e5 3d e0 5c cd 3d 4e 5f e8 bd
       0.06558164 0.11183393 0.1002748 -0.11346303
0003c0 30 dd ad bd 88 84 8d ba db 51 af bc 15 88 26 bd
       -0.08489454 -0.0010796944 -0.021401336 -0.04065712
0003d0 16 d5 05 bd 6b c0 53 3d 07 90 40 bd b6 f4 5f bd
       -0.032673918 0.051697176 -0.047012355 -0.054676734
0003e0 92 61 0a bd 07 eb 4d bd c4 f7 a5 3d 9b 01 da 3d
       -0.033784457 -0.050272968 0.08103898 0.106448375
0003f0 a6 1f ea 3b 42 0e ea bd de 97 aa bc 2a f7 95 3d
       0.007144886 -0.11428501 -0.020824369 0.073225334

_func._diffusion._model.2.bias f4 [48]
000000 fa 31 24 3d dd 94 af 3d 54 99 2f bd 65 78 09 3c
       0.040086724 0.08573315 -0.042870834 0.008390521
000010 3e 46 7f bd d7 f2 ce bd 17 46 7b 3c 7d c3 3b bd
       -0.062322848 -0.10104912 0.015336535 -0.04584073
000020 db 64 c3 3d 46 9c a8 3d 52 14 88 bb b3 6e 3b 3d
       0.09540721 0.08232932 -0.004152813 0.045759868
000030 8a 72 f3 bd ac 27 58 bd 92 79 5d 3d b5 43 98 bd
       -0.11887081 -0.05277221 0.054071017 -0.07434789
000040 65 2c 09 be ef c3 7a bd 14 af 81 bc e1 ee 37 bc
       -0.13395841 -0.061222013 -0.015830554 -0.011226387
000050 7e b5 88 3d 84 f1 fb bd 39 4f c7 bd a0 5b c5 3d
       0.06675242 -0.12301925 -0.097319074 0.09636617
000060 f8 72 86 bd ee f2 7a bd a2 cf 8c bd d1 23 51 3a
       -0.06564897 -0.061266832 -0.0687554 0.00079780543
000070 67 f2 78 3c 62 3b 46 bd fc b6 4b bd f7 a9 b2 bd
       0.015194512 -0.048396476 -0.049735054 -0.087238245
000080 c8 b6 c8 3d 39 fb 28 bd f5 88 0b 3d 90 bb 8c bc
       0.09800488 -0.04125521 0.03406616 -0.01717928
000090 bd 90 61 bd c6 7c f8 ba 43 5a cf bd 5e 0a 3e bd
       -0.055069674 -0.0018958084 -0.10124638 -0.046396606
0000a0 45 e0 ce bd 40 d5 a1 bd 68 f5 33 3d 17 4e 99 3d
       -0.1010137 -0.07902002 0.04393521 0.074855976
0000b0 d2 6a 7e 3c c1 09 71 3d b4 1b de bd 88 0f c6 bd
       0.015528398 0.058847193 -0.10845128 -0.09670931

_readout.weight f4 [1, 16]
000000 1e ff 5e 3e 28 4a 4a be 62 ed 5d be 9c 3b 39 be
       0.21777007 -0.19754851 -0.21672586 -0.18089145
000010 02 1e 57 be bb 45 a9 bd ee f9 e6 3d c4 b8 86 bc
       -0.21007541 -0.08265253 0.11278139 -0.016445525
000020 7b ef 6c 3d 4c 2a 1f 3d bd d7 cb 3a f8 ba e2 bd
       0.057845574 0.038858697 0.0015551966 -0.11070818
000030 d4 65 46 be 2e 25 7b bd d5 6c 6b 3d ca ee 7e 3d
       -0.19374782 -0.061314754 0.057476837 0.062239446
