long_lorenz_63/latent_sde.pt (torch, 432235 bytes, 36 tensors)

pz0_mean f4 [1, 4]
000000 61 e5 0c c0 d3 b7 06 40 14 92 55 40 6c fa 5b 3f
       -2.2015002 2.1049697 3.337041 0.8592899

pz0_logstd f4 [1, 4]
000000 36 c4 ef bf 62 c2 ed bf a6 61 eb bf a8 b0 f9 bf
       -1.8731754 -1.8574946 -1.8389175 -1.9507036

encoder.gru.weight_ih_l0 f4 [384, 3]
000000 ce 91 1d 3e 83 b9 66 3e da 41 1a 3d 83 45 51 be
       0.15387651 0.22531705 0.037660457 -0.20436673
000010 07 51 1e be 49 15 5b 3c 52 7a 60 be 42 6a 53 bc
       -0.15460597 0.013371774 -0.21921661 -0.012903752
000020 2c 65 aa 3d 18 c2 c9 be a0 12 1d be 4b 25 5a bc
       0.08320078 -0.39405894 -0.15339136 -0.013314555
000030 3d 58 f5 3d f2 35 be 3d 6b 49 f5 3c 37 ea bf bd
       0.11979721 0.09287633 0.029942235 -0.09370845
000040 9d 3f 65 bd ba 11 35 3c 0e 08 a0 3e 83 51 f6 3e
       -0.05596887 0.01105159 0.31256145 0.48109064
000050 60 20 a4 3d ed 18 f9 3e 26 3c 3c 3f a2 8e 39 3d
       0.080139875 0.4865183 0.7352928 0.04530204
000060 0f 98 d7 bd 68 e5 0d be f5 cd bb 3d 33 7f 8b bd
       -0.1052705 -0.13857043 0.091701426 -0.06811371
000070 d4 a5 63 3c b8 fb 04 bd 72 95 26 3d 22 2f 1e 3d
       0.013894517 -0.03246662 0.040669866 0.038619168
000080 9b a7 9c 3d 96 97 93 3d 93 f2 a7 3c 77 b0 fa bc
       0.07649156 0.07206647 0.02050141 -0.030601723
000090 7c d2 bb bd 10 24 9b 3d 38 e9 14 bd 54 58 88 bd
       -0.09171006 0.07575238 -0.036355227 -0.06657472
0000a0 5e dc 2c be f7 37 eb 3d e2 45 f1 bc b5 be 51 bd
       -0.16880938 0.11485284 -0.029452268 -0.051207263
0000b0 d7 74 67 be 48 42 5e be 85 ab 08 be 20 fd 31 3e
       -0.22603165 -0.21704972 -0.1334668 0.17381716
0000c0 db fb b6 be f9 97 23 be fc de 94 3c eb dc c4 3e
       -0.35739025 -0.15975942 0.018172733 0.38449797
0000d0 a0 66 cc 3e e7 6d 44 3e 56 1c f1 bc 04 17 da 3e
       0.39922047 0.1918255 -0.029432457 0.42595685
0000e0 84 57 03 bd f9 75 12 bb 27 9f 78 3d ab a7 6a 3d
       -0.032065883 -0.002234815 0.060698655 0.057288807
0000f0 38 1a 0e 3e 6a 17 4d 3e 1e 74 0f bd 6f 87 07 bb
       0.13877189 0.20028463 -0.035022847 -0.002068009
000100 4f b0 3d bb c7 10 95 3d 6b f1 ec bd 57 47 9b bd
       -0.00289442 0.07278591 -0.11569484 -0.07581966
000110 75 d0 82 bd 23 08 cb 3d 56 2f 79 3d 70 c5 96 3c
       -0.06387416 0.09913661 0.06083616 0.018404692
000120 05 17 8f be 00 b6 d3 bd 08 17 7a bd 0b da 87 bd
       -0.2794725 -0.10337448 -0.06105712 -0.06633385
000130 74 cc 70 3c 41 85 5d 3e 45 61 86 be e9 6b 1a bc
       0.014697183 0.21632864 -0.26246086 -0.009425142
000140 14 f7 4a 3b 6b 83 6d be 9e 8b b1 bd 04 59 2b 3e
       0.0030970024 -0.23194663 -0.08669208 0.16733176
000150 2a 32 b9 bd 6e a6 1f bd b9 7b 2f bd 99 e5 da bd
       -0.09042771 -0.03897708 -0.0428426 -0.106883235
000160 72 67 70 3d b0 e5 b4 3d f2 17 80 be 85 6e 2a be
       0.058692403 0.08832872 -0.2501827 -0.16643722
000170 40 69 86 3d 80 9f 1e be cf 84 03 be d0 78 3e 3e
       0.065630436 -0.15490532 -0.12843631 0.18600774
000180 12 72 fa bb ed 04 fa bd b3 b3 f5 3d 3e e0 8a 3b
       -0.007642993 -0.12207971 0.119971655 0.0042381575
000190 f5 c4 68 3d da 1a 11 3d 0d 4c b8 3e f0 4f 1d 3e
       0.056828458 0.035426 0.35995522 0.15362525
0001a0 76 fd 86 bc 6c 72 bd bd 9a f9 76 3a 23 83 a0 3d
       -0.016478281 -0.0925034 0.0009421349 0.07837512
0001b0 c7 ba 66 3d aa 33 08 3e d5 70 86 3a 35 e3 9c be
       0.05633047 0.13300958 0.0010257015 -0.30642095
0001c0 25 3d 62 be 82 10 1b 3e 37 f4 fc bd 57 45 96 be
       -0.22093637 0.15143016 -0.12351268 -0.29349777
0001d0 60 42 fe bb b2 f9 2d be 54 ff 50 bd 91 60 37 3d
       -0.0077593774 -0.16989782 -0.05102475 0.044769827
0001e0 b7 ef d0 3d 39 ed 0d bc 84 4f 08 be 8f 48 b1 bc
       0.10201972 -0.008662515 -0.13311583 -0.021641044
0001f0 6b 0a 46 3e d3 f4 04 3d 9a d3 0a be dd e0 46 be
       0.19339912 0.032460045 -0.13557282 -0.19421716
000200 10 03 f3 bc e5 a0 74 3d 4c 51 d4 3d b7 22 fd bc
       -0.029664546 0.059723753 0.10367069 -0.030900342
000210 75 b2 3b bb aa 05 53 3d 4c 2e 71 3d 00 3a bc 3d
       -0.0028640304 0.051519074 0.058882043 0.0919075
000220 37 75 85 3d 2e d6 9a 3d af e0 95 3d 23 98 ba 3c
       0.065164976 0.07560383 0.073182456 0.022777623
000230 0b 0e b3 3d 9d e2 74 be b6 e2 92 be 95 1a 01 3e
       0.08742913 -0.23914571 -0.28688592 0.12607796
000240 9d 57 15 bf 85 34 8d be 9f 2f 1f 3e 9e ff 72 3d
       -0.5833681 -0.27579132 0.1554551 0.059325807
000250 62 c6 12 3d 81 ba 71 bd b1 c3 01 bd ce de d9 3c
       0.035833724 -0.059015755 -0.031680766 0.0265955
000260 0c a1 94 bc 6c 4b 9b be 6d 53 3d be 35 8e bb bc
       -0.0181432 -0.3033098 -0.18488856 -0.022894958
000270 eb 19 ec 3c 17 29 ff 3d 44 54 d0 bb b3 a5 c3 3c
       0.028820952 0.12459009 -0.0063577015 0.023882722
000280 84 6f 54 3d 42 7f ea 3d 82 ad 3e bd e0 6e a8 bd
       0.051864162 0.11450054 -0.04655219 -0.08224273
000290 65 66 ef bd 5f e5 22 bd c5 a7 34 bd 14 2e f1 bd
       -0.11689452 -0.039769527 -0.04410531 -0.11776367
0002a0 8b a5 70 bd 15 23 92 bc 3d 6d 33 3d 3c 5f 8c bd
       -0.058751624 -0.017838994 0.04380535 -0.06854102
0002b0 7d e2 82 bd ef 32 30 be f6 7a 6e bc 98 ff 56 3e
       -0.063908555 -0.1720693 -0.014555683 0.20995939
0002c0 ce f4 1a be 6d 54 d8 bc b4 3c a5 3b e1 bf 74 be
       -0.15132448 -0.026407445 0.0050426368 -0.23901321
0002d0 65 ed 13 be 56 73 5c 3b d3 a3 a6 3d f9 fe 83 bd
       -0.14446028 0.0033638082 0.08136716 -0.064451165
0002e0 3f 06 42 3d 1c 53 d2 bd 22 d3 12 3d 7b d6 97 bd
       0.047369238 -0.10269758 0.035845883 -0.07413956
0002f0 0a 33 08 3e d5 22 03 bd df 21 c8 3d 30 fe a4 3d
       0.1330072 -0.03201564 0.097720854 0.08056295
000300 77 27 3c 39 0c 7c be bd 9f 91 0e 3e ce d5 33 3d
       0.00017943779 -0.09301004 0.13922738 0.043905072
000310 b8 ae 7c 3d 34 c0 39 3c 04 6e 54 be 5e 81 49 be
       0.061690062 0.011337329 -0.20745093 -0.19678256
000320 e1 6b 87 3d 4f db 97 be f9 4b 17 bc 1c 32 a1 3d
       0.06612373 -0.29659507 -0.009234422 0.07870886
000330 49 31 34 bd a8 b8 28 bd 00 6d af 3d ee ae 36 bd
       -0.043992314 -0.041191727 0.08565712 -0.04460042
000340 f2 14 99 bd 81 3c e5 3d e9 c3 7d be d6 86 a3 bc
       -0.07474698 0.11193181 -0.24781765 -0.019961756
000350 c8 35 64 3d 41 44 c5 3d eb 63 81 3d 56 fe a5 3d
       0.055715352 0.09632159 0.06317886 0.08105151
000360 d4 49 17 3c 84 b7 a6 bd b9 06 0a 3e fd f9 4f 3d
       0.009233911 -0.081404716 0.13479127 0.050775517
000370 15 b7 79 3d 65 bc 78 3d d3 ca aa be 09 d0 d4 bd
       0.060965616 0.060726542 -0.33357868 -0.10391242
000380 c1 d9 5d 3e ce 3b 28 3e 41 38 c7 bd 4d 6f 50 3e
       0.21665098 0.16429064 -0.097275265 0.20354958
000390 f0 95 ef bc e9 48 0f 3e 2f 4c fc 3d 8e de 38 be
       -0.0292463 0.13992657 0.12319218 -0.18053648
0003a0 9f 69 e5 bb ac 02 bf be 1b 05 dc bc 67 ad 12 3d
       -0.0070011164 -0.37306726 -0.026857903 0.0358099
0003b0 40 84 5a be b1 01 c7 be 2c d4 b9 bd a0 0b ef bd
       -0.21339512 -0.38868478 -0.09073672 -0.11672139
0003c0 a6 bc 45 3e 5b 81 11 3e df 27 14 3e 0c 15 20 be
       0.19310245 0.14209501 0.14468335 -0.15633029
0003d0 30 73 21 be ae 97 09 3e 5c 7d 72 be 95 d9 83 3d
       -0.15766597 0.13436767 -0.23680633 0.06437985
0003e0 9e e9 fd 3d 82 f1 39 be 61 de 1f be 8a 4a 47 3d
       0.123980746 -0.18158534 -0.15612175 0.04865507
0003f0 56 2d 3d 3d a9 5a da 3d 21 0d 7f 3d e9 90 35 3e
       0.046185814 0.10661823 0.06226838 0.1773106

encoder.gru.weight_hh_l0 f4 [384, 128]
000000 cc 2f c2 bd e4 3d cd bd 08 02 9b 3d ae fc f0 3c
       -0.09481773 -0.1002157 0.07568747 0.029417362
000010 4e a3 dd bd 6b 92 b0 3d 06 6f c8 3d fc a4 83 be
       -0.108221635 0.08621677 0.09786801 -0.2571181
000020 54 8b 77 3d 72 3a 53 3e 09 38 af 3c c9 e8 6e 3c
       0.060435608 0.20627764 0.021389024 0.0145818675
000030 9b 6d db bc 86 df a9 bd 69 d4 77 bd 67 ad 2e bd
       -0.026785662 -0.08294587 -0.060505304 -0.042645838
000040 98 44 6e 3d 91 53 22 3c 02 7f e1 bc 29 96 44 bc
       0.058170885 0.009907619 -0.027526382 -0.011998692
000050 8b e2 91 3c 57 a4 4f 3b 07 7f 7b bd 93 1d 06 bd
       0.01780822 0.0031683648 -0.06140044 -0.032743048
000060 b9 18 8c bb 92 e2 45 3d 74 c2 c9 3d 5b 0e e2 bd
       -0.004275408 0.048311777 0.09851542 -0.11037894
000070 34 88 4c 3d 39 e5 27 bd 23 bf 80 bd e7 3d ec bd
       0.04993458 -0.040990088 -0.062864564 -0.115352444
000080 15 29 f0 bc ad b8 c5 3c b1 c4 84 3e 8b 06 c1 bd
       -0.029316464 0.024135912 0.25931314 -0.09425076
000090 76 d8 09 be 3b 6a 5c 3d 0e 06 27 3e 70 33 9a bd
       -0.1346148 0.053812247 0.16310903 -0.07529342
0000a0 a5 38 52 3e 43 b1 07 be 5a 02 81 bb 47 0c 8f bd
       0.2052942 -0.13251214 -0.003937048 -0.069847636
0000b0 7c f2 3b 3d 79 f6 03 bc 3c d2 92 bb ae 54 56 bd
       0.045885548 -0.008054369 -0.0044806283 -0.05232685
0000c0 f8 11 e7 bb 72 3a 68 bd 6d 65 0c 3d 86 bf 01 3d
       -0.0070517026 -0.056696363 0.034276415 0.03167679
0000d0 35 d8 a0 3d cf ea 2b 3d 3c 7b 04 be d2 df 8c 3d
       0.07853738 0.041971978 -0.12937635 0.06878628
0000e0 4b 47 8c bc f3 23 1d 3c 34 aa 64 be 12 65 f5 3d
       -0.017123839 0.0095910905 -0.22330552 0.11982168
0000f0 88 f5 c5 3a a6 3b 2d 3e 70 2a 82 bd 43 c5 3e 3e
       0.0015103081 0.16917285 -0.063557506 0.18629937
000100 ba 7d d0 bd bf 61 6d 3d 06 33 36 bc 63 f0 a8 3d
       -0.101802304 0.057954546 -0.011120563 0.08248975
000110 61 79 e4 3d 0d 64 82 3d 04 dc 5b 3d 31 a4 ab 3b
       0.11155964 0.063667394 0.05367662 0.005238079
000120 10 b1 05 3e 0e 76 f4 bd 71 b6 9c 3c f8 11 ae 3d
       0.13055825 -0.1193658 0.019129964 0.08499521
000130 15 dd 18 bd d6 1b 41 be a8 3d 6a 3e 75 a8 03 be
       -0.037320215 -0.18858275 0.22875082 -0.1285723
000140 39 f5 bd bd 7d 7e 7e 3d e6 4b fc 3c 7b 77 b4 3a
       -0.09275288 0.062132347 0.03079791 0.0013768518
000150 ce d6 f1 3d 28 d0 8b 3d a2 59 e2 bc 94 58 81 bd
       0.11808549 0.06826812 -0.02763063 -0.06315723
000160 f4 a9 c1 ba 00 79 4d 3d 24 d1 11 3d d9 64 04 3d
       -0.0014775381 0.050164223 0.035599843 0.03232274
000170 88 74 e8 3d 2c ef 20 bd 16 2a 88 3d 79 7f d2 bc
       0.113503516 -0.039290592 0.06648652 -0.02569555
000180 4e 29 80 3c b1 de 71 3a c8 25 39 3c f1 d5 1c 3d
       0.015644696 0.0009226604 0.011300512 0.038289968
000190 99 63 64 3d 81 c4 14 3d de 7a 9a bd 7c b4 11 3c
       0.055759046 0.036320213 -0.07542966 0.0088931285
0001a0 ec 9b 36 bd d4 c4 35 be b0 6f c6 3c b8 6c 71 bd
       -0.044582292 -0.17750865 0.024223179 -0.058941573
0001b0 a3 ed 12 3d 9d 36 d2 3d 50 83 db bd 99 14 9f bd
       0.03587116 0.10264323 -0.10718405 -0.077676006
0001c0 4e 1e 7c 3d 45 c8 79 3b 16 c1 9a bd 2c ce f5 3d
       0.06155234 0.0038113755 -0.075563595 0.12002215
0001d0 30 1c 9e bc a8 55 15 bd 6d 08 22 bd 45 94 0b 3d
       -0.01930055 -0.03645864 -0.039558817 0.034076948
0001e0 d2 67 97 3c 9c 0a f6 bd c9 0b 5b bd b9 7b 73 3d
       0.018482123 -0.12013742 -0.053478036 0.059444163
0001f0 f4 59 07 bd 7c 50 b4 bd 48 7b b8 bd 45 10 b3 3c
       -0.03304477 -0.08804414 -0.09007889 0.021858344
000200 5e fe f1 bc 0e 17 5a 3e 39 06 92 3c d7 10 01 3e
       -0.029540237 0.21297857 0.017825233 0.1260408
000210 af f9 8a 3d b3 42 01 3c 0d c3 cc bd c0 f5 ba 3d
       0.067859046 0.0078894375 -0.099981405 0.09128904
000220 b5 b8 79 bd 3f ae c5 3d 4b 1b dc 3c d6 4a f2 bd
       -0.060967166 0.096523754 0.026868483 -0.1183068
000230 60 d7 ac bd ed 40 f4 bc 15 c6 4b be a7 ea 4a be
       -0.08439517 -0.029816115 -0.19899781 -0.19816075
000240 21 7b 1d bc e9 01 00 3e ab e9 fe bd 8b 5a 2a be
       -0.009611876 0.12500729 -0.124469124 -0.16636102
000250 1a e0 b0 3d 19 f6 04 be 48 66 31 3e 59 00 69 bd
       0.08636494 -0.12984504 0.17324173 -0.056885097
000260 05 57 14 3e 4e 30 06 bd 24 e6 0a be de 0e 1c 3e
       0.1448632 -0.03276091 -0.13564354 0.15240046
000270 5e 17 55 be b4 78 17 bc 56 9e 94 bd 8f b0 fb bc
       -0.20809695 -0.009245086 -0.07256763 -0.030723838
000280 5b 2b 14 be cb 92 de 3d e0 39 f6 3d 4a 15 73 bd
       -0.14469664 0.10867842 0.120227575 -0.059346475
000290 d5 a4 e3 bc c0 d6 05 3b a0 5b 56 bc 54 5a e2 bd
       -0.027788559 0.002042219 -0.013083369 -0.11052385
0002a0 2c dc 65 3d ff c4 e1 bd a6 d1 7c bc f5 5a 2d be
       0.056118175 -0.11023902 -0.015430843 -0.16929229
0002b0 7f 58 f5 3d 69 a0 00 3c 37 df 10 3e db 0a 9a bc
       0.1197977 0.007850745 0.1414765 -0.018804004
0002c0 5e be 3e 3d ea 68 4d 3d cc 47 ad 3d 73 39 89 bc
       0.046568267 0.050148882 0.0846096 -0.016751027
0002d0 d6 69 88 3d e4 02 9a 3d ad 7e e2 bd 00 67 72 bd
       0.066608116 0.075200826 -0.11059318 -0.05918026
0002e0 fd e2 8a 3d 87 c0 9a 3d 9c a6 93 bc bf af 29 bd
       0.06781576 0.07556253 -0.018023781 -0.04142737
0002f0 4c a5 1b bd a6 01 2f bd 9f 35 b8 bd 07 0c 65 bd
       -0.037999436 -0.04272618 -0.089946024 -0.055919673
000300 e7 2d 1c be 0e 7e c0 3c 76 a0 ff bc 66 13 2b be
       -0.15251885 0.023497608 -0.031204443 -0.16706619
000310 39 3c 9e 3d 20 1f 04 be 1e 45 0c bd 74 cf 43 be
       0.0772633 -0.12902498 -0.034245603 -0.19122106
000320 54 6d 2a be c8 ab 95 3d 3a e8 f6 bd 21 ed ef 3d
       -0.16643268 0.07308155 -0.120560125 0.117151506
000330 c4 a1 c4 bd 4f 8e 2f 3d e1 4c 17 bc d7 18 1c 3e
       -0.09601167 0.042860325 -0.009234638 0.1524385
000340 a4 de f0 bc f6 1a 03 bd 0e eb 34 be 35 17 cf bc
       -0.029403038 -0.032008134 -0.17667791 -0.02527962
000350 38 fa 4c bd 2f 99 63 3c 5c e9 17 be e4 6f 15 be
       -0.050043315 0.013891502 -0.14835113 -0.14593464
000360 ce 69 c1 3d 32 3a a0 3d 11 77 9b 3c 2f 4f df 3d
       0.09444009 0.078236 0.018977674 0.10903775
000370 50 64 89 3d 4e 80 5b 3d 5f 8f a1 3d ea de 10 3c
       0.06708586 0.053589158 0.07888674 0.008842209
000380 c8 e1 16 3e 10 5d 4a 3e 0a c9 fc bc 55 c7 82 bd
       0.14734566 0.19762063 -0.030857582 -0.06385676
000390 4c 97 23 3e 30 66 1c be 6e 50 ba 3d 4d 2a e5 3d
       0.15975684 -0.15273356 0.09097372 0.11189709
0003a0 20 9a ea bc 3b 2d cb 3c 11 b0 97 bd 4c 9f dc bd
       -0.028637946 0.024801841 -0.07406629 -0.10772571
0003b0 64 51 08 3c 08 9b a1 3d 11 db 04 be d1 9d 25 3d
       0.008320186 0.07890898 -0.12974192 0.04043371
0003c0 d3 22 f1 3d bd 6f 74 3d 5b 29 07 3d a3 10 7f bc
       0.1177422 0.059676874 0.032998424 -0.015567931
0003d0 2d 4c c1 bc 27 c7 7c 3d 83 d7 b0 3d 23 9a d2 bc
       -0.023595894 0.061713364 0.086348556 -0.025708264
0003e0 6c 90 58 bd c4 64 67 bd 9c 8f 0c 3e cf 7d 82 3d
       -0.052872106 -0.056492582 0.13726658 0.06371652
0003f0 9e 9d 06 be b2 34 34 3d 02 94 d5 3d 6e 8e 0e bd
       -0.13146064 0.043995567 0.10428621 -0.0348038

encoder.gru.bias_ih_l0 f4 [384]
000000 5f 29 12 be 06 66 9c bd 00 e1 28 be 7a 0e ce 3d
       -0.14273594 -0.07636647 -0.1649208 0.10061355
000010 25 1f b1 3b e7 fa f4 bd b8 96 86 3b bb 9f cc bd
       0.005405324 -0.11961918 0.0041073225 -0.09991404
000020 0d 18 a6 bd a1 23 0f be 2a 9a ff bc db cf 2c be
       -0.08110056 -0.13978435 -0.03120144 -0.16876166
000030 f5 70 e7 bd 48 ed fd 3a 87 d6 f2 3c 8f 7a e5 bd
       -0.11300842 0.0019373083 0.02964331 -0.11205017
000040 e6 ad 0c be d8 a9 3a be 3d ff 0d be 45 64 4e bd
       -0.13738212 -0.18228853 -0.13866897 -0.050388593
000050 6a 4a 10 bd 03 42 3b bd 1e 5e 29 bd 7c 24 24 be
       -0.035227217 -0.04571725 -0.041349523 -0.16029543
000060 7c 7a d5 bd 79 e6 14 be 75 5e 38 be 09 62 83 be
       -0.10423753 -0.14541043 -0.18004782 -0.25660732
000070 a5 78 10 be bd 8d 08 be 1b 46 d3 bd 2a 3f 3b be
       -0.14108522 -0.13335319 -0.10316106 -0.18285814
000080 aa ae fb bd 57 df 13 be be f8 0f 3d 21 37 cd bc
       -0.12289174 -0.14440666 0.03514933 -0.025050702
000090 12 b6 d2 bd 04 cd be 3d ae 97 55 3a 4f 84 e7 bc
       -0.102886334 0.093164474 0.0008147907 -0.028261332
0000a0 14 c4 f3 bd 02 57 33 3d 2c c4 5d 3c 9b 88 41 be
       -0.11902633 0.04378415 0.013535541 -0.18899767
0000b0 3e c1 4c 3d da 84 26 be 4b 7a ad bd 05 05 29 be
       0.049988978 -0.16261616 -0.08470591 -0.16505821
0000c0 84 a6 cc bd 1f db ab 3c a2 fe a1 bd 82 15 b6 bc
       -0.09992698 0.020978509 -0.079098955 -0.022227053
0000d0 49 9d 3c bd 54 2b 47 bd 56 ad dd bb 22 aa 05 be
       -0.046048436 -0.048625305 -0.006765048 -0.13053182
0000e0 3e b9 72 3d 1f e2 ac bd 4d 7e 16 3d aa 2c 90 3d
       0.059258692 -0.08441567 0.036741544 0.07039769
0000f0 82 37 80 3c c3 2e 82 bd 98 75 f7 bd f9 e0 a6 3c
       0.015651468 -0.06356575 -0.12082976 0.020370947
000100 33 1e 78 bd 44 18 bb 3c c7 21 c9 bd 10 48 eb bd
       -0.060575675 0.02283872 -0.09820896 -0.11488354
000110 e4 a2 f0 bb 39 22 41 3c 79 19 80 bc fa fe c7 bb
       -0.007343637 0.0117879445 -0.015637146 -0.0061033936
000120 32 4b 68 be 60 ed 9d bc 0e e3 0b be 44 2f 9b bd
       -0.22684935 -0.019278228 -0.13660833 -0.075773746
000130 67 8c a7 bd f3 5f 16 3c e4 d3 59 3c ce ee 87 3d
       -0.081810765 0.0091781495 0.013295148 0.06637345
000140 e2 fc e8 bd 49 61 8b be a2 97 43 bd b6 b4 03 be
       -0.113763586 -0.2722266 -0.04775203 -0.12861905
000150 da 84 c7 bd 03 2c 10 be 16 04 74 bd 32 c5 f7 ba
       -0.09742136 -0.14079289 -0.05957421 -0.0018903373
000160 d5 3d ef bd 36 1a 45 bc 98 dd c7 bd 86 84 dd bd
       -0.116817154 -0.012030175 -0.097590625 -0.108162925
000170 ba 5c ae be e8 39 f6 bd 7e 50 17 bd 19 be c3 bd
       -0.3405512 -0.120227635 -0.036941998 -0.095577426
000180 a3 57 03 3e 81 ef 2e be 0e d9 ae bd 94 c8 da 3c
       0.128264 -0.17083551 -0.08537494 0.026706971
000190 60 28 98 bd 9e 8a a0 3c ad 8a f4 bd f6 9c 18 bd
       -0.07429576 0.019597348 -0.11940513 -0.037259065
0001a0 eb 2a f1 bd 92 7f 66 be ed 0e 70 be 53 23 6c bd
       -0.11775764 -0.22509602 -0.23443194 -0.057650875
0001b0 9a c1 2f be 02 ca d3 bd da 3c 24 be 5e 03 e1 bd
       -0.17163697 -0.10341264 -0.16038838 -0.1098697
0001c0 f5 87 d5 bc 6a 8f b3 bd ec 29 23 be 02 82 cd ba
       -0.026065806 -0.087675884 -0.1593396 -0.0015679004
0001d0 e7 90 62 bd b6 96 22 3d 46 4a 55 bc d9 bf d1 bd
       -0.05531397 0.03969451 -0.013018196 -0.1024167
0001e0 2f fd a9 bd 85 0d 0b be b7 bd c8 bd 4f f1 15 3b
       -0.08300244 -0.13579376 -0.0980181 0.0022879427
0001f0 12 a2 95 bd 2b 61 0c be 4a fd 1d ba 29 a1 52 bd
       -0.07306303 -0.13708942 -0.0006026818 -0.051423226
000200 19 43 92 be 46 78 c7 3c 50 64 4c 3e 7e 80 c2 3e
       -0.28566816 0.024349343 0.19960141 0.37988657
000210 1c 4b 4c bd f0 ad 10 3d 7e ce 91 be 8d 57 95 be
       -0.049876317 0.03532213 -0.28477854 -0.29168358
000220 bb d8 4c bd ff 42 f4 bd fb db 85 3e 32 02 48 3e
       -0.050011378 -0.11926841 0.26144394 0.19532087
000230 3b 4b 9d be 2f 6a 4f 3d d6 c4 3f be 5a 05 17 3d
       -0.3072146 0.050638374 -0.1872743 0.036870338
000240 ea d4 a3 3e de 6c 8b bd 4f 3d 9c 3d cd f8 12 3e
       0.31998378 -0.06807874 0.07628881 0.14352722
000250 7b 64 06 bd be cc 13 3e 3d bf 8f 3a f0 e9 29 bd
       -0.03281067 0.14433572 0.0010967028 -0.041482866
000260 23 07 8d be 8a d5 29 be b1 f3 64 3e 70 87 ad bd
       -0.27544507 -0.16585365 0.22358586 -0.08473098
000270 2a f0 a1 3d 19 b7 0c 3e e5 46 43 3d 6c b7 1d be
       0.07907136 0.13741721 0.047675032 -0.15402001
000280 95 58 94 bd a6 53 04 be eb 35 76 be 9e 70 1f be
       -0.07243458 -0.12922534 -0.24044006 -0.15570304
000290 25 db 14 3d 2b 9c 12 bd ec 83 f1 3d 2c e5 46 be
       0.036341805 -0.035793465 0.1179274 -0.1942336
0002a0 a4 ac c7 bd e2 66 3a be 3d 19 9a bb ec cc 25 bd
       -0.097497255 -0.18203309 -0.0047027157 -0.04047863
0002b0 dc 7e 33 be be 6b 52 3d 00 ba a3 bd dc c5 c1 3d
       -0.17528862 0.051372282 -0.07994461 0.09461567
0002c0 4a e0 b0 3e df 8d 7e 3d 3f c6 d8 bc 46 b7 9f bd
       0.3454612 0.062147018 -0.026461719 -0.077986285
0002d0 26 ae 94 3e be 34 05 3d 2c f5 05 be 0a db 2b 3d
       0.29039115 0.032521002 -0.13081807 0.04195694
0002e0 72 2c d3 bd 2e 9d 4e be 00 93 80 be 4b 01 19 be
       -0.10311212 -0.20177147 -0.25112152 -0.149419
0002f0 3d b1 18 3e a2 eb 50 3e 21 6c fa 3c 60 40 ad bb
       0.14911361 0.20402387 0.030569138 -0.005287215
000300 85 64 3c bd d6 42 b8 bc 1b a2 90 3a 02 bd 22 3e
       -0.0459943 -0.022492807 0.0011034639 0.15892413
000310 67 44 77 3d 29 4e b5 bd 53 b1 a9 be 18 8d 49 bd
       0.060367968 -0.088527985 -0.331431 -0.049206823
000320 40 b4 26 3b ac 76 eb bd af 44 1a 3e f9 75 4d 3e
       0.0025437027 -0.11497244 0.15065263 0.20064534
000330 31 d3 88 bd 09 03 50 bd ae 24 a1 3d 28 79 73 3d
       -0.066809066 -0.050784145 0.07868324 0.059441715
000340 ba 22 cd bd 7f b5 b2 3d 04 0b bb 3d f5 5a 4f 3e
       -0.10016389 0.08726024 0.091329604 0.20249541
000350 62 40 1b 3d 0b cc 1e bc 06 03 da be a5 73 6d bd
       0.037903197 -0.009692202 -0.42580432 -0.057971615
000360 c2 e1 f5 3c 3c 5a 52 3e a5 d9 28 be c7 a7 60 3e
       0.030014876 0.20542234 -0.16489275 0.21939002
000370 3d b0 a2 bc c9 65 3f 3e fc 40 88 3d 9a 10 87 3e
       -0.019859428 0.18691172 0.0665302 0.26379853
000380 fd af 4f 3e 15 b3 28 3e 32 08 8a 3e fb 1e a6 3d
       0.20281978 0.16474564 0.26959378 0.08111378
000390 f9 a0 3f bd 81 d5 a4 bc 08 ce 91 be 60 02 02 be
       -0.046784375 -0.020121338 -0.28477502 -0.12696218
0003a0 1a 67 e8 3d 90 99 24 3c 13 5c 1d 3d 74 54 9e 3d
       0.1134779 0.010046378 0.038417887 0.07730952
0003b0 2b 07 8f be 73 9d 0e be 5e 3e aa 3d f8 a7 c5 3d
       -0.27935156 -0.1392725 0.08312677 0.09651178
0003c0 6f d6 20 3e 51 68 64 bd 77 65 5e ba 3d 90 09 3e
       0.157068 -0.055763546 -0.00084837474 0.13433929
0003d0 90 fa cb 3d a5 e6 02 be 38 6d f4 3b f6 34 4b bd
       0.099599004 -0.12783296 0.007459309 -0.049611054
0003e0 cc 53 e3 bd da 54 7e 3e 04 47 80 bd a5 8b 00 3e
       -0.11099967 0.24837056 -0.06263545 0.1255327
0003f0 17 d4 1d be 70 89 4c 3e 75 4d bd 3c d4 89 0a bd
       -0.15412937 0.19974303 0.023108223 -0.03382285

encoder.gru.bias_hh_l0 f4 [384]
000000 4a 94 fa bd 2f 20 b6 bd 11 dc 25 be f6 77 e2 3d
       -0.12235315 -0.08892857 -0.1619723 0.11058037
000010 8b 3d 9b bd ac 7b e1 bd 51 53 45 bc 6b e7 3c bd
       -0.07580098 -0.11009917 -0.01204379 -0.046119135
000020 0d e9 94 bd 57 f3 a4 39 35 b7 3e be 6b aa 1a bd
       -0.072710134 0.0003146182 -0.18624575 -0.03776018
000030 ee 0e 03 be 22 80 df bd 57 f8 4a bd fc f6 56 3b
       -0.12798664 -0.10913111 -0.04955324 0.0032801023
000040 7d 2e 22 be 5e aa b3 be 22 3c 21 bd 0e 32 48 bd
       -0.15838046 -0.35090917 -0.039363988 -0.04887586
000050 8d 20 50 be 16 63 bb bc 85 32 ee bc f0 85 19 be
       -0.20324917 -0.022874396 -0.029076824 -0.149925
000060 32 56 22 3d c0 33 07 be a0 c6 42 be c8 67 04 be
       0.039632984 -0.13203335 -0.19021082 -0.12930214
000070 46 3e 88 bc a7 5a 05 be bf aa 6d bd fa f4 4a bd
       -0.016631257 -0.13022862 -0.058024164 -0.049550034
000080 27 17 41 bd 39 6b 1d be df 6e dc bc 6b 68 b6 bd
       -0.04714122 -0.15372933 -0.026908336 -0.08906635
000090 d1 f5 e3 bd fd ee 0f bd 7f 0b 94 bd a6 91 bc 3c
       -0.1113087 -0.035140026 -0.07228755 0.02301867
0000a0 b2 33 10 bd aa 73 23 3d 91 35 36 3c 30 62 df bd
       -0.03520555 0.039905228 0.01112117 -0.109074
0000b0 67 52 63 3c ed 97 2f be 1b f5 48 be 66 ed fa bd
       0.013874627 -0.17147799 -0.1962475 -0.122523114
0000c0 c6 c3 d6 bd 3b c7 b9 bd 1c 45 0a be e9 7e 86 3c
       -0.104865596 -0.09071203 -0.13502926 0.016417937
0000d0 33 ad a3 bd 0d 61 cf bd 00 a6 44 3d f3 9a 23 be
       -0.079920195 -0.10125933 0.048009872 -0.15977077
0000e0 61 4b 0d 3c cd bb 85 bd 03 53 0f 3d 3b e3 bb bd
       0.008623929 -0.06529961 0.034991276 -0.091742
0000f0 3e ef f8 bc ff 42 00 3d dc c7 d9 bd e1 fe f0 bd
       -0.030387517 0.031313892 -0.10633823 -0.11767364
000100 89 c6 df bd a2 e2 05 be 01 7d 06 be 03 3d c8 bd
       -0.109265395 -0.13074735 -0.13133623 -0.09777262
000110 a6 26 13 be 56 c2 5a 3d 42 0a c0 bd c0 e5 f6 bc
       -0.14370212 0.05340799 -0.093769565 -0.03013885
000120 41 1f 90 be 20 74 93 bb 69 3a 24 bd 69 dc 01 bc
       -0.28148845 -0.004499927 -0.040094767 -0.007926085
000130 89 6f b0 bd a2 87 06 3e 40 ff 18 bd ce 1c 97 3d
       -0.08615024 0.13137677 -0.0373528 0.07378541
000140 ab eb 21 bd 23 b3 8d be 2e f6 13 be 03 75 ef bd
       -0.03953139 -0.27675733 -0.14449379 -0.1169224
000150 d9 4e 58 bd f5 13 19 bc 29 13 e5 bd 04 82 94 bd
       -0.05280957 -0.009343137 -0.11185295 -0.07251361
000160 78 5d b7 bb be 55 9c bd 3c e9 e7 3a d7 fb 02 be
       -0.005595859 -0.076335415 0.0017693411 -0.12791382
000170 0a e3 4c be 7b 92 6e be 6c 8d ce bd f4 e5 ab bd
       -0.20008484 -0.23298065 -0.10085568 -0.083934695
000180 a2 4d 9c 3d 76 c1 0f be 2b 9b df bd 98 26 1d bc
       0.07631995 -0.14038643 -0.10918268 -0.009591721
000190 87 9e f3 bd 2f e6 a4 bd 5e e4 26 be 3f e5 dd bd
       -0.11895471 -0.080517165 -0.16298053 -0.10834741
0001a0 38 39 ae bd 4a cf f3 bd 22 68 57 be 7b e0 12 be
       -0.08507007 -0.119047716 -0.21035817 -0.14343445
0001b0 15 4d 32 be f4 aa f7 bd ef c7 8e bd 36 4d cb bd
       -0.17412217 -0.120931536 -0.06971728 -0.09926836
0001c0 a3 04 10 3d b5 85 01 be 9d 39 6d bd 87 67 84 bc
       0.035160672 -0.12648661 -0.057916272 -0.016162647
0001d0 ac b8 37 bd d7 6c c0 bc 4a d2 9b 3d c2 cc bd bd
       -0.04485385 -0.023489399 0.07608469 -0.0926757
0001e0 bd a6 c8 3b 9e 78 80 bd 81 11 0c 3d f5 54 64 3d
       0.0061233924 -0.06273006 0.03419638 0.055745084
0001f0 99 8c 16 bd 30 bc 88 bd 1a 12 7c bd 95 e6 69 3d
       -0.036755178 -0.06676519 -0.0615407 0.057104666
000200 bf f8 9f be fe b1 5d 3d e9 91 69 3e 2b c7 b7 3e
       -0.31244466 0.054124825 0.22809567 0.3589414
000210 88 40 6d bb 19 3f 42 3d 33 6c 89 be b6 8b ad be
       -0.0036201794 0.047423456 -0.26840362 -0.33895653
000220 d2 5d e0 b8 ea 75 b4 bd bb 3d af 3e 9f fd 86 3d
       -0.00010698628 -0.08811553 0.34226784 0.06591343
000230 f3 13 98 be 4f 51 45 3d 3b ef 58 be a4 2e 85 3d
       -0.2970272 0.048173245 -0.21185009 0.065030366
000240 4a 2b 6e 3e 3d ee 81 bd 16 6e 49 3c ef 41 11 3e
       0.23258701 -0.063442685 0.012294313 0.14185308
000250 f6 c9 8c 3d bd d6 41 3e 5f bc 04 bc 0a 70 fe bd
       0.068744585 0.18929572 -0.008101552 -0.124237135
000260 27 ec 0c be 32 35 16 bd 29 db 18 3e a0 21 12 be
       -0.1376196 -0.036671825 0.14927353 -0.1427064
000270 7e 96 b3 3d 2a 52 bd 3b 9c 54 26 3d 5e e8 0b be
       0.087689385 0.005777617 0.040608034 -0.1366286
000280 a0 bc 80 bd fe 8d df bd 56 2b 95 be e0 f8 7f bc
       -0.06285977 -0.10915755 -0.29134625 -0.015623301
000290 1a 53 15 3d a2 cb 29 bd e6 2b 01 3c 8a 9f 31 bd
       0.036456205 -0.041453965 0.007884001 -0.04336504
0002a0 16 e3 5a bd a5 d5 79 be a7 f3 ac 3d 96 72 f1 bc
       -0.053439222 -0.24397905 0.084449105 -0.029473584
0002b0 bf 11 fc bd 19 af d8 3d c0 cc 3a be 37 97 5d 3e
       -0.12308072 0.10580272 -0.18242168 0.21639715
0002c0 03 1b 86 3e 50 1b 32 3d 63 1b ed bd ac 69 1d bd
       0.26192483 0.04348308 -0.11577489 -0.038430855
0002d0 29 bd 0a 3e cd 5e e2 3d fa 09 2e be fb ef 8f bd
       0.13548721 0.11053238 -0.16995993 -0.070281945
0002e0 cd 77 04 be f7 ce 7e be 01 f7 66 be 51 e7 01 bd
       -0.12936325 -0.24883638 -0.22555162 -0.03171474
0002f0 4c 91 18 3e 33 53 2d 3e dc b2 6e 3c 13 f1 62 3d
       0.14899176 0.16926269 0.014569011 0.055405688
000300 cf ff 9b bc 25 01 ca 3c 4f 15 80 bd 30 2a 21 3e
       -0.019042877 0.024658749 -0.06254064 0.1573875
000310 7d b5 a3 3d 70 28 9e 3b 7d 7c ba be 7a 91 1a bc
       0.079936005 0.004826598 -0.36423102 -0.009434098
000320 de 92 29 3d a0 d5 63 be d9 da 44 3e 28 1f a0 3e
       0.04139983 -0.2224946 0.19224109 0.3127377
000330 e7 b4 a0 bd d1 7b 2a be 2a 69 cf 3d f1 d4 09 3e
       -0.078470044 -0.16648795 0.1012748 0.13460137
000340 9e f0 0d be 12 4d c9 3d 0d cf 42 3d ba ec 6c 3e
       -0.1386132 0.09829153 0.04756074 0.23137179
000350 fb e4 87 bd 1f dd 04 3d 10 df d7 be 1c 94 a3 bd
       -0.066354714 0.03243744 -0.4216237 -0.07987234
000360 43 3d da 3d 7e 39 1f 3e e3 99 54 be 74 ea 24 3e
       0.10656216 0.15549275 -0.20761828 0.16105062
000370 5e 8b c9 bd 66 f3 81 3e 74 1b 6b 3d f2 d3 67 3e
       -0.09841035 0.2538101 0.05739923 0.22639444
000380 0c 57 32 3e 92 2d 34 3e 34 c8 b2 3e 7d a8 7c 3d
       0.17416018 0.17595509 0.34918368 0.06168412
000390 2d c6 1c be aa 71 f5 bd 53 5b aa be f0 47 73 be
       -0.15309973 -0.1198457 -0.332728 -0.2375791
0003a0 7a 75 2b 3e 6a b0 a5 3c 71 d3 18 3c 3a 37 72 3d
       0.16744033 0.020225722 0.009327755 0.0591347
0003b0 70 82 54 be b7 c9 52 be 70 b9 a7 3d b7 3c 04 3e
       -0.20752883 -0.2058476 0.08189666 0.12913786
0003c0 5d 30 09 3e e3 ab 87 bd a3 b3 6c 3d f3 14 8b 3d
       0.13397355 -0.06624582 0.057788502 0.06791105
0003d0 4e b8 24 3d bc 56 f4 3c 04 22 36 3d 57 bb d8 3c
       0.04021483 0.029826514 0.044466034 0.026456518
0003e0 7e b6 8c 3c a6 c0 1a 3e 25 0a c5 3a 77 7e 2a 3d
       0.017176863 0.15112552 0.001503293 0.041624513
0003f0 f2 43 87 be 2f 0a 7e 3e 1d 6a 83 bd 99 d8 44 bc
       -0.26419026 0.24808572 -0.06416724 -0.0120145315

encoder.lin.weight f4 [64, 128]
000000 3d 9a dc 3d 85 8c 0a 3e dc 1f 12 3e a5 4e bc 3c
       0.10771606 0.13530166 0.14269966 0.02298672
000010 13 80 c9 3c bc 64 a9 3d 3d 1b 3a be 7a 74 12 3d
       0.024597203 0.08271167 -0.18174453 0.035755612
000020 89 d2 59 be 00 0f 6b 3d 3d 92 df bc 94 cf a5 bb
       -0.21271719 0.057387352 -0.027291412 -0.0050601456
000030 ee 15 c5 3d cb b7 b3 bd 72 1d 0a be 49 f2 c4 bd
       0.096233234 -0.0877529 -0.13487795 -0.09616525
000040 61 73 b5 bd b9 90 5f be 10 a3 f2 3d 9e 1a 28 3c
       -0.088598974 -0.21832551 0.11847508 0.010260252
000050 0a a4 0b be 77 b0 9c bd ad b2 81 bc 96 bd 24 be
       -0.13636795 -0.076508455 -0.01583227 -0.16087946
000060 8d 61 76 3d 1c 6c ce 3d 8b 76 3b 3b d3 93 35 3e
       0.060151625 0.10079214 0.0028604593 0.17732172
000070 89 f6 bd bd b3 f9 b0 bd ca fb 99 bd d7 e3 bb bd
       -0.092755385 -0.08641376 -0.07518728 -0.091743164
000080 14 41 1e 3b 98 3e 33 bc c4 88 93 bd cb 28 36 3c
       0.0024147676 -0.0109402165 -0.0720382 0.011118124
000090 20 f0 c6 bd c6 84 22 be 64 c4 19 bd a5 c3 10 be
       -0.09713769 -0.15870962 -0.03754081 -0.14137132
0000a0 48 37 ac bd 01 ca 3d 3e b0 50 c0 bd b8 5d ba 3d
       -0.084089816 0.1853409 -0.0939039 0.09099907
0000b0 4c 5d 74 3d 46 39 87 3c 6f 63 3c 3d 10 67 2b bd
       0.059659287 0.016506802 0.045993265 -0.041846335
0000c0 41 7b 08 3d 0c c9 e5 bd 91 24 96 3d 62 52 8e 3c
       0.03332067 -0.11219987 0.07331193 0.017373268
0000d0 25 68 09 b9 f5 f2 cb 3d 9f 4d 06 3d 01 9e a3 3c
       -0.00013104135 0.0995845 0.03278887 0.019972803
0000e0 09 94 b3 3d d7 36 d9 3d 61 5e 7b 3d cb e1 2b be
       0.0876847 0.10606163 0.061369304 -0.16785352
0000f0 5f 24 74 bc c0 3a 0d be 06 c4 41 be 37 58 29 3e
       -0.01490125 -0.13791943 -0.18922433 0.16537558
000100 38 8a a6 bd c2 4f cd 3d 5a 98 4a bd 2f a7 a7 bb
       -0.08131832 0.10024978 -0.0494617 -0.0051163654
000110 7c 0d a5 bc 45 b7 c4 bd 43 dc 63 bd cd 04 10 3e
       -0.020148031 -0.096052684 -0.05562998 0.14064331
000120 e8 64 25 3e 1a 18 c6 3d e3 81 e0 bd 05 08 d3 3d
       0.16151774 0.09672566 -0.10962274 0.10304264
000130 7f 5c 85 bd f8 67 96 3d e0 d8 f3 bd 3e fd a2 3d
       -0.06511783 0.07344049 -0.119066 0.07958458
000140 97 fb 52 bc f8 50 10 bd fa e1 15 3c fa 16 40 3c
       -0.0128773665 -0.035233468 0.009148115 0.011724228
000150 a5 e7 28 3c 19 04 03 be b2 6c 85 3d 71 a2 dd bd
       0.010309135 -0.12794532 0.065148726 -0.10821999
000160 4b 26 e9 3d e4 41 c1 3d 71 17 4b 3a fe a4 0f 3e
       0.11384257 0.09436396 0.00077473285 0.14027783
000170 09 63 04 bd 1b b1 2f 3c 2b 41 7c be 36 b5 34 3e
       -0.03232101 0.010723378 -0.24634235 0.17647251
000180 8c 61 61 bd d9 4b 4f bc b9 7a 68 3d 00 bb 1c be
       -0.05502467 -0.012652361 0.056757662 -0.1530571
000190 21 c6 0c bd 5d d1 a9 bd 08 38 1b be 45 7a 2f bc
       -0.034368638 -0.08291886 -0.15158093 -0.010710304
0001a0 5f 4d aa 3d 96 10 44 bd 05 7a b0 bd 9f 74 86 bd
       0.083155386 -0.04786738 -0.086170234 -0.065652125
0001b0 4a 8b aa 3b 6c 5d 92 bd de fb 5a 3e 2b 93 84 3d
       0.005204593 -0.07146725 0.21385142 0.064733826
0001c0 dd ab 32 3e ef 9f e0 3d a8 61 fc bd b2 81 15 bd
       0.17448373 0.10968005 -0.12323314 -0.03650064
0001d0 df 32 24 3e 11 82 05 be 11 ea d0 bc 32 70 4a bc
       0.16035031 -0.13037898 -0.025502237 -0.012355851
0001e0 64 b3 05 be b5 1e 95 bd a4 88 61 bd 7f dc ce 3c
       -0.13056713 -0.072812475 -0.05506195 0.025251625
0001f0 12 02 a1 3d 41 b5 a3 bd bd fb 5d 3e 3e 2b 29 be
       0.07861723 -0.07993556 0.21678062 -0.16520402
000200 ad 82 70 3c 45 b3 0d 3e c5 d8 6e 3d 31 d4 b2 3d
       0.014679593 0.13837917 0.058312196 0.087318785
000210 5a 76 89 3d 3e af 38 bd 76 82 74 3a a4 e1 10 3d
       0.06712027 -0.045089 0.00093273015 0.035371438
000220 d2 dd 4e bd b7 02 11 3d 00 3e b6 bb ed a9 49 bd
       -0.050504513 0.03540298 -0.00556159 -0.04923432
000230 cd ad 16 3e 64 85 b2 bd 12 aa 51 3d a7 3e 30 be
       0.14714737 -0.087168485 0.051187582 -0.172114
000240 5a 71 91 bd 89 33 43 be 86 da 4b 3d 28 1d f6 3d
       -0.07101698 -0.19062628 0.049768947 0.1201728
000250 2c da 2d bd 64 3a 88 3d ba a1 8f 3c 3e 0a 69 bd
       -0.042444393 0.06651762 0.017533172 -0.056894533
000260 41 39 b7 bc b7 05 e5 3c 77 21 09 3d fc a7 78 3e
       -0.022366168 0.027956827 0.03347918 0.24282831
000270 a0 08 59 bd 06 42 50 bd 97 d7 8b bd c5 49 6e bc
       -0.05298674 -0.050844215 -0.0682823 -0.014543955
000280 a3 c6 9c bd b0 81 ab ba 0f 57 30 bc f9 81 98 3d
       -0.076550744 -0.0013084915 -0.010762944 0.07446665
000290 8c 67 8f bc 00 95 11 be d3 87 29 be 1f 13 8a bc
       -0.01750543 -0.14216995 -0.16555719 -0.01685482
0002a0 b4 38 75 be 17 ab 18 3e a8 e1 e3 bc e7 1c 5b 3d
       -0.23947412 0.14909016 -0.027817562 0.05349436
0002b0 37 f5 a8 3d 64 7e ea 3d 92 2f 7e 3c b6 9c 8c bc
       0.08249896 0.11449888 0.015514271 -0.01716457
0002c0 e5 bf 0d 3d 77 8e f5 bd bb 8a 55 bb e0 5b dc 3c
       0.034606833 -0.11990064 -0.003258391 0.026899278
0002d0 21 55 ad bb ca cb 12 3d d3 a9 3b 3b c4 8c 5f bd
       -0.005289689 0.03583888 0.0028635159 -0.054577604
0002e0 3b 83 39 bd bf 05 16 3e 6c c2 e0 b9 cf 24 99 bd
       -0.045291167 0.1465063 -0.00042869465 -0.07477724
0002f0 c1 a1 85 bc a0 de 92 be 6b dd 82 bd d2 36 29 3d
       -0.016312482 -0.28685474 -0.063898884 0.041312046
000300 54 bf ab bd 99 8d 86 3c c1 e4 02 be 55 2e e1 bd
       -0.08386102 0.01642494 -0.12782575 -0.10995165
000310 0e ed 4a 3c 57 09 c9 3c af 3d 95 bd 59 70 df 3d
       0.01238562 0.024540586 -0.07287156 0.109101005
000320 37 95 f1 3d f5 23 9c 3d 1c be 57 bd 2d 23 93 bd
       0.117960386 0.07624046 -0.052671537 -0.071844436
000330 6d 46 44 3d df 04 74 3d 1f 08 5b be 43 52 b0 bd
       0.047918726 0.059574958 -0.21389817 -0.0860944
000340 d6 e4 ce bd db e0 f5 3d 58 2b 60 bd 8b fc 53 3d
       -0.10102241 0.120057784 -0.054728836 0.051754516
000350 71 54 e8 3d 36 9f 88 bd 37 21 78 3d e9 3d c8 3d
       0.11344231 -0.06670992 0.06057855 0.097774334
000360 9b a0 99 bd e2 d5 34 3d f1 17 86 3d fb aa 9c 3d
       -0.07501336 0.044149287 0.06547535 0.076497994
000370 c3 40 ef bd 1b c8 05 bd 90 c8 3b be de 9e a5 3a
       -0.11682274 -0.03266154 -0.18338227 0.0012635847
000380 1f 87 3a bc 13 b6 3d bc 65 6d c9 3d 1f 1a 39 be
       -0.011384754 -0.011579054 0.098353185 -0.1807637
000390 af 64 da bd c5 84 e1 bd aa ea c4 bd 1f a1 08 bd
       -0.10663735 -0.11011652 -0.09615071 -0.033356782
0003a0 c7 e1 19 3d 07 d7 12 3e c8 5c b3 bd 66 2b ca 39
       0.037568834 0.14339839 -0.08757931 0.00038560777
0003b0 25 af 21 3d 45 e8 9b ba 5d 20 87 3d ef e1 e6 3d
       0.03947367 -0.0011894783 0.0659797 0.11273562
0003c0 d9 f1 10 3e 09 0b 18 3d 03 74 b2 bd d1 2f 95 3c
       0.14154758 0.0371199 -0.08713534 0.018211277
0003d0 0b c1 00 3e 02 9b b2 bc ea 50 7c bc d6 05 94 bd
       0.1257364 -0.02180243 -0.015400151 -0.072276756
0003e0 0b 9c 30 3d ec 50 65 bd 7e dc 06 be e6 5a 90 bd
       0.043117564 -0.055985376 -0.13170049 -0.070485875
0003f0 36 35 04 3d 45 3a 97 bd d3 71 82 3e a2 9c 1c 3c
       0.03227731 -0.07384161 0.25477466 0.009558829

encoder.lin.bias f4 [64]
000000 ee f2 59 3e ed 05 e8 3d ee d0 f1 3c 5a 60 03 bd
       0.21284077 0.11329255 0.02951857 -0.03207431
000010 17 11 1a 3c 14 a4 76 be ce 7c b2 bd ad 7b 80 bd
       0.009403489 -0.24086028 -0.08715211 -0.06273589
000020 f6 fd 23 bd d7 15 2e bd b2 cc 21 3d c7 11 93 bd
       -0.040037118 -0.042501297 0.039501853 -0.07181125
000030 10 a1 23 be 5e f8 55 3d c1 80 40 3d 3e 2f e0 bd
       -0.15979409 0.052238815 0.04699779 -0.10946511
000040 45 a8 4c bd 93 46 65 be a4 e8 65 3d 2f 32 0b 3e
       -0.04996516 -0.22390203 0.056130067 0.13593362
000050 5d 87 90 3d 54 a9 94 3c ad 69 22 bd 30 c5 b4 bd
       0.070570685 0.018147148 -0.03965156 -0.08826673
000060 b2 99 b3 bd 7e ea b0 bd e7 fd c0 3d 62 16 24 3e
       -0.087695494 -0.08638476 0.09423428 0.16024163
000070 2b f7 2f bc 32 20 46 3e bb 41 61 3c b2 88 f4 3c
       -0.010740082 0.19348219 0.0137485815 0.029850338
000080 2c 99 1e 3e fd 15 58 3c c9 73 30 be 7b 92 2a be
       0.15488118 0.013188836 -0.17231669 -0.1665744
000090 e2 25 77 bd e7 e6 18 bc 1b b5 43 3d 38 b7 02 be
       -0.060338862 -0.009332395 0.047780138 -0.12765205
0000a0 42 f0 21 bc 48 0b fe 3b 48 aa 5f 3d 68 bb f3 bd
       -0.009883942 0.0077528097 0.054605752 -0.11900979
0000b0 eb 96 2a bd eb fd 34 3d c2 0d 08 be 68 f3 76 3d
       -0.041647833 0.044187468 -0.13286498 0.060290724
0000c0 ef 0e 04 bd 0c 7c 32 3d c2 e2 16 3e d5 f4 ad 3b
       -0.032240804 0.04357533 0.14734939 0.0053087273
0000d0 cf e5 d5 bd 26 05 0e 3e b4 df 3f be c2 04 aa 3d
       -0.10444223 0.13869151 -0.1873768 0.08301689
0000e0 bc 5f 2b bc a3 8d 96 bd 75 ee e0 bc bf a0 2e bd
       -0.010459837 -0.07351234 -0.027457455 -0.04263377
0000f0 fb 01 ec bd 87 69 8d bd 96 6d 16 3e 50 ef 91 3d
       -0.11523815 -0.06904893 0.14690241 0.07125723

qz0_net.weight f4 [8, 64]
000000 db a8 bf bd 00 e4 1c bc b9 f2 36 3b 40 51 f5 3c
       -0.093583785 -0.009575844 0.002791567 0.02994597
000010 59 c3 ee 3c 09 8e 64 3b ad d1 0f bc b5 eb f2 3d
       0.029145883 0.0034874699 -0.008778018 0.11861364
000020 ab e3 3d bc cd c3 c9 3c 17 72 fc bc 89 85 a5 3c
       -0.011589925 0.024629498 -0.030816121 0.020205276
000030 f8 90 15 3d 97 0e 69 bb bc 3c 30 bd 08 57 a6 3d
       0.036515206 -0.0035561675 -0.04302667 0.08122069
000040 6a 84 50 3d 27 17 f6 3c 2d 07 52 bd 7b db fa bd
       0.05090753 0.030040337 -0.051276375 -0.12248894
000050 9e e2 ee bc f6 74 39 3c ac e5 18 bd 2e 9e 70 3b
       -0.029160794 0.01131939 -0.037328407 0.0036715376
000060 4d d4 ba 3b bb e3 60 bd 37 7c df 3c 9c 78 9e bd
       0.0057015778 -0.05490468 0.02728091 -0.07737848
000070 cf 3f 7f bd 18 25 10 bd f7 95 5a 3d e3 81 04 bd
       -0.062316712 -0.035191625 0.053365674 -0.032350432
000080 e2 84 dd bd d5 b1 69 bb 1e e2 c7 3b 7b a2 7b 3d
       -0.10816361 -0.0035658975 0.0060999533 0.06143425
000090 a5 fd 3a bc aa 1b aa bd 7a 35 75 3d b9 87 d3 3d
       -0.011413013 -0.08306058 0.059865452 0.103286214
0000a0 fb 5b b0 3d 69 fa ac 3b 0a 7b 84 bd e1 f6 35 bc
       0.08611294 0.0052788747 -0.0646878 -0.011106224
0000b0 1a ab 87 bd 77 66 18 bd 64 7b 8f bb e3 ca 84 3d
       -0.06624432 -0.037207093 -0.004378723 0.0648401
0000c0 08 b4 65 bc 30 2d 0e bd 81 a7 ed bd 86 12 9a bc
       -0.014019974 -0.034711063 -0.116042145 -0.01880766
0000d0 e8 c7 2a 3e b0 f6 89 3c d6 dd 14 3e 7f 2a a2 bd
       0.1667782 0.016841263 0.14537749 -0.07918262
0000e0 2e 4f b1 3c 8c 82 db bc ee 3c 7c bd b4 04 bc 3c
       0.021644201 -0.026795648 -0.061581545 0.022951461
0000f0 03 3d 12 bc 48 b0 1c 3d 51 a0 7e bd 31 a8 17 bb
       -0.008925679 0.038254052 -0.06216461 -0.0023141021
000100 b5 3e d2 3d 2a d4 0a 3e ad eb 84 3d cf 33 93 3c
       0.10265867 0.13557497 0.06490264 0.01796904
000110 ea 09 8a bc 13 70 22 be 7c 2f db bd 61 96 6a bd
       -0.01685043 -0.15863065 -0.10702416 -0.05727232
000120 1a 43 5b bd 28 7d dd bd 57 2b a3 3d cd e7 6e 3d
       -0.05353079 -0.10814887 0.07967251 0.05832653
000130 c3 3f cf bc be 4a e1 3c 62 41 54 bd f0 8d 0d be
       -0.025298959 0.02750146 -0.051820166 -0.13823676
000140 f5 c6 5d bd c5 84 e5 bd 82 a2 9f bd e8 fc 1f 3e
       -0.05414482 -0.112069644 -0.07794668 0.1562382
000150 e4 26 81 bd 0c 31 d7 bc dc 07 f5 bd 59 b5 50 bd
       -0.06306246 -0.026268505 -0.1196439 -0.050954197
000160 19 2d 54 3c 4c bd 0f 3d a7 89 48 3e 97 16 bc 3d
       0.012950205 0.035092637 0.1958376 0.09183996
000170 ee c6 91 bd cd 51 69 3d 78 a6 12 3d 12 0c 9c bc
       -0.07118021 0.056962777 0.03580329 -0.019048724
000180 1f 38 bd bc c2 63 1a bd 57 fa 2b be 5b fb 65 bd
       -0.02309805 -0.037692793 -0.16794716 -0.056147914
000190 30 e0 62 bd cc 2b 4f 3d 5b c4 40 3c ef c2 ea bd
       -0.055389583 0.050578877 0.011765565 -0.11462962
0001a0 53 16 d5 bd 9a 25 17 3e b5 61 72 bd 39 7b 97 3b
       -0.10404649 0.14760438 -0.059175212 0.0046228436
0001b0 93 48 02 3d db 8d e1 3b 51 ad 9d bd ff 27 d5 3b
       0.031807493 0.0068833656 -0.07699073 0.006505012
0001c0 4e 8a 86 bd d9 45 a7 3d 85 41 c7 3c 5f bc 7f bd
       -0.06569348 0.08167619 0.024323234 -0.062435504
0001d0 38 5a cb bd 2e 6e af 3d ff 40 0a 3b a2 e6 e8 3d
       -0.09929317 0.08565937 0.002109587 0.11372115
0001e0 8e 1b db bd 42 03 45 bd 34 48 ca bc 08 7a 07 3e
       -0.10698615 -0.04809881 -0.024692632 0.13230145
0001f0 55 f1 2c bd 67 f2 74 3d 07 39 ff 3d 71 30 e2 bd
       -0.04222234 0.059801485 0.12462049 -0.11044396
000200 90 a5 b4 3c a8 02 79 bb dd 92 b4 3d a2 a9 49 3e
       0.022051603 -0.0037995968 0.088170744 0.19693616
000210 3f 46 59 3c a8 ed ee bd 92 d3 2d bd 81 71 5c bd
       0.013261377 -0.11666423 -0.042438097 -0.053819183
000220 14 0e 2a 3e 80 6e f5 3d 5e fb c3 3c 73 4f e7 bd
       0.16606933 0.11983967 0.023923572 -0.112944506
000230 d7 13 09 3e f8 68 19 3e a2 b9 4a 3c 5b 3f 22 3a
       0.13386475 0.14981449 0.01237336 0.000618925
000240 f1 7d 88 bd a7 67 f6 bd 98 0f a5 3d be 48 1c bd
       -0.066646464 -0.12031489 0.08059615 -0.03815531
000250 ae b2 84 3d 5c 40 24 3d 85 ce 05 bc 4e 46 ce bc
       0.06479393 0.04010044 -0.008166914 -0.025180008
000260 7d 40 2f bd 6f c9 88 3b f5 b2 1e 3c ba c8 4c 3d
       -0.04278611 0.0041744034 0.009686221 0.049996115
000270 41 f8 60 bc e8 05 28 3c c7 3b 17 bd 89 a8 06 bc
       -0.013731063 0.010255314 -0.036922242 -0.008218893
000280 7d b5 e4 3d 73 b3 58 bd aa 37 2d bc fa f8 ca 3c
       0.11167429 -0.05290551 -0.010572353 0.024776924
000290 f5 fe 19 3e 78 ca 8c 3d 91 05 1d 3d 2b 9c d7 bd
       0.15038665 0.06874555 0.038335387 -0.105278336
0002a0 89 bd 45 bd 4f 5d 38 be 9a f7 ac 3d 0a 2b 8a bd
       -0.048276458 -0.18004344 0.08445664 -0.0674649
0002b0 a4 f1 8a bc 61 17 06 3d 13 4b e7 bd b3 c2 c7 bc
       -0.016960926 0.03273714 -0.11293616 -0.024384832
0002c0 43 3b e6 3b 2b b1 cb bc 6f 7f cf 3d 68 18 59 3d
       0.0070261075 -0.024864754 0.10131728 0.05300179
0002d0 12 d4 37 3e 96 6f dd 3c 5f e6 bf bd 46 34 a2 3d
       0.17951992 0.027030747 -0.09370112 0.079201266
0002e0 8e 17 3c 3d 27 77 fe bb 72 ba d7 bc 17 c2 43 bd
       0.0459209 -0.007765669 -0.026334021 -0.04779252
0002f0 7d 15 b5 bc dd c2 b9 bd 14 a0 73 3c 01 7e ca 3d
       -0.022104973 -0.0907037 0.014869709 0.098873146
000300 72 3d 22 3d 71 09 9d 3c e4 35 80 3c e3 39 92 3c
       0.03960938 0.019169541 0.015650697 0.017849868
000310 b1 1e de 3b 4e 2b 9d 3c e4 3c 8c 3d f5 5d 3a 3d
       0.006778561 0.019185688 0.068475515 0.04549976
000320 03 e8 10 bc f9 18 fe ba 8f ed 2c 3d a5 72 19 bd
       -0.008844378 -0.0019386105 0.04221874 -0.03746285
000330 60 be c7 bc de 25 11 bd ba 80 a6 3d 02 33 e0 3c
       -0.02438277 -0.035436504 0.081300214 0.027368072
000340 77 f3 24 b9 5c 89 fb 3c 7b cf 0b 3d f3 84 1d bd
       -0.00015730957 0.030705146 0.034133416 -0.03845687
000350 1f f6 7e bd bb 0e 02 bc c3 15 4c 3d 21 0e 2d 3d
       -0.062246438 -0.007938082 0.04982544 0.042249803
000360 6a c0 92 bc bc 4e 50 bd 68 bf 00 be 13 f4 84 3d
       -0.017914016 -0.050856337 -0.12573016 0.06491866
000370 10 f4 20 bd b8 89 80 3d de c5 e4 3b b1 cb aa bc
       -0.039295256 0.06276268 0.0069815954 -0.02084908
000380 9e 85 23 bb 9e c6 60 3d 5b 5b 97 3d 1a 16 07 3d
       -0.0024951468 0.054876916 0.073904715 0.032980062
000390 c8 18 1a bd 40 cb b9 bd 11 ef 9c 3c 89 d3 56 bb
       -0.03762129 -0.0907197 0.019156964 -0.0032779893
0003a0 40 d3 fb 3c 3f e7 27 bd 92 aa 9b bc 01 c4 ab bc
       0.03074038 -0.040992018 -0.019002233 -0.020967485
0003b0 cc 70 e4 bc 22 b8 86 3d e1 ff b5 3c f6 c7 e4 bc
       -0.027885817 0.06578089 0.02221674 -0.02792738
0003c0 f5 12 26 bc f7 33 a0 bd 0e 72 e8 3c eb f3 87 3c
       -0.010136356 -0.078224115 0.028374698 0.016595801
0003d0 e3 ec 47 3d 20 20 0b 3d c2 ec 36 3c 2c 82 ba 3b
       0.048809897 0.033966184 0.011164846 0.005691787
0003e0 ff 59 bb 3d 1e 75 f0 3d 33 4b 16 3d 50 e7 24 be
       0.09148025 0.11741088 0.03669281 -0.16103864
0003f0 b5 40 c0 3d 6e 93 a5 bd 55 cf 0d 3d f5 4d 9c 3d
       0.09387342 -0.080847606 0.034621555 0.076320566

qz0_net.bias f4 [8]
000000 59 d7 f2 bd c8 96 56 3d fb a2 a9 3c 22 ba 9b 3d
       -0.118574806 0.05238989 0.020707598 0.076038614
000010 eb f6 2f be af 17 20 be be b3 74 bd e9 13 6a bc
       -0.17184035 -0.15634035 -0.059741728 -0.0142869735
